mathboy/model.pt (torch, 664519 bytes, 24 tensors)

conv1.weight f4 [16, 1, 3, 3]
0.11458823 0.21545498 -0.89714736 0.8962063 1.8648691 -0.57104975 0.067754194 0.68875426
0.17519186 0.10857472 0.66239786 0.18051867 -0.8902444 0.9168025 0.20591451 -1.1703544
0.00063755666 1.1550367 -0.94280267 -0.558707 0.09268383 -0.6791789 -0.80588 1.1191516
-0.7626679 -0.20095898 0.25334018 -1.1250039 1.5247096 0.4451904 0.010532828 1.2584629
-0.13351828 -0.15464382 -0.108910084 -0.47445646 -0.3971202 0.41232282 -0.6341347 1.0393366
0.56081825 -0.5357163 0.64804703 1.0580406 -0.7192075 0.4800849 0.82676446 0.7225683
-0.25258118 0.026352333 0.27054045 -1.2029667 -1.0737575 -1.503597 -0.15877838 0.633077
0.7023172 0.20442842 0.040847197 0.15826505 -1.2870948 -0.9874597 -1.6648278 0.25869048
0.5043899 0.8299744 -0.4050676 -0.039423246 2.3535943 -0.119033806 -0.42997244 -0.13256092
0.16643867 -0.3477249 -1.5785221 0.74148625 -0.21585116 0.0059208483 1.5106181 -0.18915436
-0.21359085 -1.318848 -0.8560436 -1.0050354 0.45545816 -0.31223828 -0.8724096 0.8304826
0.6885417 -0.013672256 0.28025258 1.7074611 -0.22344266 0.2982758 1.3871657 -0.24639669
-0.9627294 -0.15605313 0.113834485 0.2862142 0.14555554 0.11371036 -0.47313896 1.48897
0.13729005 -1.2038325 0.88569564 -0.68682545 -0.4859504 0.9162825 -0.42462692 -0.2960397
1.0654696 -1.0439054 0.38380593 0.020125007 -0.7536726 -0.059989758 -0.70402837 0.3656109
0.57537585 -0.05542806 0.2542452 1.8294351 -0.14486004 -0.89591646 -0.6732041 0.67721176
-0.7309322 -1.042732 1.1777673 0.8135575 0.26946393 0.047491767 0.19459346 -0.5381619
0.010669046 0.18090394 -0.5693665 0.8518235 1.3044086 -0.07403049 -0.3286805 -0.7300455
00000000: 3cad ea3d 3ba0 5c3e 73ab 65bf c76d 653f
00000010: 08b4 ee3f 5130 12bf b6c2 8a3d 3352 303f
00000020: 7f65 333e 6c5c de3d e892 293f e3d9 383e
00000030: 0fe7 63bf 92b3 6a3f 41db 523e 2cce 95bf
00000040: b421 273a 3ed8 933f 845b 71bf 6c07 0fbf
00000050: 05d1 bd3d abde 2dbf 274e 4ebf 5c40 8f3f
00000060: 343e 43bf 31c8 4dbe ceb5 813e 2100 90bf
00000070: af29 c33f ffef e33e e291 2c3c 5015 a13f
00000080: 04b9 08be f35a 1ebe 400c dfbd f5eb f2be
00000090: 5753 cbbe fa1b d33e a756 22bf fb08 853f
000000a0: c991 0f3f b424 09bf 69e6 253f e06d 873f
000000b0: fc1d 38bf b0cd f53e d6a6 533f 3cfa 383f
000000c0: 5252 81be d9e0 d73c 4784 8a3e d0fa 99bf
000000d0: e370 89bf de75 c0bf cd96 22be 5611 223f
000000e0: 0fcb 333f af55 513e 644f 273d 3c10 223e
000000f0: 86bf a4bf 29ca 7cbf 1419 d5bf 1473 843e
00000100: b21f 013f 3479 543f 0565 cfbe 457a 21bd
00000110: 4aa1 1640 ffc7 f3bd 5925 dcbe 0dbe 07be
00000120: e66e 2a3e 0009 b2be 030d cabf 0bd2 3d3f
00000130: 1608 5dbe ad03 c23b ef5b c13f aeb1 41be
00000140: 8fb7 5abe 03d0 a8bf ac25 5bbf 00a5 80bf
00000150: d031 e93e b2dd 9fbe 3c56 5fbf 829a 543f
00000160: 4544 303f 9901 60bc 447d 8f3e 168e da3f
00000170: 27ce 64be 9bb7 983e a58e b13f 6a4f 7cbe
00000180: 6f75 76bf 64cc 1fbe 0e22 e93d ab8a 923e
00000190: 830c 153e fae0 e83d 453f f2be 9296 be3f
000001a0: c395 0c3e 2f17 9abf f3bc 623f cbd3 2fbf
000001b0: 7ece f8be 7d91 6a3f b368 d9be 8492 97be
000001c0: 4f61 883f b19e 85bf 3682 c43e 33dd a43c
000001d0: b0f0 40bf d2b7 75bd 343b 34bf 5a31 bb3e
000001e0: d54b 133f 8908 63bd 6d2c 823e ee2a ea3f
000001f0: 3156 14be c85a 65bf 1b57 2cbf c05d 2d3f
00000200: 5f1e 3bbf 3e78 85bf 14c1 963f 4e45 503f
00000210: 2df7 893e ba86 423d 8243 473e fac4 09bf
00000220: 39cd 2e3c e23e 393e 01c2 11bf 1b11 5a3f
00000230: dcf6 a63f 4c9d 97bd cf48 a8be 43e4 3abf

conv1.bias f4 [16]
-0.05505891 -1.152325 0.16062082 -0.67304486 -0.2604758 0.3932448 0.47417596 -0.19658756
-0.3763678 0.6310891 0.20355344 -0.5261593 -0.6666045 -0.29150403 0.64018434 0.64510804
00000000: 7485 61bd 637f 93bf c979 243e ab4c 2cbf
00000010: 165d 85be 6257 c93e 31c7 f23e 404e 49be
00000020: 48b3 c0be 0e8f 213f 5070 503e 60b2 06bf
00000030: 98a6 2abf 0440 95be 1fe3 233f cd25 253f

bn1.weight f4 [16]
1.2197758 1.094711 1.7023071 1.2388468 1.3739043 1.6399426 1.7841566 1.2094642
1.3259231 1.7837917 1.3443584 1.314571 1.2209179 1.352924 1.219823 1.1645561
00000000: 9d21 9c3f 7d1f 8c3f 33e5 d93f 8892 9e3f
00000010: 19dc af3f a4e9 d13f 3e5f e43f b9cf 9a3f
00000020: d9b7 a93f 4953 e43f f013 ac3f dd43 a83f
00000030: 0a47 9c3f 9d2c ad3f 2923 9c3f 2d10 953f

bn1.bias f4 [16]
0.4639109 0.40208128 -0.10181459 0.3515055 0.36869743 -0.06642967 -0.071106866 0.5237934
0.35807228 -0.32935715 0.35420787 0.18146738 -1.169329 0.41120785 0.64146984 0.37426773
00000000: bb85 ed3e 99dd cd3e 2b84 d0bd 87f8 b33e
00000010: e9c5 bc3e 470c 88bd 7aa0 91bd 5317 063f
00000020: 4055 b73e 80a1 a8be bc5a b53e 96d2 393e
00000030: 93ac 95bf d689 d23e 5e37 243f 05a0 bf3e

bn1.running_mean f4 [16]
0.22673024 -0.9721466 0.14114103 -0.48175383 -0.05803195 0.44961333 0.48266467 0.10297766
-0.2500449 0.63913274 0.4611551 -0.38270164 -0.6109377 -0.11159088 0.78402877 0.7501916
00000000: f92b 683e 99de 78bf 4687 103e 70a8 f6be
00000010: e9b2 6dbd b833 e63e d31f f73e f4e5 d23d
00000020: e305 80be 349e 233f 851c ec3e 78f1 c3be
00000030: 6a66 1cbf c289 e4bd 1cb6 483f 8f0c 403f

bn1.running_var f4 [16]
0.5352939 0.24319799 0.11857166 0.29012033 0.3116563 0.2119316 0.1517376 0.613117
0.20828317 0.15907238 0.47678012 0.170004 0.06771713 0.24109933 0.16055648 0.10900127
00000000: 0509 093f e508 793e b3d5 f23d a78a 943e
00000010: 6a91 9f3e 9904 593e 1a61 1b3e 3cf5 1c3f
00000020: 2f48 553e dfe3 223e 861c f43e 8715 2e3e
00000030: 47af 8a3d bee2 763e eb68 243e 0f3c df3d

conv2.weight f4 [32, 16, 3, 3]
0.18801248 0.038405344 -0.06054019 -0.08236138 0.8127487 0.15949205 -0.5972533 0.9634126
1.0999602 1.7467979 -0.47904378 -0.5883755 0.4037129 0.22032724 -0.43484208 -0.039226685
0.26279876 0.40724137 -0.9742948 1.0961282 0.28781953 -0.5006459 0.29291815 -0.4247434
-0.7655211 0.26805022 -0.41252765 0.112078786 0.1902171 0.932437 0.025073476 0.5840432
-0.33890274 0.2716428 0.5760246 0.11634164 0.91727364 0.7960317 0.43594238 0.41344753
-0.08299321 0.23152322 0.3360259 -0.062213086 0.12332102 -0.50210005 -1.2429045 0.7708644
-0.9526955 -1.2657605 -0.15212181 0.30917785 0.32337886 -0.34435812 -1.0749036 -0.8105267
1.3803089 -1.8376077 -2.4226623 -0.7950434 0.2171196 0.303085 -0.41139787 1.0794067
0.050331242 0.24608555 0.6936607 0.35820672 -0.15227851 -0.29700798 0.39991298 0.38546905
0.55619687 0.9844713 0.054434072 -1.0203776 0.94400305 0.57990414 -0.6811275 0.076853275
0.33229223 -0.6420856 -0.725712 -0.66854465 -2.4749894 -1.4579419 -0.090500124 -2.2398305
-0.650933 1.3369668 1.0261672 -0.13213561 0.09588217 0.49407083 0.22643957 -0.40523118
0.060094148 0.18823063 0.06429096 1.3845046 0.4613563 0.43419904 1.2732112 1.1152643
-0.09532277 0.496148 -0.08812579 0.6224974 0.31148738 1.1580471 1.4575651 0.6297417
-0.07473307 1.1460328 -0.298774 -0.95267355 -0.032835335 -0.5280239 0.6220489 -0.072424956
-0.42447424 -0.06844014 0.27739614 -0.34393406 -0.20772146 0.08078956 1.0162212 -0.100298986
0.21017617 0.9971679 0.44752175 -0.217101 0.07935882 0.48875818 0.81174296 -0.05757548
-0.15977846 0.70498854 0.9090485 -0.07192766 -0.19576772 0.5294921 0.99133676 -0.0012264
-0.4228433 -0.346466 1.0906868 0.5222345 0.2784705 1.1983687 0.06588134 -0.02669965
0.49298993 -0.46681532 0.5276249 0.40733165 0.18993159 0.8683597 -0.14123178 0.7126274
0.90360653 0.2410294 -0.58117825 0.2803327 0.88406116 -0.43054718 -1.1551656 -0.30667743
-1.5420374 -0.79986656 -0.33153903 -0.24687694 -0.98679835 0.7468621 -0.25235486 0.74364954
0.67172307 0.67722625 0.36630794 -0.57998073 -0.35722598 -0.6641057 -0.06712138 0.92749405
1.0362293 0.661566 -1.3142343 -0.94773924 -0.14166585 0.8096966 -0.35609385 -0.8581255
0.121694826 -0.10827307 -0.40351126 0.6971694 0.42662245 -0.2524174 0.44640607 -0.7620538
-0.69147724 -0.447953 -0.16165859 -0.19132192 0.28817675 0.7454758 0.24952658 -0.97561973
0.081286915 -0.12691937 0.13167946 1.015262 -0.10627968 0.49611536 1.1395088 -0.10830065
-0.056677528 -0.65018946 0.63067406 0.91192317 0.59512746 0.12183071 -1.5874811 -0.8240524
-0.41880837 -0.6355514 -0.3091565 -0.8277011 1.2040269 -0.37451142 -1.2628577 -1.1877984
-0.8666739 -0.799778 0.35197186 -0.67505705 -0.00019892282 -0.4762052 0.11837072 0.14373231
1.0845635 1.2273692 0.9390607 -0.28642416 -0.5635031 0.7937509 -0.225999 0.4211239
0.40120864 0.9202186 0.161923 0.4213818 1.1570734 0.058007907 0.9961175 -0.15954296
00000000: 5886 403e ec4e 1d3d fef8 77bd 15ad a8bd
00000010: 4c10 503f e251 233e 98e5 18bf 35a2 763f
00000020: 7fcb 8c3f 1397 df3f 3a45 f5be c79f 16bf
00000030: 75b3 ce3e 779d 613e 9fa3 debe 29ac 20bd
00000040: 8f8d 863e f181 d03e 626b 79bf ee4d 8c3f
00000050: 155d 933e 542a 00bf 5ef9 953e f877 d9be
00000060: 31f9 43bf e13d 893e d336 d3be 9089 e53d
00000070: 45c8 423e 31b4 6e3f e466 cd3c db83 153f
00000080: a984 adbe c414 8b3e 5976 133f 8744 ee3d
00000090: 72d2 6a3f bcc8 4b3f d733 df3e 65af d33e
000000a0: 58f8 a9bd 6c14 6d3e 960b ac3e 26d3 7ebd
000000b0: bb8f fc3d a189 00bf 7f17 9fbf 5f57 453f
000000c0: dae3 73bf 7104 a2bf d2c5 1bbe 8f4c 9e3e
000000d0: ea91 a53e b54f b0be 7196 89bf ae7e 4fbf
000000e0: f6ad b03f bb36 ebbf e60c 1bc0 f787 4bbf
000000f0: 9a54 5e3e f52d 9b3e bea2 d2be 002a 8a3f
00000100: 2228 4e3d dafd 7b3e bf93 313f df66 b73e
00000110: e6ee 1bbe 6e11 98be 65c1 cc3e 335c c53e
00000120: eb62 0e3f 5006 7c3f 43f6 5e3d bc9b 82bf
00000130: 2faa 713f 9974 143f 5f5e 2ebf 4065 9d3d
00000140: 3522 aa3e b95f 24bf 43c8 39bf be25 2bbf
00000150: 3a66 1ec0 d79d babf 2158 b9bd 6259 0fc0
00000160: 8ca3 26bf ba21 ab3f 7259 833f 8f4e 07be
00000170: df5d c43d daf6 fc3e c6df 673e 767a cfbe
00000180: 4825 763d 88bf 403e fbaa 833d 7237 b13f
00000190: e536 ec3e 564f de3e 96f8 a23f fbc0 8e3f
000001a0: 9638 c3bd 1c07 fe3e 4b7b b4bd fd5b 1f3f
000001b0: 467b 9f3e e33a 943f 7e91 ba3f c136 213f
000001c0: a70d 99bd 34b1 923f e8f8 98be 6ae2 73bf
000001d0: 587e 06bd 932c 07bf 993e 1f3f 8953 94bd
000001e0: b054 d9be 582a 8cbd de06 8e3e 2018 b0be
000001f0: efb4 54be ff74 a53d 8913 823f 8e69 cdbd
00000200: 6c38 573e 6546 7f3f 9221 e53e b94f 5ebe
00000210: e186 a23d 833e fa3e 63ce 4f3f 44d4 6bbd
00000220: f79c 23be 217a 343f 67b7 683f cf4e 93bd
00000230: 5577 48be cb8c 073f 3fc8 7d3f 28bf a0ba
00000240: eb7e d8be fe63 b1be a09b 8b3f 29b1 053f
00000250: af93 8e3e 2564 993f ccec 863d 39b9 dabc
00000260: 2d69 fc3e 6b02 efbe 6d12 073f c68d d03e
00000270: 6d7d 423e d24c 5e3f 109f 10be c06e 363f
00000280: c252 673f 69d0 763e 19c8 14bf c587 8f3e
00000290: d551 623f ae70 dcbe 77dc 93bf d304 9dbe
000002a0: 7b61 c5bf 0ec4 4cbf 7cbf a9be 4fcd 7cbe
000002b0: d19e 7cbf 5b32 3f3f a834 81be d15f 3e3f
000002c0: 0bf6 2b3f b35e 2d3f b78c bb3e 9e79 14bf
000002d0: 53e6 b6be d502 2abf ef76 89bd 4070 6d3f
000002e0: 29a3 843f 645c 293f d438 a8bf 0a9f 72bf
000002f0: da10 11be 4748 4f3f ef51 b6be 1dae 5bbf
00000300: 233b f93d 45be ddbd 0799 cebe b279 323f
00000310: 426e da3e da3c 81be 568f e43e f515 43bf
00000320: a704 31bf 185a e5be d489 25be e5e9 43be
00000330: e78b 933e 81d7 3e3f e583 7f3e 37c2 79bf
00000340: c179 a63d 27f7 01be fbd6 063e 1bf4 813f
00000350: 29a9 d9bd d502 fe3e 6ddb 913f bbcc ddbd
00000360: b226 68bd d172 26bf db73 213f cc73 693f
00000370: 465a 183f 6182 f93d 9532 cbbf 19f5 52bf
00000380: 0d6e d6be 7fb3 22bf c349 9ebe 38e4 53bf
00000390: 8e1d 9a3f f6bf bfbe 52a5 a1bf c709 98bf
000003a0: 57de 5dbf 40be 4cbf a835 b43e 8ad0 2cbf
000003b0: f095 50b9 2bd1 f3be 596c f23d 902e 133e
000003c0: fad2 8a3f 6f1a 9d3f 4866 703f 30a6 92be
000003d0: bd41 10bf 4233 4b3f 486c 67be 8d9d d73e
000003e0: 386b cd3e 7293 6b3f 25cf 253e 5bbf d73e
000003f0: fb1a 943f b399 6d3d 8e01 7f3f 3b5f 23be

conv2.bias f4 [32]
-0.38541576 0.0430554 0.11008136 -0.08650495 -0.12605776 0.04798941 0.0715375 0.07791271
0.08241543 0.3758272 -0.15644525 0.21625873 0.0860969 -0.36794782 0.37968737 -0.13190916
0.04095894 0.026649822 0.034479134 -0.09609771 0.08475984 0.2285401 -0.20032234 -0.24954034
0.26102445 0.0737911 -0.25732362 0.017579578 -0.12725154 -0.095730536 -0.08004147 -0.06521753
00000000: 3755 c5be dc5a 303d 5672 e13d 8229 b1bd
00000010: 4915 01be 8b90 443d 4182 923d b390 9f3d
00000020: 6cc9 a83d 6c6c c03e 2f33 20be ee72 5d3e
00000030: 9253 b03d a863 bcbe 6266 c23e 3213 07be
00000040: 90c4 273d ba50 da3c fe39 0d3d e0ce c4bd
00000050: 9196 ad3d 6a06 6a3e 4d21 4dbe 8187 7fbe
00000060: ffa4 853e ca1f 973d ecbf 83be 0c03 903c
00000070: 3a4e 02be 5f0e c4bd c8ec a3bd c590 85bd

bn2.weight f4 [32]
1.3797475 1.0778772 1.4632596 1.895341 2.0410523 2.153849 1.1105248 1.6910111
1.4417692 1.5114174 1.4845129 1.1618412 1.3169221 1.3632826 1.6477453 1.3243192
1.5956198 2.4391625 1.2896341 0.96271914 1.0711478 1.5870185 1.4510859 1.4781518
1.2100455 1.1150116 1.358838 1.0067866 1.5056342 1.2218906 1.2684467 1.8939008
00000000: 919b b03f e1f7 893f 174c bb3f 899a f23f
00000010: 9aa0 0240 a9d8 0940 ad25 8e3f 0d73 d83f
00000020: e58b b83f 2076 c13f 8504 be3f 36b7 943f
00000030: e790 a83f 0b80 ae3f 51e9 d23f 4b83 a93f
00000040: 453d cc3f 3d1b 1c40 bb12 a53f c374 763f
00000050: 5f1b 893f 6c23 cb3f 2fbd b93f 1434 bd3f
00000060: c5e2 9a3f b3b8 8e3f 67ee ad3f 62de 803f
00000070: 9fb8 c03f e966 9c3f 765c a23f 576b f23f

bn2.bias f4 [32]
-0.72280824 0.30791998 -0.24477157 -0.16390266 0.26851404 0.10216188 -0.13119656 -0.0023349754
-0.09357243 -0.34485087 -0.34649324 0.46651623 0.23665787 -0.0021067692 -0.3141007 -0.2410313
-0.31191364 0.016463725 -0.3566201 0.28152147 -0.19044296 -0.3743711 -0.11638731 -0.29482782
0.45100296 0.01685542 0.55061835 -0.22018793 -0.2052234 0.009548381 -0.1784671 0.04532108
00000000: f609 39bf b0a7 9d3e 66a5 7abe 19d6 27be
00000010: ac7a 893e 3f3a d13d 6458 06be 6306 19bb
00000020: e7a2 bfbd 4b90 b0be 9067 b1be 37db ee3e
00000030: 7156 723e b911 0abb cfd1 a0be e9d0 76be
00000040: 25b3 9fbe efde 863c e996 b6be 9523 903e
00000050: 7b03 43be 92ad bfbe 785c eebd acf3 96be
00000060: dce9 e63e 6114 8a3c 53f5 0c3f f278 61be
00000070: 1526 52be d070 1c3c 14c0 36be 99a2 393d

bn2.running_mean f4 [32]
15.592494 12.94547 -5.628166 -1.1621145 -12.273638 -1.0260544 0.79040056 0.52567303
-0.35898513 -1.6615644 -2.5085416 15.838684 23.273771 8.805396 -0.12964042 -1.0019286
-4.0298834 -7.668222 -4.907874 7.642936 0.0330775 -0.91693866 10.240521 -3.396353
5.837732 3.34906 19.049482 -0.69561553 -1.2722163 1.2830791 4.6286063 2.0907824
00000000: db7a 7941 a520 4f41 f019 b4c0 2bc0 94bf
00000010: d260 44c1 c055 83bf b157 4a3f 8292 063f
00000020: e6cc b7be 24ae d4bf f28b 20c0 406b 7d41
00000030: af30 ba41 e7e2 0c41 75c0 04be 323f 80bf
00000040: cef4 80c0 1362 f5c0 4e0d 9dc0 ef92 f440
00000050: 467c 073d 7ebc 6abf 2dd9 2341 d95d 59c0
00000060: b3ce ba40 0057 5640 5765 9841 dc13 32bf
00000070: fcd7 a2bf f03b a43f 8b1d 9440 61cf 0540

bn2.running_var f4 [32]
677.4661 650.47644 600.4387 452.9896 1048.3436 471.57294 205.49944 368.14587
702.8272 475.86844 259.06204 980.88763 1551.6359 503.71982 329.2002 194.81743
580.98956 363.10764 475.90985 549.55084 441.23795 309.8077 493.4341 572.6911
607.665 283.9944 1321.4908 329.87787 284.4589 407.8633 384.2565 337.03934
00000000: d55d 2944 7e9e 2244 141c 1644 ab7e e243
00000010: ff0a 8344 56c9 eb43 db7f 4d43 ac12 b843
00000020: f1b4 2f44 29ef ed43 f187 8143 cf38 7544
00000030: 59f4 c144 23dc fb43 a099 a443 43d1 4243
00000040: 553f 1144 c78d b543 76f4 ed43 4163 0944
00000050: 759e dc43 63e7 9a43 91b7 f643 3b2c 0f44
00000060: 8fea 1744 48ff 8d43 b52f a544 5ef0 a443
00000070: bd3a 8e43 81ee cb43 d520 c043 0985 a843

conv3.weight f4 [64, 32, 3, 3]
-0.8930163 0.50062585 -1.729935 -1.0270003 0.083967164 -1.5135286 -0.5319382 -0.22675481
-1.7470531 0.65528595 -0.15652081 -1.8451988 0.1657137 0.11939391 -1.6130335 -0.47826594
-1.0700593 -1.3598886 0.9467958 1.0653602 -0.35089704 0.24127813 0.1661929 -0.10378047
-0.040956907 0.13453512 -0.9632922 1.0705199 -0.03712126 -1.8742211 0.59401524 -1.7347018
-2.14731 -0.56072295 -1.4694672 -0.8719519 -1.1691561 -0.008889894 1.3951 -0.24590394
0.16414362 0.442146 -0.53687024 -0.43694597 -0.1621701 0.25263074 -0.15810086 0.32040834
-0.19318695 0.5083939 -2.1874175 0.004434715 -0.7676969 -0.92211515 1.2654831 0.8339538
-1.1863152 0.56234246 0.03163407 -1.3453531 -0.48288777 0.18332127 -1.3755279 1.509329
0.34163493 -0.8116021 0.44389063 0.5038691 -0.6753368 0.19085608 0.2404176 -0.7667651
-0.79435784 0.616858 -0.80831736 -1.1592177 0.09332177 -0.6637735 0.33362812 -0.2167761
-1.159059 1.0074528 0.044131655 -1.8771665 0.44369414 -0.19955306 -0.8827666 -0.30412725
-0.447537 -0.9202407 0.3912993 -0.062247176 -1.7011433 -0.3089454 -0.8309448 -1.2254134
-0.70448893 -1.2740674 -1.0474472 -0.6606097 0.467789 -1.7492108 -0.39699024 0.17732964
-1.4862387 0.28777626 -0.5838252 -1.8665289 -0.85793436 1.0782566 -1.2283559 -0.15296447
0.24412271 -1.2713369 -0.7126292 0.112125695 -1.1450088 -1.2354658 0.11604272 -1.3615248
-0.5480769 0.15165034 -1.3000829 -0.36537984 -0.44458923 -1.4046464 0.23101541 0.5729124
-1.5981642 -0.114628844 -1.4397621 -2.1866493 -0.63591033 -0.9726325 -1.0684011 0.08035788
0.5163925 -1.7619891 -0.56349015 -0.21871874 -1.2227955 -0.23656185 -0.13777477 -1.8391306
0.6830716 0.4619771 -0.3003296 -0.100704156 -0.24242732 -0.54934067 0.33097008 -0.39752772
-1.5589823 -0.9212191 -0.5766462 0.30454388 -0.6940762 0.5038656 0.0039245845 -0.31177676
-0.7618381 0.29318666 1.0035682 0.67394197 -0.7405876 0.7888402 0.030643623 -0.775719
-0.04183668 0.29693282 -0.62146443 0.21420996 0.7212206 -1.8721551 0.18795957 0.8860161
-1.0320117 -0.041388594 0.8022903 -1.4022461 0.8686811 -0.106156796 -0.7044413 0.011533868
0.09465421 -0.8424637 -0.2872724 0.47628325 -1.2538584 0.63010216 -0.22052556 0.06423504
0.14526734 -0.4485435 0.054175593 -0.827691 -0.67873144 -0.30477783 -0.33240926 -0.17228138
-0.2657306 -0.7975452 0.6287617 -0.79428446 -0.124319725 -0.71631 -1.3953938 -0.5159048
0.14088725 -0.5685669 -0.41830602 0.08677279 -0.74307656 -0.46992415 -0.978845 -1.8876041
0.62442994 0.92874426 0.2931309 0.13688126 0.82516944 -0.7939753 -0.70053524 -0.15693557
-0.9705812 0.3969355 0.30217165 -1.9937834 -0.14059325 0.102701284 -0.9096852 -0.20666468
0.28374174 -1.04038 -0.99897105 1.1881641 -0.53819484 -0.87718135 0.6137233 -1.0094999
-0.46077323 -0.51558995 -1.5823584 0.9235629 1.4802607 -0.42880076 0.679559 0.89746857
-0.75928557 0.01918929 0.3131058 -0.5593247 1.001846 0.35909772 -1.0233308 0.20901474
00000000: b79c 64bf 0429 003f 836e ddbf bf74 83bf
00000010: faf6 ab3d 4ebb c1bf 1a2d 08bf 6a32 68be
00000020: 709f dfbf d2c0 273f fe46 20be 792f ecbf
00000030: dab0 293e cb84 f43d e277 cebf 46df f4be
00000040: b4f7 88bf d410 aebf 3661 723f b95d 883f
00000050: c7a8 b3be 9d11 773e 792e 2a3e db8a d4bd
00000060: 6ec2 27bd 93c3 093e 519a 76bf cc06 893f
00000070: 760c 18bd 7ae6 efbf 6211 183f b50a debf
00000080: 876d 09c0 8a8b 0fbf 8017 bcbf 3d38 5fbf
00000090: e8a6 95bf eba6 11bc a392 b23f 3ece 7bbe
000000a0: 4415 283e f660 e23e 5470 09bf 62b7 dfbe
000000b0: eb0f 26be d158 813e 31e5 21be 900c a43e
000000c0: cdd2 45be 1a26 023f a6fe 0bc0 1651 913b
000000d0: c987 44bf bd0f 6cbf 5afb a13f ff7d 553f
000000e0: 2dd9 97bf adf5 0f3f ba92 013d 8834 acbf
000000f0: 113d f7be 92b8 3b3e 4c11 b0bf b131 c13f
00000100: c6ea ae3e 28c5 4fbf a245 e33e 91fd 003f
00000110: dfe2 2cbf c76f 433e 0830 763e b84a 44bf
00000120: 095b 4bbf 68ea 1d3f e3ed 4ebf 3f61 94bf
00000130: 7c1f bf3d 0fed 29bf 4ed1 aa3e 8efa 5dbe
00000140: 0c5c 94bf 37f4 803f 65c3 343d fe46 f0bf
00000150: e12b e33e a357 4cbe fefc 61bf 91b6 9bbe
00000160: 9223 e5be e594 6bbf 6258 c83e e5f6 7ebd
00000170: 10bf d9bf 172e 9ebe ccb8 54bf 59da 9cbf
00000180: 6359 34bf a414 a3bf c012 86bf b81d 29bf
00000190: 0a82 ef3e 24e6 dfbf 4e42 cbbe e795 353e
000001a0: 123d bebf 6957 933e 9175 15bf 6bea eebf
000001b0: 96a1 5bbf 5004 8a3f c43a 9dbf b8a2 1cbe
000001c0: 4efb 793e 2bbb a2bf de6e 36bf 28a2 e53d
000001d0: a68f 92bf be23 9ebf cea7 ed3d 7246 aebf
000001e0: c54e 0cbf 3a4a 1b3e 1e69 a6bf 1113 bbbe
000001f0: 33a1 e3be 74cb b3bf 4e8f 6c3e 63aa 123f
00000200: a590 ccbf 87c2 eabd 204a b8bf 10f2 0bc0
00000210: 05cb 22bf 72fe 78bf 5ec1 88bf ac92 a43d
00000220: 4d32 043f dc88 e1bf e440 10bf cef7 5fbe
00000230: 9084 9cbf 453d 72be d414 0dbe a268 ebbf
00000240: c8dd 2e3f 4388 ec3e cdc4 99be fb3d cebd
00000250: de3e 78be 97a1 0cbf e974 a93e c188 cbbe
00000260: bb8c c7bf 04d5 6bbf 169f 13bf 2ded 9b3e
00000270: faae 31bf 56fd 003f cd99 803b 34a1 9fbe
00000280: d207 43bf 901c 963e ec74 803f 7687 2c3f
00000290: 2697 3dbf 6ef1 493f 5608 fb3c 8595 46bf
000002a0: f05c 2bbd 9407 983e 4b18 1fbf db59 5b3e
000002b0: eaa1 383f c7a2 efbf 7978 403e f3d1 623f
000002c0: f618 84bf 1687 29bd e662 4d3f cd7c b3bf
000002d0: e261 5e3f bc68 d9bd 4456 34bf 8cf8 3c3c
000002e0: 11da c13d b3ab 57bf 5e15 93be 66db f33e
000002f0: 6f7e a0bf 604e 213f 74d1 61be a98d 833d
00000300: f6c0 143e 7ea7 e5be 3ae7 5d3d 8fe3 53bf
00000310: 58c1 2dbf d70b 9cbe 8c31 aabe 886a 30be
00000320: d70d 88be ec2b 4cbf 87f6 203f 3a56 4bbf
00000330: 579b febd 1860 37bf 449c b2bf 5612 04bf
00000340: bf44 103e 9a8d 11bf 352c d6be efb5 b13d
00000350: 443a 3ebf e699 f0be 9695 7abf 039d f1bf
00000360: a4da 1f3f 2fc2 6d3f 4115 963e 9a2a 0c3e
00000370: 4e3e 533f f741 4bbf 4756 33bf b8b3 20be
00000380: 0278 78bf 213b cb3e 3eb6 9a3e 4b34 ffbf
00000390: adf7 0fbe 0d55 d23d 21e1 68bf e89f 53be
000003a0: 9946 913e 2c2b 85bf 91bc 7fbf c315 983f
000003b0: 23c7 09bf f58e 60bf f81c 1d3f 4b37 81bf
000003c0: 78ea ebbe b4fd 03bf b88a cabf 9e6e 6c3f
000003d0: 2f79 bd3f c68b dbbe 94f7 2d3f 80c0 653f
000003e0: 8a60 42bf dc32 9d3c 674f a03e e72f 0fbf
000003f0: 7d3c 803f a8db b73e 81fc 82bf f607 563e

conv3.bias f4 [64]
-0.047121298 0.05380279 0.04313142 -0.07041752 -0.08696089 0.037460987 -0.029562224 0.0023625863
0.08954833 -0.07200298 -0.050364595 0.074678645 0.0077358657 0.11846968 -0.10638491 -0.045523264
0.0041812076 0.08883164 -0.10082654 0.035238158 -0.1570943 -0.089541085 -0.047163166 -0.12819913
-0.041047927 0.01251645 -0.027422946 0.03553125 -0.038031664 0.077515766 -0.02941103 -0.077473186
0.03526444 0.010840383 0.091217555 -0.021280434 0.05161468 0.016705275 -0.0058663925 0.006268879
-0.023757927 0.02169501 0.060214754 0.0871828 -0.048915137 -0.009346196 -0.041044343 -0.056291502
0.071322724 0.0025906034 -0.047877803 0.11901693 -0.0811518 0.12444352 -0.083189726 -0.03278603
-0.056244735 0.005348713 0.01884615 -0.07970594 0.051181447 -0.06020909 0.076851554 -0.049581587
00000000: 4302 41bd 5060 5c3d 92aa 303d 1037 90bd
00000010: 8d18 b2bd b170 193d 7a2c f2bc 9fd5 1a3b
00000020: 1d65 b73d 4c76 93bd 1b4b 4ebd 1ef1 983d
00000030: 257d fd3b 3ba0 f23d 55e0 d9bd 9a76 3abd
00000040: 8302 893b 5ded b53d 257e cebd e355 103d
00000050: 54dd 20be 5161 b7bd 2a2e 41bd a246 03be
00000060: df21 28bd cc11 4d3c 16a6 e0bc 3789 113d
00000070: 17c7 1bbd 96c0 9e3d 66ef f0bc 43aa 9ebd
00000080: 7271 103d dd9b 313c 45d0 ba3d 4e54 aebc
00000090: ea69 533d 80d9 883c de3a c0bb 2b6b cd3b
000000a0: fc9f c2bc bcb9 b13c bfa3 763d e58c b23d
000000b0: 3d5b 48bd ca20 19bc 1d1e 28bd eb91 66bd
000000c0: a611 923d 1dc7 293b 841b 44bd 26bf f33d
000000d0: ea32 a6bd 3fdc fe3d 605f aabd a54a 06bd
000000e0: e160 66bd 4244 af3b 3e63 9a3c de3c a3bd
000000f0: a3a3 513d cf9d 76bd 5964 9d3d 1016 4bbd

bn3.weight f4 [64]
0.42028502 0.46268588 0.48547512 0.1993368 0.6024942 0.6624188 0.31186888 0.34738725
0.48091593 0.59290886 0.31858924 0.56568354 0.36225963 0.50393003 0.59580344 0.50069547
0.21063659 0.32643265 0.34189963 0.36374253 0.4187459 0.34476197 0.35098225 0.34388483
0.29162645 0.53832066 0.40902114 0.5142228 0.35675973 0.45087436 0.3655551 0.41772667
0.52631766 0.25749844 0.36552754 0.40922487 0.5900261 0.59230983 0.51887375 0.43968526
0.38824072 0.41037312 0.3897948 0.77909607 0.3895053 0.38439482 0.5032394 0.39470303
0.58569634 0.46401402 0.3487187 0.5929832 0.4548922 0.48588404 0.42822263 0.44771475
0.651381 0.5811387 0.472665 0.40044266 0.23966748 0.6113817 0.3690871 0.3550804
00000000: 992f d73e 2ae5 ec3e 3290 f83e f21e 4c3e
00000010: 0f3d 1a3f 4794 293f 47ad 9f3e bedc b13e
00000020: 9d3a f63e e0c8 173f 211e a33e a3d0 103f
00000030: 187a b93e 8f01 013f 9386 183f 942d 003f
00000040: 1eb1 573e 2e22 a73e 780d af3e 763c ba3e
00000050: dd65 d63e a484 b03e f2b3 b33e ac11 b03e
00000060: 1050 953e 62cf 093f 386b d13e 1ba4 033f
00000070: 36a9 b63e 01d9 e63e 0a2a bb3e 45e0 d53e
00000080: c1bc 063f d6d6 833e 6d26 bb3e ec85 d13e
00000090: f30b 173f 9ea1 173f e9d4 043f 6d1e e13e
000000a0: 7dc7 c63e 6d1c d23e 2f93 c73e d772 473f
000000b0: 3d6d c73e 66cf c43e 4cd4 003f 8416 ca3e
000000c0: 32f0 153f 3f93 ed3e 428b b23e bfcd 173f
000000d0: a1e7 e83e cbc5 f83e ff3f db3e de3a e53e
000000e0: e8c0 263f 81c5 143f 2601 f23e d206 cd3e
000000f0: 646b 753e 8383 1c3f fcf8 bc3e 19cd b53e

bn3.bias f4 [64]
-0.27919692 -0.3942779 -0.34185272 -0.7526537 -0.23180471 -0.3575159 -0.22022822 -0.15920775
-0.23095018 -0.15210153 -0.669491 -0.3708135 -0.24799511 -0.42108837 -0.25108546 -0.14451176
-0.66407555 -0.19540867 -0.19117185 -0.3010119 -0.59154856 -0.07129038 -0.55659336 -0.14966017
-0.5432643 -0.150743 -0.3024212 -0.3329298 -0.21719465 -0.36556634 -0.34599772 -0.45251924
-0.37116894 -0.61439204 -0.6557394 -0.25893435 -0.5582031 -0.4495947 -0.36307734 -0.2484784
-0.43492946 -0.15102355 -0.36319083 -0.40770087 -0.3699055 -0.16029342 -0.45087472 -0.26348355
-0.5093737 -0.44234285 -0.51448464 -0.36867696 -0.21512301 -0.42771527 -0.3127962 -0.29284772
-0.45484632 -0.4082415 -0.41697812 -0.42069313 -0.61368364 -0.27180573 -0.22629271 -0.56576955
00000000: e6f2 8ebe cbde c9be 5207 afbe eaad 40bf
00000010: 375e 6dbe 530c b7be 8283 61be 5b07 23be
00000020: 347e 6cbe 81c0 1bbe c363 2bbf 44db bdbe
00000030: 6ef2 7dbe e598 d7be 468e 80be e4fa 13be
00000040: db00 2abf 3619 48be 8ec2 43be 3b1e 9abe
00000050: ba6f 17bf b100 92bd e77c 0ebf 8440 19be
00000060: 5f13 0bbf 5f5c 1abe f4d6 9abe c675 aabe
00000070: 4668 5ebe 832b bbbe 9d26 b1be 9ab0 e7be
00000080: db09 bebe cc48 1dbf 8ade 27bf 0b93 84be
00000090: 66e6 0ebf 4731 e6be 46e5 b9be 1f71 7ebe
000000a0: 13af debe eba5 1abe 26f4 b9be 2bbe d0be
000000b0: 4164 bdbe f523 24be 0dd9 e6be 51e7 86be
000000c0: 5166 02bf c37a e2be 44b5 03bf 3ac3 bcbe
000000d0: 3549 5cbe 7ffd dabe d326 a0be 23f0 95be
000000e0: 9ee1 e8be 0805 d1be 287e d5be 1765 d7be
000000f0: 5f1a 1dbf 1f2a 8bbe 47b9 67be 46d6 10bf

bn3.running_mean f4 [64]
-15.168805 -10.348285 -11.373163 -15.37963 -12.529658 -7.267281 0.8333698 -5.1679096
-11.458023 -9.82329 10.253412 -22.646935 -5.492652 -18.91514 -16.21531 -8.344371
-6.455062 -1.0393977 1.0763077 -8.527115 -13.253721 -3.080265 -14.29399 -7.6478167
-15.65913 -12.971589 -8.272568 -11.317552 1.0907894 -11.666547 1.4104546 -12.073916
-9.4373 -23.286919 23.05934 -17.049574 -24.49168 -15.219371 -20.178635 -10.785443
-16.34123 -9.566511 -13.112895 -17.777306 -11.953308 0.0131222755 -22.09899 -15.603123
-10.470127 -23.043367 -12.392113 -24.246462 -9.836743 -13.211729 -13.5620985 -16.630398
-16.0388 -17.140152 -15.761067 -6.8513913 -5.9880786 -13.92931 -9.73089 -9.640475
00000000: 6db3 72c1 9392 25c1 7af8 35c1 f712 76c1
00000010: 7b79 48c1 918d e8c0 b957 553f 845f a5c0
00000020: 1054 37c1 322c 1dc1 fa0d 2441 ec2c b5c1
00000030: cec3 afc0 3552 97c1 f4b8 81c1 8b82 05c1
00000040: de8f cec0 fc0a 85bf 73c4 893f 106f 08c1
00000050: 3e0f 54c1 1023 45c0 2fb4 64c1 eaba f4c0
00000060: cc8b 7ac1 a18b 4fc1 705c 04c1 b114 35c1
00000070: fd9e 8b3f 2daa 3ac1 c789 b43f c32e 41c1
00000080: 2eff 16c1 9c4b bac1 8779 b841 8765 88c1
00000090: f6ee c3c1 8b82 73c1 d86d a1c1 2d91 2cc1
000000a0: d7ba 82c1 6e10 19c1 6bce 51c1 ec37 8ec1
000000b0: c040 3fc1 d0fe 563c bbca b0c1 64a6 79c1
000000c0: a485 27c1 d158 b8c1 1846 46c1 c1f8 c1c1
000000d0: 4d63 1dc1 3e63 53c1 5bfe 58c1 0e0b 85c1
000000e0: 764f 80c1 081f 89c1 552d 7cc1 993e dbc0
000000f0: 579e bfc0 74de 5ec1 bab1 1bc1 633f 1ac1

bn3.running_var f4 [64]
1010.9478 318.6348 565.7189 405.868 988.46356 540.1946 391.54178 733.1232
820.8125 1028.8367 459.339 1467.5858 745.2113 1585.1108 1317.8016 677.58624
229.5583 560.04254 723.47217 572.8835 478.97958 671.40027 313.77298 623.4919
817.93207 1062.1671 469.9744 915.1158 363.6585 547.4167 603.10126 591.84247
713.2652 1485.2914 760.64856 1278.5782 981.9268 782.99805 1377.0511 515.7307
252.80992 583.49695 643.30914 1392.3057 758.6786 421.51068 1273.0905 676.6464
720.127 1467.5077 467.1666 1265.9396 1123.1224 633.4523 752.56445 1193.2246
800.4433 990.8957 713.08374 367.4296 205.30907 1052.7657 593.4993 217.8064
00000000: a9bc 7c44 4151 9f43 026e 0d44 1bef ca43
00000010: ab1d 7744 740c 0744 59c5 c343 e347 3744
00000020: 0034 4d44 c69a 8044 64ab e543 bf72 b744
00000030: 864d 3a44 8c23 c644 a7b9 a444 8565 2944
00000040: ed8e 6543 b902 0c44 38de 3444 8b38 0f44
00000050: 637d ef43 9ed9 2744 f1e2 9c43 7bdf 1b44
00000060: a77b 4c44 59c5 8444 b9fc ea43 69c7 6444
00000070: 4ad4 b543 abda 0844 7bc6 1644 ebf5 1344
00000080: f950 3244 53a9 b944 8229 3e44 81d2 9f44
00000090: 517b 7544 e0bf 4344 a321 ac44 c4ee 0044
000000a0: 57cf 7c43 cedf 1144 c9d3 2044 c809 ae44
000000b0: 6eab 3d44 5ec1 d243 e522 9f44 5f29 2944
000000c0: 2108 3444 3f70 b744 5395 e943 113e 9e44
000000d0: eb63 8c44 f25c 1e44 2024 3c44 3027 9544
000000e0: 5f1c 4844 53b9 7744 5c45 3244 fdb6 b743
000000f0: 1f4f 4d43 8198 8344 f55f 1444 70ce 5943

linear1.weight f4 [128, 1024]
0.074318536 -0.052809097 -0.04060157 -0.03208033 -0.054092772 -0.044942662 -0.09101992 -0.06006857
-0.04645371 -0.0456288 -0.07720199 -0.04205883 -0.079880714 -0.0897496 -0.059837833 -0.04028144
0.056861218 -0.082988955 -0.08592137 -0.083906814 0.08260654 -0.07551855 -0.03356158 -0.08559158
-0.061430775 -0.052634124 -0.04022266 -0.052370623 -0.03844176 -0.08529863 -0.043497335 -0.04820617
-0.0552158 -0.088581346 -0.056775127 -0.08553882 -0.083780736 -0.04541143 -0.037998512 -0.06020756
-0.051146124 -0.0379031 -0.04737946 -0.033898957 -0.07369696 -0.057044826 0.03376385 -0.03155753
0.046376903 -0.049580295 -0.054251567 -0.0732039 0.08115681 0.07454952 0.02960221 -0.07753291
-0.06406535 -0.08729688 -0.03325015 -0.042917494 -0.05163629 -0.08776528 0.035546232 -0.07008122
-0.07196719 -0.033571694 0.048748665 -0.090690106 0.05552135 -0.051142946 -0.07523238 0.08473096
-0.07039334 -0.079025075 -0.06658791 -0.044328157 -0.0373348 -0.050165243 -0.06025637 0.0048763454
0.061745554 -0.07908247 -0.08178438 -0.086659156 0.08289206 -0.046064496 -0.033869952 -0.07109881
0.069982 -0.047868073 -0.029860422 -0.039306957 -0.0830115 0.08156102 -0.05043279 -0.035268012
-0.0050487593 -0.077711105 -0.047452405 0.08658292 -0.051327735 -0.043845136 -0.077585265 -0.07092709
-0.05116904 -0.070340164 -0.07468278 -0.07698266 -0.07640988 -0.056258466 -0.08428907 -0.019853476
-0.044265546 -0.056127306 -0.0898771 -0.091010064 -0.06092249 -0.06460425 -0.05390573 -0.08233385
-0.033629965 -0.07246059 -0.06514665 -0.06507631 -0.065458216 -0.07977141 -0.052054744 -0.029926678
-0.015508883 -0.08539243 -0.058560036 -0.03146095 -0.060085725 -0.086520985 -0.052257214 -0.060947172
0.051031977 -0.033478692 -0.072035186 -0.077666655 -0.07952355 -0.037930302 -0.08368175 -0.001845628
0.02243241 -0.03791252 -0.031154713 -0.05188865 -0.09073763 0.082089506 -0.04653834 -0.0695591
-0.037366338 -0.07096815 -0.04546966 -0.089518756 -0.0741323 -0.030431798 -0.031646997 -0.046583667
-0.0557222 -0.0496221 -0.06639352 -0.072256975 -0.07782921 -0.037935156 -0.07707354 -0.08351129
-0.04630985 -0.041483246 0.04468233 0.041490253 -0.060757454 -0.059774622 0.03984479 -0.054981083
0.07078335 -0.048736956 -0.0723949 -0.048403773 0.038789976 -0.033077076 -0.04985998 0.04041214
-0.030414337 -0.07853722 -0.06814134 -0.032228515 -0.05142493 -0.071820155 -0.05208487 -0.042403854
-0.0838942 -0.08780942 -0.04791015 -0.061841693 -0.04644738 -0.056075763 -0.03672379 -0.05334389
-0.030390156 -0.05619784 -0.04246874 0.08739098 -0.06384038 -0.06666744 -0.08542261 -0.06507853
0.04629211 -0.071830474 -0.05349651 -0.08527833 0.07132209 -0.06416685 -0.031360906 -0.04050468
-0.056501873 -0.07069031 -0.058920037 0.032341823 -0.0699835 -0.076571204 -0.070908666 -0.046069153
-0.00517625 -0.041454177 -0.06368155 -0.047181416 -0.075374976 -0.08773222 -0.070363946 -0.06630754
-0.066855945 -0.037483003 -0.045271076 0.07605703 -0.08863065 -0.040158458 -0.0720518 -0.050350238
-0.089805774 -0.04653326 -0.09083045 -0.057755545 -0.03430592 -0.037269264 0.001502648 -0.05866751
-0.09084017 -0.05836927 0.06820069 -0.07252804 -0.0619431 -0.054450855 -0.030704472 -0.08148644
00000000: 5134 983d 5a4e 58bd d54d 26bd aa66 03bd
00000010: 6290 5dbd cc15 38bd a768 babd 760a 76bd
00000020: 3f46 3ebd 44e5 3abd 141c 9ebd e145 2cbd
00000030: 8098 a3bd a3ce b7bd 8418 75bd 27fe 24bd
00000040: 4fe7 683d 1df6 a9bd 8bf7 afbd 56d7 abbd
00000050: 9e2d a93d 78a9 9abd de77 09bd a34a afbd
00000060: d69e 7bbd e196 57bd 84c0 24bd 9482 56bd
00000070: 1b75 1dbd 0cb1 aebd 432a 32bd d573 45bd
00000080: f629 62bd 236a b5bd 098d 68bd fa2e afbd
00000090: 3c95 abbd 5601 3abd 54a4 1bbd 349c 76bd
000000a0: 997e 51bd 4840 1bbd f710 42bd a2d9 0abd
000000b0: 6fee 96bd d6a7 69bd f64b 0a3d 7842 01bd
000000c0: b5f5 3d3d b514 4bbd e436 5ebd edeb 95bd
000000d0: 8b35 a63d 6bad 983d 5580 f23c 93c9 9ebd
000000e0: b234 83bd b5c8 b2bd 4f31 08bd 41ca 2fbd
000000f0: 9380 53bd 48be b3bd ed98 113d be86 8fbd
00000100: 8963 93bd 7982 09bd aeac 473d bcbb b9bd
00000110: 5b6a 633d 447b 51bd 6f13 9abd 6d87 ad3d
00000120: 622a 90bd e6d7 a1bd 3e5f 88bd 7191 35bd
00000130: 60ec 18bd 127a 4dbd 62cf 76bd c0c9 9f3b
00000140: e8e8 7c3d fdf5 a1bd 927e a7bd 5b7a b1bd
00000150: 50c3 a93d 20ae 3cbd 38bb 0abd 419c 91bd
00000160: b952 8f3d 5011 44bd d89d f4bc 5500 21bd
00000170: ef01 aabd 7709 a73d 9d92 4ebd 3175 10bd
00000180: 1070 a5bb 0027 9fbd 745d 42bd 6352 b13d
00000190: 083d 52bd f596 33bd 06e5 9ebd 3942 91bd
000001a0: a196 51bd 810e 90bd 49f3 98bd 16a9 9dbd
000001b0: c87c 9cbd 476f 66bd bf9f acbd c2a3 a2bc
000001c0: ca4f 35bd bfe5 65bd 7c11 b8bd 7c63 babd
000001d0: dc89 79bd 3c4f 84bd 41cc 5cbd a69e a8bd
000001e0: 93bf 09bd 3866 94bd 9b6b 85bd ba46 85bd
000001f0: f50e 86bd 315f a3bd 5b37 55bd cb28 f5bc
00000200: f818 7ebc 3ae2 aebd a6dc 6fbd 32dd 00bd
00000210: 731c 76bd ea31 b1bd a90b 56bd bea3 79bd
00000220: e806 513d f420 09bd 2f87 93bd b20f 9fbd
00000230: 3edd a2bd ce5c 1bbd 5661 abbd 00e9 f1ba
00000240: 2cc4 b73c 294a 1bbd 2b38 ffbc 3189 54bd
00000250: a7d4 b9bd 8b1e a83d fd9e 3ebd 0075 8ebd
00000260: 720d 19bd c057 91bd 653e 3abd 9c55 b7bd
00000270: add2 97bd 1b4c f9bc 48a0 01bd 84ce 3ebd
00000280: f63c 64bd 8b40 4bbd 53f9 87bd 77fb 93bd
00000290: ec64 9fbd e561 1bbd bbd8 9dbd f807 abbd
000002a0: 66af 3dbd 56ea 29bd d204 373d aff1 293d
000002b0: cfdc 78bd 3cd6 74bd 4a34 233d d833 61bd
000002c0: dcf6 903d 67a0 47bd c743 94bd 0943 46bd
000002d0: 3de2 1e3d d47b 07bd fa39 4cbd 3387 253d
000002e0: 7d27 f9bc 1fd8 a0bd b08d 8bbd 0c02 04bd
000002f0: f3a2 52bd 7216 93bd f256 55bd aaaf 2dbd
00000300: b9d0 abbd 6dd5 b3bd 6f3d 44bd b74d 7dbd
00000310: 9c3f 3ebd b3af 65bd af6b 16bd 1f7f 5abd
00000320: c7f4 f8bc b52f 66bd b4f3 2dbd 0bfa b23d
00000330: bfbe 82bd f088 88bd 0df2 aebd e447 85bd
00000340: cc9c 3d3d db1b 93bd 281f 5bbd 68a6 aebd
00000350: 5111 923d e969 83bd 4b74 00bd 3ce8 25bd
00000360: 826e 67bd 15c6 90bd 2356 71bd dc78 043d
00000370: 8253 8fbd 5dd1 9cbd 9038 91bd 02b3 3cbd
00000380: 889d a9bb dbcb 29bd 796b 82bd 4d41 41bd
00000390: 325e 9abd f3ac b3bd f91a 90bd 3fcc 87bd
000003a0: c5eb 88bd c787 19bd 2a6e 39bd cac3 9b3d
000003b0: fc83 b5bd 327d 24bd e58f 93bd 0d3c 4ebd
000003c0: 17ec b7bd a999 3ebd 5105 babd 1491 6cbd
000003d0: 5d84 0cbd a8a7 18bd 80f4 c43a 584d 70bd
000003e0: 690a babd 9e14 6fbd ceac 8b3d 9589 94bd
000003f0: 0cb8 7dbd dc07 5fbd f287 fbbc 5de2 a6bd

linear1.bias f4 [128]
-0.029348515 -0.18750128 -0.07985603 0.17378211 -0.36132148 0.5714071 -0.53098303 -1.5658202
-0.27971324 -0.6486309 -0.23264869 -0.18004335 -0.18780352 -0.14385816 -0.25368512 -0.39593902
-0.21015641 0.16644897 0.04845252 -0.035318293 0.22176015 -0.3314561 -0.34694275 -0.7848006
0.37479237 -0.9861166 -0.24744686 -0.33901715 -0.31030527 -0.09125776 0.3820061 -0.15674041
0.5244242 -0.08770283 0.14479393 -0.13375139 -0.65099955 -0.07826262 -0.09029609 -0.38750255
-0.30117658 -0.86852485 -0.13673303 -1.1617017 -0.12912169 -0.025358064 -0.18993492 -0.5577564
-0.14720282 -0.3480199 -0.08094755 -0.34576708 -0.5051981 -0.05152751 -0.39588794 -0.106838934
-0.07077331 -0.22240482 -0.11873243 -0.26484036 -0.23254134 0.13410728 0.038832754 -0.04911983
0.29863396 -0.07890725 -0.41237238 0.22617617 -0.02930114 -0.15628867 -0.10217064 -0.20892766
0.2766937 -0.17631643 -0.31923866 -0.13190489 0.10344314 0.54717034 0.8175061 0.06810171
-0.29093978 -0.1368029 -0.055029787 -0.5498929 0.31234157 -0.2317508 0.071725056 -0.04271874
0.39046076 0.19141681 -0.03306042 0.36406776 -0.07763672 -0.5713458 -0.18270262 0.58040315
0.0759699 -0.079814486 -0.18516293 -0.15320817 -0.054448415 -0.08380791 0.3676366 -0.055553295
0.19407594 0.40162778 -0.06344299 0.87190014 0.002419874 -0.11203766 -0.2961757 -0.08929321
-0.12623146 0.6217154 -0.05383579 -0.16620426 0.007738997 0.12914726 -0.2512281 -0.5143766
-0.5589333 0.21608356 -0.27059993 -0.064152785 -0.06936978 -0.18669608 -0.6254117 -0.35939503
00000000: 4c6c f0bc 5600 40be 8f8b a3bd f0f3 313e
00000010: 21ff b8be bc47 123f 81ee 07bf cc6c c8bf
00000020: 9336 8fbe ad0c 26bf 753b 6ebe 495d 38be
00000030: 914f 40be 8e4f 13be 04e3 81be 85b8 cabe
00000040: 3e33 57be 9971 2a3e 2676 463d eaa9 10bd
00000050: 1815 633e 9db4 a9be 7ba2 b1be b1e8 48bf
00000060: c9e4 bf3e 2372 7cbf b662 7dbe a893 adbe
00000070: 55e0 9ebe 59e5 babd 4e96 c33e 8f80 20be
00000080: aa40 063f 8b9d b3bd dc44 143e 20f6 08be
00000090: e8a7 26bf 2748 a0bd 28ed b8bd bc66 c6be
000000a0: d133 9abe a557 5ebf be03 0cbe a4b2 94bf
000000b0: 7a38 04be b7bb cfbc 4d7e 42be 20c9 0ebf
000000c0: 56bc 16be aa2f b2be d4c7 a5bd 6208 b1be
000000d0: aa54 01bf 830e 53bd d3b1 cabe 5fce dabd
000000e0: 99f1 90bd 17be 63be fd29 f3bd 2899 87be
000000f0: 511f 6ebe 6b53 093e 180f 1f3d e031 49bd
00000100: 8de6 983e 209a a1bd 7922 d3be ba9a 673e
00000110: f208 f0bc 230a 20be d73e d1bd 22f1 55be
00000120: ccaa 8d3e 4b8c 34be 4073 a3be 1312 07be
00000130: ffd9 d33d 5b13 0c3f 1448 513f e978 8b3d
00000140: 0ff6 94be 0f16 0cbe ea66 61bd c8c5 0cbf
00000150: 3ceb 9f3e 1550 6dbe 96e4 923d d8f9 2ebd
00000160: 79ea c73e c502 443e 5d6a 07bd 1767 ba3e
00000170: 0000 9fbd b843 12bf 6516 3bbe 4d95 143f
00000180: 1b96 9b3d c775 a3bd 5a9b 3dbe 9ae2 1cbe
00000190: 4d05 5fbd 7ba3 abbd dd3a bc3e da8b 63bd
000001a0: d8bb 463e 28a2 cd3e 66ee 81bd d934 5f3f
000001b0: c096 1e3b 0074 e5bd 57a4 97be 5cdf b6bd
000001c0: d242 01be be28 1f3f eb82 5cbd 7331 2abe
000001d0: 6a97 fd3b 2e3f 043e f8a0 80be 2fae 03bf
000001e0: 4116 0fbf 0245 5d3e 138c 8abe 8962 83bd
000001f0: be11 8ebd 422d 3fbe fb1a 20bf a002 b8be

linear2.weight f4 [64, 128]
-0.14458136 -0.35708544 -0.008076363 0.08514069 0.098914005 -0.79628503 -0.25799963 0.2557002
-0.14146079 -0.63510656 0.01328612 -0.03810089 -0.03563258 0.10847492 -0.10899635 -0.14352398
0.0478974 -0.44031397 0.52816045 0.07148186 -0.28339642 -0.13144058 -0.09432477 -0.22181556
-0.097186655 -0.01857934 0.03805377 0.043716308 -0.3008694 -0.14792491 -0.5184567 -0.027581407
0.086384565 -0.055116408 -0.39524353 -0.04253562 0.112930045 -0.07223665 -0.03966015 -0.024077099
0.03701974 0.11137 0.08768814 0.38673413 0.08531189 -0.28192756 0.03635122 -0.19075811
0.05935315 0.0674629 0.012295737 -0.028945902 0.1667253 -0.0008122416 0.25510004 0.4209486
0.00024966968 -0.09563484 -0.08741404 -0.10217507 0.012722982 -0.4276868 -0.8071552 -0.73988014
-0.6438399 0.04847083 0.14199905 -0.27914554 -0.38700122 -0.080735974 0.10945456 -0.29143348
-0.7257151 -0.031277273 0.067931615 -0.055305686 0.010678786 -0.52056694 -0.35209513 0.020892285
0.003523449 -0.22495352 0.4354603 -0.19672756 0.21479744 0.12518759 0.084051184 -0.12251017
0.3171852 -0.20953277 0.10946063 -0.3073028 0.037394114 -0.58157223 -0.03241479 -0.5041349
-0.08680253 0.038872212 -0.4639721 -0.087423705 0.0063570742 -0.56657225 -0.46055984 -0.1335589
-0.30670643 0.16866799 -0.6397201 -0.40092853 -0.40635452 0.028643599 -0.0014720006 -0.015050435
0.09254248 -0.5900762 0.11117644 -0.04511308 -0.53466666 -0.0672226 -0.9856222 0.2644916
0.23116922 -0.102832526 -0.12425079 0.070009634 -0.37881866 0.050797667 -0.24753371 -0.11962011
-0.07373865 -0.5888696 -0.0006733417 -0.07271263 -0.36144683 -0.53803414 0.04854875 -0.27259886
-0.1088759 0.05482753 -0.04041321 -0.099180244 0.046182804 0.07121541 -0.29136387 -0.046407197
-0.05843829 0.43131152 -0.3766864 0.075366996 -1.0799708 0.11742194 0.11234604 -0.6953728
0.2370089 -0.16277261 0.14374687 -0.07821456 -0.9967716 0.11185216 -0.1070228 -0.076175086
0.43748915 0.06031353 -0.39342493 0.048225 -0.07442172 -0.06392459 -0.11062637 0.09575514
0.11989661 -0.16969255 -0.08583719 -0.117010266 0.025872884 -1.118812 -0.08019598 0.13077672
-0.04648468 0.016539326 -0.11361698 0.13603134 0.09890447 -0.059048012 -0.09551709 -0.21206792
-0.07364133 -0.064929575 0.024350245 0.21548082 0.013777892 0.2894158 -0.1585742 -0.44862124
0.04289471 -0.016185928 -0.012300914 0.13279328 -0.30250412 -0.016314482 -0.096357346 -0.29342934
-0.3456898 -0.044639196 0.0011694059 0.019741306 -0.64463854 0.008863383 0.2601375 -0.3580913
0.052530058 -0.1629312 0.20563966 0.047723725 -0.9599873 -0.12814052 -0.4057269 0.07681436
-0.429769 -0.31216687 -0.062281806 -0.545954 0.022154108 -0.6968591 -0.03592232 0.02484889
-0.10145952 -0.026520032 -0.73764247 -0.12880889 0.027530458 -0.92077047 0.33401597 -0.6515023
0.21471925 -0.6296697 -0.21221536 -0.83057153 -0.5733094 0.15040077 -0.038800083 -0.0401236
0.00019045184 0.4624066 -0.022215711 -1.110671 -0.1390779 0.2536206 -0.3304863 -0.18511723
0.25253704 -0.06871715 0.11372132 -0.07542991 -0.22804223 -0.045016564 0.22173862 -0.028931772
00000000: 230d 14be e7d3 b6be b952 04bc 3e5e ae3d
00000010: 6d93 ca3d 56d9 4bbf 8718 84be 23eb 823e
00000020: 19db 10be 5896 22bf 07ae 593c ae0f 1cbd
00000030: 78f3 11bd 1928 de3d 7a39 dfbd f3f7 12be
00000040: 1030 443d d570 e1be 8635 073f 1565 923d
00000050: 5619 91be 5c98 06be 582d c1bd 9e23 63be
00000060: cc09 c7bd b333 98bc 45de 1b3d df0f 333d
00000070: 8e0b 9abe a179 17be 94b9 04bf 67f2 e1bc
00000080: 64ea b03d bec1 61bd 5c5d cabe d539 2ebd
00000090: de47 e73d cff0 93bd ae72 22bd 563d c5bc
000000a0: 03a2 173d f415 e43d d795 b33d 0402 c63e
000000b0: 00b8 ae3d cf58 90be 04e5 143d 1856 43be
000000c0: 4a1c 733d fd29 8a3d 0f74 493c f51f edbc
000000d0: 09ba 2a3e 9cec 54ba 799c 823e 9386 d73e
000000e0: 19e6 8239 33dc c3bd 2206 b3bd 2a41 d1bd
000000f0: 0e74 503c c4f9 dabe b9a1 4ebf c968 3dbf
00000100: b1d2 24bf 5989 463d 3368 113e 2aec 8ebe
00000110: 0625 c6be e758 a5bd b629 e03d c536 95be
00000120: 77c8 39bf 991c 00bd bb1f 8b3d 3788 62bd
00000130: 13f6 2e3c e043 05bf d045 b4be 4c26 ab3c
00000140: aae9 663b 375a 66be a7f4 de3e f372 49be
00000150: dcf3 5b3e 2d31 003e 0723 ac3d 9de6 fabd
00000160: 1966 a23e c28f 56be e52c e03d cb56 9dbe
00000170: 922a 193d ebe1 14bf 5fc5 04bd fc0e 01bf
00000180: 86c5 b1bd 7838 1f3d c08d edbe 330b b3bd
00000190: 014f d03b e10a 11bf 80ce ebbe aac3 08be
000001a0: a008 9dbe 4db7 2c3e b2c4 23bf 8146 cdbe
000001b0: b30d d0be fba5 ea3c 25f0 c0ba 1a96 76bc
000001c0: e986 bd3d 3c0f 17bf 79b0 e33d 7ec8 38bd
000001d0: eadf 08bf 01ac 89bd bd51 7cbf 716b 873e
000001e0: a0b7 6c3e dc99 d2bd 3377 febd 3661 8f3d
000001f0: 85f4 c1be 3711 503d 7a79 7dbe 63fb f4bd
00000200: 4a04 97bd 28c0 16bf 3283 30ba 5cea 94bd
00000210: 8f0f b9be 9bbc 09bf 0edb 463d 1492 8bbe
00000220: 54fa debd d592 603d 5288 25bd 031f cbbd
00000230: 2e2a 3d3d 63d9 913d a52d 95be 7915 3ebd
00000240: fd5c 6fbd ddd4 dc3e 0add c0be 035a 9a3d
00000250: 7c3c 8abf ea7a f03d ae15 e63d f403 32bf
00000260: 76b2 723e ddad 26be 6132 133e f52e a0bd
00000270: 6c2c 7fbf bf12 e53d c52e dbbd af01 9cbd
00000280: 94fe df3e 520b 773d fe6e c9be 9487 453d
00000290: 6a6a 98bd e5ea 82bd 1490 e2bd 451b c43d
000002a0: 5b8c f53d e2c3 2dbe 69cb afbd 14a3 efbd
000002b0: 5ff3 d33c 3b35 8fbf ca3d a4bd 55ea 053e
000002c0: b866 3ebd 7b7d 873c 05b0 e8bd cd4b 0b3e
000002d0: 6d8e ca3d 54dc 71bd 779e c3bd 5528 59be
000002e0: 44d1 96bd ccf9 84bd 2a7a c73c 01a7 5c3e
000002f0: abbc 613c 4f2e 943e 4661 22be afb1 e5be
00000300: 5db2 2f3d 5a98 84bc c689 49bc f6fa 073e
00000310: d2e1 9abe f3a5 85bc 0057 c5bd 5f3c 96be
00000320: 41fe b0be 97d7 36bd c046 993a 85b8 a13c
00000330: 0807 25bf b937 113c be30 853e be57 b7be
00000340: c229 573d 70d7 26be 3493 523e f479 433d
00000350: bac1 75bf 4537 03be 70bb cfbe d950 9d3d
00000360: af0a dcbe 56d4 9fbe 351b 7fbd a4c3 0bbf
00000370: 887c b53c 5c65 32bf 4823 13bd e68f cb3c
00000380: 02ca cfbd 8a40 d9bc 23d6 3cbf 7ae6 03be
00000390: 8e87 e13c 9db7 6bbf 2404 ab3e dbc8 26bf
000003a0: 5ddf 5b3e 0932 21bf fc4e 59be 56a0 54bf
000003b0: 68c4 12bf a902 1a3e d6ec 1ebd a558 24bd
000003c0: 07b4 4739 8fc0 ec3e b9fd b5bc 782a 8ebf
000003d0: 706a 0ebe 8fda 813e 8035 a9be 5f8f 3dbe
000003e0: 894c 813e 94bb 8cbd b9e6 e83d ff7a 9abd
000003f0: e783 69be 4a63 38bd 730f 633e 5302 edbc

linear2.bias f4 [64]
0.29733923 0.2093262 0.63772684 0.07011316 0.7295855 -0.22958964 0.4375637 -1.2390462
0.46522853 0.39652002 0.25635296 -1.6001232 0.5214172 -1.0027462 -0.818726 -0.3131614
-0.19853932 -1.235756 0.15841265 -0.108771585 0.16238336 -1.8030059 -0.027232958 0.42612672
0.4527108 0.28895327 0.48852843 0.29565772 -0.23750399 -0.6312186 -0.04491391 -0.41175497
0.19977547 -0.4669688 -0.11580222 -0.43862486 -0.15087317 -1.1558481 0.25208363 0.519916
-0.14989316 -2.036943 0.20586246 0.6194679 0.23334451 -1.8698555 0.39138833 0.5148719
0.5328335 0.3353275 0.22830951 0.092805006 0.15624443 0.31593835 0.3910357 0.49318165
0.3469391 0.56351537 -0.3477354 0.43986428 0.5941118 0.49613482 0.10708548 0.36361057
00000000: d93c 983e 9b59 563e 1142 233f 7d97 8f3d
00000010: 1ec6 3a3f 8c19 6bbe 5908 e03e 1199 9ebf
00000020: 6f32 ee3e ac04 cb3e b240 833e d6d0 ccbf
00000030: 997b 053f fd59 80bf 0798 51bf b156 a0be
00000040: e44d 4bbe 412d 9ebf ed36 223e a3c3 debd
00000050: d347 263e e6c8 e6bf a717 dfbc 482d da3e
00000060: b6c9 e73e aff1 933e 6620 fa3e 7360 973e
00000070: 3f34 73be 8b97 21bf a6f7 37bd 8cd1 d2be
00000080: f191 4c3e 8916 efbe b729 edbd 7093 e0be
00000090: 7f7e 1abe d5f2 93bf 1b11 813e 3719 053f
000000a0: 987d 19be 465d 02c0 9ccd 523e 7395 1e3f
000000b0: ddf1 6e3e 6d57 efbf 0d64 c83e a5ce 033f
000000c0: c767 083f 0cb0 ab3e f8c9 693e 8d10 be3d
000000d0: 8afe 1f3e acc2 a13e d535 c83e 4e82 fc3e
000000e0: 00a2 b13e 8b42 103f 600a b2be e435 e13e
000000f0: b617 183f 6205 fe3e a24f db3d 2a2b ba3e
