mathboy/model.pt (torch, 172113 bytes, 22 tensors)

conv1.weight f4 [16, 1, 3, 3]
00000000: 08de cbbd bbf4 bc3d dc82 1ebf 445c 54be
00000010: c720 143f c738 8c3e 912e b8bf 9ac9 cb3f
00000020: ed22 d83e 083e bd3e 8753 d5be b1d3 e3bc
00000030: 13d1 7c3f d9aa 933f 750e d13e 83b8 083e
00000040: 7201 013f 831d c03f 78b6 8a3b ad6f 8abe
00000050: 7f16 23bf 4723 b2bd d472 d13f f082 f63d
00000060: 1dd8 bf3f 593a f13e 828b c43e 8caf 6f3d
00000070: 1a58 efbe e4bc 79bf 7a2d b63f 1694 ecbe
00000080: b9eb b0bd e106 773f ffc6 4b3f b77e 2d3d
00000090: 90ca bcbf 9d7e 45bd f5ec 143e 5001 5abf
000000a0: 0e9f b7bd 2b00 9a3f 303e bebf 3002 d7be
000000b0: 65db 2abd 69d5 8f3e 12ea 9c3f e038 0abe
000000c0: d928 84bf dfd0 e53d 4938 463f 9ab2 7ebf
000000d0: cfd1 88bf 67d9 0cbf 0a80 a63e f33d ac3e
000000e0: 49ec 13bf 64b6 a13f 0438 8f3f 6ecc 8c3f
000000f0: 556e 7e3e 4c00 fdbe 1b73 36bf 5c14 45bf
00000100: efb1 493e 6c13 9ebd 9c4b 943e cfb6 f83e
00000110: 0b29 0d3d b5bf b3bc 49aa 2e40 3a10 15bf
00000120: 8e34 c8bf 73e7 87bf 37c3 27bf e1e7 7cbf
00000130: e06a b63b db53 aa3f 7d77 a5be 9658 15bc
00000140: 9ee3 813e ae2c 9e3f 461f 6dbe 6b5c a2bf
00000150: 9df6 383f 30a4 10bd 9780 92bf 9b29 7dbd
00000160: b1cc 13ba 024f 94bf f5d3 8cbf 0f1d bcbf
00000170: a9cf 93bf 2d41 f9bd 1fb6 453e 0f42 99be
00000180: 5dde 82bc 4319 3e3f 6bfd 683f c370 01be
00000190: 774c fabf 947d e5bd ac5f c03e 3ae0 e53e
000001a0: 9e43 eb3f aaba 37bd 0901 a93d d813 163e
000001b0: 1fe4 4bbf ebc0 16bf d754 9cbe 4774 acbe
000001c0: eb13 9cbf da53 65be a4d1 b53f 2190 f93d
000001d0: 5aec 4a3d 142a e0bd e0e4 66be d506 a8bf
000001e0: 1557 af3f 4975 cdbe 1055 59be b521 453e
000001f0: 21e6 b1bd 294b a0bf 9164 84be 5e5f 463f
00000200: 77d6 ef3e ffc0 3f3c 6892 ba3f 1dd0 c83f
00000210: fd44 f3be 5441 48bf 6669 263f 7a23 25be
00000220: 8285 ab3f ae07 c83f cce8 aebe dc1f 4d3f
00000230: a976 663f 870d 9c3d c598 09be 3664 eabe
-0.099544585 0.09226366 -0.61918426 -0.20738322 0.57862514 0.27387068 -1.4389211 1.5920899
0.42214146 0.3696139 -0.4166529 -0.027810903 0.9875652 1.1536514 0.40831342 0.13351636
0.5039283 1.5009006 0.0042331778 -0.27038327 -0.637062 -0.08698135 1.6363168 0.12036693
1.4987828 0.47114828 0.38387686 0.058517024 -0.46746904 -0.9755385 1.4232628 -0.4620673
-0.086387105 0.9649487 0.7960052 0.042357173 -1.4749317 -0.04821645 0.14543517 -0.8515825
-0.08965884 1.2031301 -1.4862728 -0.41993856 -0.041713137 0.28092507 1.2258933 -0.13498259
-1.0324966 0.112214796 0.77429634 -0.99491274 -1.0689029 -0.5501923 0.3251956 0.33641014
-0.5778242 1.2633786 1.118897 1.0999887 0.24846776 -0.4941429 -0.71269387 -0.7698419
0.19696783 -0.07718548 0.28963935 0.48576972 0.03446297 -0.021941999 2.7291434 -0.58227885
-1.5641038 -1.0617508 -0.6553225 -0.9879132 0.0055669397 1.3306841 -0.32317725 -0.009115359
0.2536897 1.2357385 -0.23156461 -1.2684454 0.722513 -0.03531283 -1.1445493 -0.061807256
-0.00056381064 -1.1586611 -1.1002184 -1.4696368 -1.1547748 -0.121706344 0.19307755 -0.2993321
-0.015975172 0.74257296 0.91011685 -0.12640671 -1.9554585 -0.11205593 0.37572992 0.44897634
1.838001 -0.04485575 0.082521506 0.14656007 -0.7964496 -0.5888812 -0.30533478 -0.33682463
-1.2193578 -0.22395268 1.4204602 0.121856935 0.04954181 -0.10945526 -0.22548246 -1.3127085
1.369845 -0.40128544 -0.21223855 0.1925114 -0.08686472 -1.2522937 -0.25857976 0.7748927
0.4684331 0.011703729 1.457593 1.5688511 -0.4751357 -0.7822468 0.65004575 -0.16126814
1.3400118 1.5627344 -0.34161985 0.8012674 0.9002481 0.07619768 -0.13437183 -0.4577958

conv1.bias f4 [16]
00000000: 07ee d43e c94f 63bf ba98 d23d 90f9 4a3e
00000010: b8bd ddbd dbbc e2bf aedf 86bf 977a 543e
00000020: 66e3 373e d8b3 33bf bf58 7c3f d6cd 2e3f
00000030: 3e05 12be 7279 c33c deb2 37be c004 1ebf
0.4158785 -0.8879362 0.102830365 0.19821763 -0.108272016 -1.7713884 -1.0537012 0.2074989
0.1795784 -0.70196295 0.98572916 0.6828283 -0.14259812 0.02386162 -0.17939326 -0.61726

bn1.weight f4 [16]
00000000: a9bc b33f 19b6 b23f 61a5 a33f 31dd 9b3f
00000010: ac0e f33f f432 d03f fc03 c13f fa47 9a3f
00000020: 200b ca3f b8f2 e53f 2d38 da3f 74ff a53f
00000030: 46f9 a13f 562a ed3f d141 af3f f0d9 c13f
1.404195 1.3961822 1.2784845 1.2176877 1.8988853 1.626555 1.5079341 1.2053216
1.5784645 1.7964697 1.7048393 1.2968583 1.2654197 1.8528545 1.369196 1.5144634

bn1.bias f4 [16]
00000000: 73c2 d13e d249 df3e ebf1 c33e 8cc5 b33e
00000010: a4ae 7bbe a49f 8c3e ccb2 e73e 524a b23e
00000020: 7a0d acbd bcb2 163d e721 0f3d 8311 583e
00000030: 94dd 0c3e 0fff 07be 3c12 bd3e 8d52 103f
0.40968665 0.43611008 0.38270506 0.35111654 -0.24578339 0.27465546 0.452536 0.34822327
-0.08401008 0.036791548 0.03494444 0.2110043 0.137564 -0.13280891 0.36927974 0.5637596

bn1.running_mean f4 [16]
00000000: 9827 133f 5821 f1be f899 dd3e d1a7 d23e
00000010: 1e5a 05be 4eec dabf d377 44bf af1d fe3e
00000020: e73b 2f3e 2813 28bf 5d9b 813f d16c 5d3f
00000030: 8890 f4bd 2c98 233d f044 383e fd25 7fbe
0.5748229 -0.47095752 0.4328153 0.4114366 -0.13022658 -1.7103364 -0.7674534 0.49632022
0.17112695 -0.6565423 1.0125538 0.86494166 -0.1194163 0.039940044 0.17995048 -0.24916835

bn1.running_var f4 [16]
00000000: b001 503e 8fad 673f 77e1 253f 4f5e b33e
00000010: 10bf 133e efc8 053e 1fdb 013f 09c7 123f
00000020: fd95 113e 3b84 393e 0246 2b3e dc5c 863e
00000030: 103f df3d ca5d da3d bc01 4a3f 348d 563f
0.20313144 0.90499204 0.6479716 0.3503289 0.14428353 0.13064931 0.5072498 0.57334954
0.14217372 0.18116848 0.16725925 0.2624272 0.109007 0.1066242 0.78908896 0.8380921

conv2.weight f4 [32, 16, 3, 3]
00000000: 5ada 1c3f f652 bdbf 64fb a4bf 580f 313f
00000010: 3974 1dbf af4a b5be aed6 6bbf 239b cabf
00000020: c216 86bf ee2a 19bd 6fd9 61bd 8d01 d6bf
00000030: a198 183f 964f f13e 8bfd a4bf bdd5 85be
00000040: aa91 c6be 0869 e4bf 2f07 e43e 02a9 8ebe
00000050: a471 91bf 44ac 093f 40a8 473e 1b2a 2bbf
00000060: b544 2c3d 106b 8fbf 729f ddbf f6c1 293f
00000070: ae26 c13d 0277 94bf 73c2 363e 1f90 6dbd
00000080: 0eaa 8fbf a252 3bbf 3fbf 77bf d35d a4bf
00000090: e629 553f 7059 01bf 4f6f 30be 23f4 933f
000000a0: c58a 1dbf f213 36bf b522 1c3e dc29 bd3e
000000b0: e7ce 4cbe 1407 d03c aefd dabe 7237 acbf
000000c0: 02ae 183f 9b8a 73bf 7ca3 68bf e513 e53e
000000d0: 1920 76be d8b2 b1bf 36a0 d83e a671 0fbe
000000e0: c004 01c0 c0fd 04bb 46ec 8e3e d83a 94bf
000000f0: ab4c a93e 0935 333b eefa 6dbf 6851 013d
00000100: 37cd 92bf 66a2 03bf 818d f03e 377a 67bf
00000110: 7516 11bf 8c8e 01bf 4a0a 22c0 8ac8 bdbf
00000120: 9f72 e3be 95c6 80bf 09e7 18bf 0dfa d83e
00000130: cb06 c2be 9c69 4dbf 8b7b d1be 3ae1 233d
00000140: cecd 1ebf 9636 a2bd 2b13 8bbf a49a 85bf
00000150: b7c9 e13d 39b5 97be a4cd 80bf b862 ce3d
00000160: 978b c23e 1012 423c be88 f8bd e4ec 9dbe
00000170: 46a9 32bf 1412 3cbf f502 3bbf 860a 51bf
00000180: 03f3 e6bf 8bf0 9cbf c7db c2be 3e42 4dbe
00000190: 1135 60bf afaa 5fbf 39ed 1ebf a6a9 48bf
000001a0: cef0 85bf 8c19 74bf 3b04 4bbe eb37 25bf
000001b0: 0279 173f 1af7 4e3e 389f d0be d6f8 603e
000001c0: f920 383c 9261 51bf edfa 16c0 b6ed bfbf
000001d0: c699 53bf c91a d13e f876 edbe bebf 46bf
000001e0: 7525 babd c9b2 713e 4d4d 20bf f7b2 2b3e
000001f0: 06a1 7bbe 63f5 5dbf 41aa 8f3e 3ccc 48bf
00000200: 4fbd 6dbf 81cb ab3e fd5e 5dbf 380e cdbe
00000210: 56c4 073e 25e5 4dbf 4e7f d1be 4cce 893d
00000220: 6d59 61bf b74c d4bf 640b 183f 71fd 4bbf
00000230: d8a8 1cbf 0429 1f3f e1b0 c7be 7f3d 6abf
00000240: 5a12 103f 3fcc 82bf 4232 d63e 6164 583f
00000250: 7f21 74bf a4f5 90be fe07 e83e 6279 c2bf
00000260: b925 963e f5c3 e93e 6b46 0abf ee9b b63e
00000270: c7d9 993f ab21 27bf ec68 3fbf ce8c 203f
00000280: db3a 3fbf 05bb a6bf 6fa0 733f 82a4 ffbe
00000290: a07f f93e 5e11 683f 6096 babe 6370 b4be
000002a0: d405 363f 2e5c 3cbf 5737 54bf c683 8d3f
000002b0: e034 98be a83a 9fbd 663e 983f b2bb 053e
000002c0: 12b1 6abf b441 963e dc11 31bf 5e53 c1bf
000002d0: 66f3 c5be 086f 13bd ea90 86bd eb1c 9c3f
000002e0: de60 abbe d7c4 31bd 09a2 af3f 2b51 18bf
000002f0: a14c 35be 48e3 21bf 75ad 333f 9803 98be
00000300: 4551 fa3e e120 38bf 5a16 323e 432b 923e
00000310: 4c55 0cbf 3d95 85be ebb1 533f 22e1 97be
00000320: d060 90be 5025 633f b7df 1bbf d0a0 8abf
00000330: 8ad9 273f b3bb 963e b5c4 9dbf 2467 5a3e
00000340: 2e92 e0bf bc71 b8be 4c6f 463f 9cb4 5dbf
00000350: 2e90 14bf 652e a33e ed6c c3bf 9204 44bf
00000360: 61b0 50be a056 86bf d797 6dbe e437 80bd
00000370: 89df 72bf e34d 2abf e99c 1c3f 99ef 30bf
00000380: 3a3a 40bf ecd8 f6bd fb59 de3c 06bb 113f
00000390: 2438 483f b815 78bf 3b5b 38bf 5ee5 243f
000003a0: 0ad8 16bf e34f a9bf 3342 8abe bd63 97bf
000003b0: 48cd ccbe 6862 9e3e 9ae4 14bf d9b4 1abf
000003c0: c145 77bf c2ce 3dbf 185b 053e 0cba aabe
000003d0: 859b 91bf 31c7 8dbe 5248 dcbe 94e9 2bbd
000003e0: b680 8dbd 7f8e 69be e202 57be b547 0ebf
000003f0: 03be 903f b01e 45bd 8cea 75bf 8e73 7a3f
0.6127068 -1.4790943 -1.2889218 0.6916404 -0.61505467 -0.35408542 -0.9212445 -1.5828594
-1.0475695 -0.037394457 -0.055139 -1.6719223 0.59607893 0.47131032 -1.2889875 -0.26139632
-0.38783008 -1.7844553 0.4453673 -0.27863318 -1.1362805 0.5377848 0.19497776 -0.6686112
0.04205771 -1.1204548 -1.7314284 0.66311586 0.09431206 -1.1598818 0.17847614 -0.057998773
-1.1223772 -0.7317296 -0.96776193 -1.2841133 0.83267057 -0.50527096 -0.17229961 1.155888
-0.6153987 -0.71124184 0.15247615 0.36946 -0.20000802 0.025394 -0.42771667 -1.345442
0.59640515 -0.9513337 -0.9087446 0.4474174 -0.24035682 -1.3882704 0.4230973 -0.14008197
-2.015915 -0.0020292848 0.27914637 -1.1580458 0.33066306 0.0027344844 -0.92961013 0.031571776
-1.1468877 -0.51419675 0.4698296 -0.9042086 -0.5667489 -0.50608134 -2.531878 -1.4826825
-0.44423386 -1.0060602 -0.5972753 0.42378274 -0.37895808 -0.8023927 -0.40914568 0.040009715
-0.62032783 -0.07920568 -1.0865225 -1.0437818 0.11024802 -0.2963045 -1.0062757 0.10077423
0.37997124 0.011845127 -0.121354565 -0.30844796 -0.6978954 -0.73465085 -0.7305139 -0.8165668
-1.8042911 -1.2260908 -0.38058302 -0.200448 -0.8758097 -0.8736982 -0.62080723 -0.7838386
-1.0464113 -0.9535148 -0.19825833 -0.6453845 0.5916902 0.2021145 -0.40746474 0.21969923
0.01123833 -0.81789505 -2.3590653 -1.4994419 -0.82656515 0.40840748 -0.46379828 -0.77636325
-0.090891756 0.23603357 -0.6261795 0.16767488 -0.24573144 -0.86702555 0.2805958 -0.78436637
-0.92866987 0.335537 -0.86473066 -0.4004991 0.1325849 -0.8042777 -0.40917438 0.06728801
-0.8802708 -1.6585912 0.5939238 -0.79683596 -0.61195135 0.6217196 -0.39002135 -0.91500086
0.56278 -1.0218581 0.4183522 0.84528166 -0.9536361 -0.2831241 0.45318598 -1.5193293
0.29325655 0.45657316 -0.540137 0.3566584 1.2019585 -0.6528575 -0.74769473 0.6271485
-0.7469918 -1.3025824 0.9516668 -0.49930197 0.48730183 0.906515 -0.36442852 -0.35241994
0.71102643 -0.73578155 -0.8289694 1.1055839 -0.2972784 -0.0777486 1.1894042 0.13059881
-0.9167644 0.29347003 -0.69167876 -1.5103567 -0.3866226 -0.03599456 -0.06570609 1.2196325
-0.3347234 -0.04340061 1.3721324 -0.5949885 -0.17705013 -0.6323743 0.7018655 -0.29690242
0.4889013 -0.7192517 0.17391339 0.2854863 -0.5481765 -0.26090422 0.82693356 -0.2966395
-0.28198862 0.8872881 -0.60888237 -1.0830326 0.65566313 0.29440078 -1.2325655 0.21328408
-1.754461 -0.36024272 0.77513576 -0.86603713 -0.580325 0.31871334 -1.5267617 -0.76569474
-0.20379783 -1.0495186 -0.23202454 -0.0626066 -0.9487234 -0.66525096 0.61176926 -0.69115597
-0.75088847 -0.12053093 0.027142515 0.56926 0.78210664 -0.9690814 -0.72014207 0.64412487
-0.589234 -1.3227504 -0.2700363 -1.1827313 -0.40000367 0.30934453 -0.5816132 -0.604322
-0.9659081 -0.7414361 0.13023031 -0.33345068 -1.1375586 -0.27691033 -0.43023926 -0.041970804
-0.06909315 -0.22808264 -0.20997193 -0.55578166 1.1307987 -0.04812497 -0.96061015 0.9783257

conv2.bias f4 [32]
00000000: 652f d1bb 974f 17bd 59c6 82be ec75 4ebe
00000010: aa93 e03e 4650 8e3e a8c6 683e 6148 b63e
00000020: 8ea1 983c a485 4b3d fd84 fd3e 8db3 6a3d
00000030: aed7 bcbe 39ca 833e ab7e d43c 6c24 d03d
00000040: dd13 84bd 6a7e 88be 359d 873e 3da9 f53c
00000050: 958d 9e3e 9046 603d 49fe 193e 8782 d1bd
00000060: fbe0 bfbe fabe cfbd 33dd 62be 2c8f 0dbe
00000070: acef 10bc 6e50 713d 7d5d 543d 3325 ebbe
-0.0063838237 -0.036941137 -0.25541952 -0.20162171 0.4386266 0.2779562 0.22732031 0.35602096
0.018631723 0.049687997 0.49515525 0.05730014 -0.368833 0.2574022 0.025939306 0.10163197
-0.06449101 -0.26658946 0.26487127 0.029987926 0.30967394 0.054754794 0.15038408 -0.10229974
-0.37476334 -0.10143848 -0.22154693 -0.13824147 -0.008846205 0.058914594 0.05184697 -0.45926818

bn2.weight f4 [32]
00000000: 92dc 0440 8023 a83f cfab 3e40 f7d8 853f
00000010: a3fa 923f 3e3f 5440 6b96 b53f d007 d53f
00000020: ff87 e03f 44b7 c83f 266e bb3f bda1 903f
00000030: 1ee6 cc3f d26d 8c3f fe67 cc3f e430 3f3f
00000040: 7f48 da3f 9d7e c43f a189 3b40 837d e13f
00000050: 32cb 0a40 bf80 793f 04c4 3d3f 297f ab3f
00000060: 5c7e b23f 44e5 b93f 1b82 883f 356d b63f
00000070: 7d99 383f 0e37 793f b6fe 7a3f 492a d83f
2.0759625 1.3135834 2.9792364 1.0456837 1.1482738 3.31636 1.4186529 1.6643009
1.7541503 1.5680928 1.464299 1.1299359 1.6007726 1.0971014 1.5969236 0.74683976
1.7053374 1.5351139 2.9302752 1.7616428 2.168652 0.97462076 0.7412722 1.3398181
1.3944812 1.4523091 1.0664705 1.4252077 0.72109205 0.9734963 0.9804491 1.6887904

bn2.bias f4 [32]
00000000: 5a1d 43be 3920 1dbe 2e8a efbe 61b3 81bc
00000010: 57bd dcbd 3f02 c3be 3b4a 6abe e96e 22bd
00000020: 4789 c2be 95f0 10be 7211 e5be a218 e5be
00000030: 6ebb b9be 6a63 e6bc 66ad b1be a3e2 6f3d
00000040: b9b7 e0be 8e81 b3bd 4101 f9be d9b8 99bd
00000050: 9224 b0be 6da6 82bd 4f0a 8c3d 5ad6 a2bd
00000060: f061 72be d7b7 6fbe d257 f9be a690 c6be
00000070: 9829 75bd 261b ac3e a70a 04be 0cec c13d
-0.19054165 -0.15344323 -0.4678511 -0.015832605 -0.10778301 -0.3808765 -0.22879879 -0.039656553
-0.3799536 -0.14154275 -0.44739872 -0.44745356 -0.3627581 -0.028123576 -0.34702605 0.058565747
-0.4389017 -0.08764945 -0.4863377 -0.0750596 -0.344029 -0.063793994 0.06837904 -0.079510406
-0.23670173 -0.23409973 -0.48699814 -0.38782233 -0.05985412 0.33614463 -0.12894689 0.094688505

bn2.running_mean f4 [32]
00000000: 8f12 a7c1 4549 f43e 075e 81c1 7e75 6b3d
00000010: 6227 993f 7084 bdc1 2258 12c0 1ca3 adc0
00000020: d40d d6c0 508a 3ebf b01d c9c0 ed8a aa41
00000030: 14a7 10c0 f1b0 0540 58e6 dbc0 9076 6141
00000040: 7db3 a5c0 e063 cabf 93d4 c9c1 9081 fbc0
00000050: 9a55 4bc1 6021 b5bf 933a 6641 ebcc 22c0
00000060: 3e10 d6c0 fc41 efc0 ad15 0542 4051 1ec1
00000070: c997 8c41 7511 0441 b00b aa41 5456 f3c0
-20.884062 0.4771215 -16.170912 0.057485096 1.1965144 -23.689667 -2.2866292 -5.426161
-6.689188 -0.744298 -6.284874 21.317835 -2.2601976 2.0889246 -6.871868 14.091446
-5.17816 -1.581173 -25.228796 -7.8595657 -12.708399 -1.415081 14.3893 -2.5437572
-6.6894827 -7.4768047 33.271168 -9.894836 17.574114 8.254262 21.255707 -7.604288

bn2.running_var f4 [32]
00000000: df80 c844 774e 3944 30bc 8344 ee37 ee43
00000010: de6b 3b44 4656 b044 e591 ea43 5d36 4144
00000020: acd6 6744 7d4a 0f44 01a4 0844 d5bc 8644
00000030: 2599 e843 223c 0a44 f134 0144 cc95 f343
00000040: 6290 f843 5486 0144 bb16 e444 9a34 4744
00000050: a468 b044 7355 e043 4add 0f44 a27a c643
00000060: 4dbc 6c44 c9f2 5d44 a23a ab44 355e 3744
00000070: 1ae2 3444 f321 ff43 ff2f 7044 673e 1844
1604.0272 741.226 1053.8809 476.43695 749.6854 1410.696 469.1398 772.8494
927.35425 573.1639 546.56256 1077.901 465.19644 552.9396 516.8272 487.1703
497.128 518.0989 1824.7103 796.8219 1411.27 448.66757 575.45764 396.95807
946.9422 887.7935 1369.8323 733.472 723.53284 510.26523 960.74994 608.97504

conv3.weight f4 [64, 32, 3, 3]
00000000: 83de 953e 368b 03be fac7 313d a58e ff3e
00000010: 1a20 bf3d c963 67bf b1af 8c3e 8094 833f
00000020: f02d 8cbe 0fa6 04c0 a725 9a3d c0ad efbe
00000030: 5cf9 96bf ebb5 5f3f 5fa7 0ebf fa79 d8be
00000040: 8314 783f 5fca f23e 4ddb fd3c 9c87 48bf
00000050: a993 c23d 1db2 9cbf eb37 82bf b8e5 283f
00000060: 90d8 afbe aa24 47be 7af0 aebe 1f79 3d3e
00000070: e2b2 3e3f 670f acbe 248c ddbd 7fda acbe
00000080: 567b 1dbf 5412 bcbe e557 adbf 0b95 d4bf
00000090: 056f 65be f050 91bf 3e3a 903f 5302 81bf
000000a0: d0cf 25bf 36c2 513f 0936 013e e681 553f
000000b0: b736 9bbf b636 3d3f b6d7 5ebf da87 63be
000000c0: 9e13 0abf 9d9e a4bf 1c5b 1b3f a5e2 a63e
000000d0: 919b 53bf 329f 013f 15cd 5cbf 32da dfbe
000000e0: 2304 953f fefa c2bf c9fc 4bbd 8450 a73e
000000f0: 95a5 243e 144e 6c3f 872c debf 7283 e8bd
00000100: 3e63 8ebe 5ad6 e43e 7159 b3bf d610 bfbf
00000110: b645 a73e b577 183f 59d7 b3be ed67 873f
00000120: dcce 013f b147 33bf 980c 53bf 703c 8e3f
00000130: 7cb7 33bc 0496 04bf 7e12 7d3f 49c2 153f
00000140: 2d97 a1be 5eb6 18be 9801 41bd 0b83 893e
00000150: e593 febf 4944 55bf 0fa5 353e 53d5 b9bf
00000160: 8ed9 92be ae58 803e f828 ef3e 36bf 6c3e
00000170: 7952 65be ab32 1b3f ee45 5a3e 981b 04bf
00000180: 1f09 6f3f 1f41 a03d a9a0 68be a5bc 6e3d
00000190: d2c6 bc3e bc9e 393f c494 a4bf 101d 67be
000001a0: d678 89bf b22b 08bf 52f6 a43e 549c b8be
000001b0: f158 11be 0ceb c93e be3b a73d f9b1 b5bf
000001c0: 7b65 56be 7aed 693f bb61 3fbf 3d47 ff3e
000001d0: b545 8cbf f39d 44bf 103c a53e 6863 57bd
000001e0: b87d 8bbe ad6e ef3d 7808 c1bd 131f 0e3e
000001f0: 59a7 93bd 9c4c acbf 512a febd e88c 693d
00000200: 3cff 9fbe fb61 373f b19e b43e bd4d 8dbd
00000210: bc6a 08be 7153 6a3f 9c8d 9abf 778d 40bf
00000220: 4684 9d3c 3635 3c3e 154d a2bf b475 a8be
00000230: 8085 b4bf 69ce 79bf 2b09 943e da9e bbbf
00000240: e468 333d f402 823f 22d0 633e ace7 babe
00000250: f5fa 123d 71be 7bbf d421 84bf 8e71 9bbd
00000260: 0fc2 30bf bfc0 dbbe f7bd 49bf 6ca8 883e
00000270: 47d2 7fbf a8e2 d3be d77b 583f d088 f73d
00000280: d41a 1b3e 04bc b0be 6f84 b23f 252a 653f
00000290: 2f32 8cbf 9b1c 323f 7c48 90bf 42c9 1abf
000002a0: 6a5c a9bf 7c1f 03c0 405d a4be aa3b 68bf
000002b0: 7b57 9fbf 9228 c93c 5a8f 84bf e851 3ebf
000002c0: c71b 103f 7b63 353e b02b 413f 5955 e3be
000002d0: 35de afbf c943 f73e 0457 353f f41f 29c0
000002e0: aa52 ba3e 100a fcbd 617f 9ebf c070 023e
000002f0: a88c 84bf 5b19 e7bf 3daa 9cbe 5a45 3abf
00000300: 7a1e b93e a7c7 663f aab5 90be c7b0 7e3f
00000310: 0747 8f3e 83d9 22be 3db3 3bbf 6829 cdbe
00000320: 3dc9 8f3e eb5a f7be a796 c13e 03ca cebe
00000330: 19a7 2bbf 538b 1b3f 17ab f1be 38cf 76bd
00000340: e1a5 01bf 5c09 70bf bddf 453f f446 f3bc
00000350: 21eb 39be 1e0a 923f c65c 863e d9dc 3dbd
00000360: a192 df3d 578e f4be b6dd 1abe 38b1 14bf
00000370: d188 1ebe cff9 4cbf 7785 e43e f552 793f
00000380: 60ca 803e 4558 393f 9ac4 463f 4a09 0fbe
00000390: bb07 4e3d 773f 11be f669 95bf f6a5 b7bf
000003a0: 810c eebe 4327 98bf 5037 75bf e7a2 44bf
000003b0: 1bda 30bf 8498 ccbf 0470 2e3f b5da 5fbe
000003c0: 3086 b3be 418b 40be 63d1 24bf 9304 b4bd
000003d0: f4d6 ca3e bd74 543f dedd 06c0 ea23 80bf
000003e0: 26ef 1e3f 8679 99bf 9cd1 30bf 3bb2 b3be
000003f0: 66be 5c3f 0f85 4f3f 3d4b c4be a93b 19bf
0.29271325 -0.12846074 0.043403603 0.49913517 0.09332295 -0.90386635 0.27477792 1.0279694
-0.27378798 -2.0726354 0.07526713 -0.46812248 -1.1794848 0.8738696 -0.5572414 -0.4228056
0.969063 0.47420022 0.03098836 -0.78331923 0.0950082 -1.2241856 -1.0173315 0.65975523
-0.34344912 -0.1944758 -0.34167844 0.18503235 0.74491704 -0.336055 -0.10817745 -0.3376045
-0.6151632 -0.36732733 -1.3542448 -1.6607984 -0.22405632 -1.1352825 1.1267774 -1.0078834
-0.6477022 0.8193697 0.12618269 0.83401334 -1.2126073 0.7391161 -0.870479 -0.22219792
-0.53936183 -1.2860905 0.60685897 0.3259479 -0.8265925 0.5063354 -0.8625043 -0.43721157
1.1641887 -1.5232847 -0.04980162 0.32678616 0.1607879 0.9230664 -1.7357339 -0.11353196
-0.2781009 0.44694787 -1.401167 -1.4927013 0.32670373 0.5955766 -0.35125235 1.0578591
0.5070627 -0.7003127 -0.8244109 1.1112194 -0.010969039 -0.51791406 0.9885634 0.5849958
-0.3156065 -0.14913318 -0.04712066 0.2685779 -1.9888884 -0.8330732 0.17738746 -1.4518226
-0.28681606 0.25067657 0.46710944 0.23119816 -0.22394742 0.6062419 0.21315739 -0.51604605
0.9337329 0.07824921 -0.22717537 0.058285374 0.36870438 0.72507834 -1.28579 -0.2256968
-1.0740001 -0.53191674 0.32219177 -0.3605677 -0.14194085 0.3943714 0.08165692 -1.4194938
-0.20937149 0.91377985 -0.747585 0.49859038 -1.0958773 -0.7680351 0.32272387 -0.052585036
-0.27244353 0.116910316 -0.094254434 0.13879041 -0.072096534 -1.3460879 -0.12410415 0.057019144
-0.31249416 0.7163388 0.35277322 -0.06899593 -0.13321966 0.9153357 -1.2074466 -0.7521586
0.019228112 0.18379673 -1.2679774 -0.329023 -1.4103241 -0.9758058 0.28913245 -1.4657853
0.043801203 1.0157151 0.22247365 -0.36504877 0.035883863 -0.98337466 -1.0322824 -0.07590018
-0.6904611 -0.4292049 -0.7880549 0.26690996 -0.9993023 -0.41383862 0.84563965 0.12086642
0.15146953 -0.34518445 1.3946666 0.8951743 -1.0952815 0.695749 -1.127212 -0.60463345
-1.3231328 -2.0487967 -0.32102394 -0.9071604 -1.2448572 0.024555478 -1.0356247 -0.7434373
0.56292385 0.1771373 0.75457287 -0.44401053 -1.3739687 0.48293903 0.708359 -2.6425753
0.36391193 -0.12306607 -1.2382623 0.12738323 -1.0355425 -1.8054613 -0.30598632 -0.7276207
0.36156064 0.90148395 -0.282636 0.9948849 0.27983877 -0.15903287 -0.7332037 -0.40070653
0.2808322 -0.48311552 0.3781025 -0.40388498 -0.67051846 0.60759467 -0.47200844 -0.060256213
-0.50643736 -0.9376428 0.7729452 -0.029696919 -0.18156101 1.1409338 0.26242656 -0.046353195
0.10916639 -0.47764847 -0.15123639 -0.58082914 -0.15481879 -0.8006868 0.44633076 0.9739221
0.251544 0.72400314 0.7764374 -0.13968387 0.05030034 -0.14184366 -1.1672962 -1.4347522
-0.46493915 -1.1886982 -0.95787525 -0.7681107 -0.690828 -1.5984044 0.6813967 -0.21860774
-0.35063314 -0.18803121 -0.64382 -0.08789935 0.3961712 0.8299063 -2.1072917 -1.001096
0.6208366 -1.1990211 -0.6906984 -0.35096917 0.86228025 0.81062406 -0.38338652 -0.5985666

conv3.bias f4 [64]
00000000: 6f60 1c3d 185f 72bb 2bb5 a23d ce3d 48bd
00000010: ba4f d23d 2645 b73c bd8c 143d a6f4 1dbd
00000020: 8f5d 253c 14af a239 6ba2 763c 4704 433c
00000030: b2ed a63d e193 c53d 8335 ab3d 33bc bbbd
00000040: 07ab dc3c 1e15 d93c 8147 983c 9449 823d
00000050: 0940 8cbd 0d48 bebd 7e78 113d e4b1 fcbb
00000060: 193e 8bbb 961d 2fbc 2a9b c33d 8658 42bd
00000070: c24e 8f3d 44b9 a4bd 0cd0 5cbb 0b3d 45bd
00000080: 2c48 593d 9add 49bd e336 86bd 96cc 46bd
00000090: 613d d43b 5247 34bd d4e1 cd3a 6105 883d
000000a0: 730c 083d 72eb e0bc 6e19 cb3b 264c b6bd
000000b0: 78ca 3f3d bb24 97bd 972b cd3c 6d13 85bd
000000c0: e40d dbbb 6f22 b93d f648 923d 50ec 2f3d
000000d0: ee93 233c 94cc aabc 387f 523d a686 08bd
000000e0: fa1d 533d 72d9 8cbd 89d9 2ebd a856 663d
000000f0: 830f b33c 76ca 25bc 836a e0bb fcc4 1a39
0.038177904 -0.003698295 0.07944711 -0.048887067 0.10269113 0.02237184 0.03626703 -0.038563393
0.010093107 0.0003102949 0.015053372 0.011902875 0.081508055 0.09647346 0.08359816 -0.091667555
0.026937021 0.026499327 0.018588783 0.0636169 -0.06848151 -0.09291086 0.0355153 -0.007711636
-0.004249346 -0.010688206 0.095510796 -0.047447704 0.06997444 -0.08043149 -0.0033693342 -0.04815392
0.053047344 -0.0492836 -0.065534376 -0.048534952 0.0064770435 -0.04401333 0.0015707561 0.06641651
0.033214998 -0.02745602 0.0061981 -0.08901243 0.04682395 -0.07380053 0.0250452 -0.06497846
-0.0066850055 0.09039771 0.071428224 0.042949975 0.009984 -0.020849504 0.051390857 -0.033331536
0.05154226 -0.06877412 -0.042687926 0.056234986 0.021857983 -0.010119071 -0.0068486347 0.00014759967

bn3.weight f4 [64]
00000000: 35af f63e 8334 2b3f 170e 013f 7e6a c03e
00000010: 4d0b 563f 086c af3e 12a7 d53e d70b 173f
00000020: 5eb1 283f 839a 023f 7a4e 0c3f fe2c 213f
00000030: 1046 443f ec06 dc3e 67b8 103f 71f9 133f
00000040: 2e12 ad3e b021 0b3f 84f1 073f eabe 5e3f
00000050: 5b24 ac3e 407b 3b3f 7328 083f 4dee a03e
00000060: 3d60 2b3f 2123 063f 7216 0a3f 5059 1c3f
00000070: b5fd 083f 578e da3e 2f6c fd3e 6307 243f
00000080: 172f 943e 27f1 b93e d312 283f 8196 b53e
00000090: c6e3 443e 89fe 1b3f 5c51 183f b7ee 393f
000000a0: 2db2 193f 13d0 fa3e 7336 ea3e 10a2 0f3f
000000b0: 0da2 093f befe 243f e07a 033f 956e bc3e
000000c0: f2ca 0d3f 5f84 393f 27f1 ec3e abdb 263f
000000d0: 6a1e 8e3e 96d8 d43e 286e a83e 2d37 2c3f
000000e0: 4c82 0e3f 2ddc 023f ce3c f43e 0089 f93e
000000f0: bbfe 1b3f bbdc 383f 6e55 3d3f 1b90 113f
0.48180547 0.66877 0.50412124 0.37581247 0.83610994 0.3426211 0.41729027 0.5900244
0.6589564 0.51017016 0.54807246 0.6295928 0.76669407 0.4297403 0.56531376 0.5780249
0.33802933 0.5434828 0.531029 0.8701006 0.33621487 0.7323494 0.5318672 0.3143181
0.6694372 0.5239735 0.539405 0.6107378 0.53512126 0.42686722 0.494966 0.6407377
0.28942177 0.36316797 0.65653723 0.35466388 0.19227514 0.60935265 0.59499145 0.72629875
0.600375 0.48986873 0.45744666 0.5610666 0.53762895 0.64451206 0.5135937 0.36803117
0.55387795 0.7246761 0.46277735 0.65178937 0.2775758 0.41571492 0.32896543 0.6727169
0.5566757 0.5111721 0.4770264 0.48737335 0.6093556 0.7221181 0.7395848 0.5686051

bn3.bias f4 [64]
00000000: 61fc 90be bb63 28bf edae 00bf daf6 57be
00000010: 7744 5ebf c202 7fbd bbdd 92be 3a25 fabe
00000020: 43ea 2dbf 0e36 32bf cdcb e5be 1e82 0bbf
00000030: 7fef 3ebf 4721 69be 6b97 29bf f394 00bf
00000040: 0d8d 13be e1fc e5be e45c 6ebf 06f3 72bf
00000050: b2d2 2abd ce28 28bf 48b4 e8be b5e0 b6bd
00000060: 9972 39bf c1ab debe 7334 9dbe 4e2c 06bf
00000070: d8c4 bdbe f50e 62be 43ee a4be 4116 e4be
00000080: 7f84 0ebe c177 9cbe ecea 02bf 4f25 87be
00000090: a569 ce3c d653 c4be 4ef3 efbe ba76 3dbf
000000a0: 86b5 1fbf f5a8 a5be 8eb7 67be 74f2 e9be
000000b0: f062 09bf 930c ccbe c2db d1be 739d a6be
000000c0: 921b cebe e8f8 4fbf fc38 b2be 2f5b 20bf
000000d0: 71a4 14be 459e c0be f97a 53bd e8ba 32bf
000000e0: f7dd 11bf 1986 bfbe 321c 0fbf 99cb 1ebf
000000f0: 541c 0cbf fe58 2ebf 0ff2 3abf 5642 06bf
-0.2831755 -0.65777177 -0.50266916 -0.2109026 -0.8682322 -0.06225849 -0.28684792 -0.48856527
-0.6793558 -0.6961373 -0.4488205 -0.5449542 -0.7458419 -0.227666 -0.6624667 -0.5022728
-0.14409275 -0.44919494 -0.9311049 -0.94902074 -0.04170484 -0.65687263 -0.45450044 -0.08929578
-0.7244049 -0.43490413 -0.30704078 -0.52411354 -0.37064242 -0.22076018 -0.3221303 -0.44548228
-0.13917731 -0.30560115 -0.5113971 -0.26395652 0.02519686 -0.38345212 -0.46865314 -0.7400929
-0.6238636 -0.32355466 -0.22628614 -0.4569279 -0.5366659 -0.39853343 -0.40987974 -0.32542
-0.4025541 -0.81239176 -0.348091 -0.62639135 -0.14515854 -0.3762075 -0.051630948 -0.69816446
-0.56979316 -0.37406996 -0.559024 -0.62029415 -0.54730725 -0.6810454 -0.730256 -0.5244497

bn3.running_mean f4 [64]
00000000: 62e8 39c1 ddf1 aac1 feb3 cbc0 25ed cfbf
00000010: 1224 91c1 3eb5 79c0 5648 45c1 22f1 99c1
00000020: 432b 4ec1 6e5a acc1 18f4 1740 b4c0 87c1
00000030: 4fa0 b1c1 f254 3fc1 ad38 45c1 208b a9c1
00000040: a740 de40 abfc 88c1 31eb 83c0 55fc 8bc1
00000050: dc3c cc3f 7ef1 8ac1 990b 94c1 8781 de3f
00000060: 960a 4ac1 7188 54c1 d112 1ac1 5aa3 9cc1
00000070: f220 1ec1 a4f7 8dc0 12e1 00c2 cee9 3bc1
00000080: 55bc 38c1 fba8 2dc1 c57a 70c1 c43b 24c1
00000090: 158d a441 fd5d 6bc1 7e1c 99c1 b340 96c1
000000a0: 6a2c 52c1 0674 87c1 01cc 80c1 24f2 3ac1
000000b0: cae2 10c2 0a05 9dc1 1a66 fcc0 41f7 19c2
000000c0: 87ed 29c1 77b3 d7c1 7748 4cc1 282a c2bf
000000d0: ae98 1fc1 7c5e 0ec1 6b05 3cc1 cbc4 efc1
000000e0: c7ac 25c1 3d13 58c1 1e12 5e40 190a 1ac1
000000f0: 3806 bac1 0c8e aec1 e835 9ec1 0ce8 7b40
-11.619234 -21.368097 -6.3657217 -1.6244246 -18.142612 -3.9016871 -12.33016 -19.24274
-12.885562 -21.544155 2.3742733 -16.969093 -22.203276 -11.958239 -12.326337 -21.192932
6.945392 -17.123373 -4.12246 -17.498209 1.5956073 -17.367916 -18.505663 1.7383279
-12.627584 -13.283311 -9.629594 -19.579762 -9.883043 -4.4364796 -32.219795 -11.744581
-11.5459795 -10.853755 -15.029973 -10.264591 20.568888 -14.710446 -19.138912 -18.781591
-13.135843 -16.931652 -16.099611 -11.684116 -36.221474 -19.62746 -7.8874636 -38.49146
-10.62049 -26.96263 -12.767692 -1.5169115 -9.974775 -8.898067 -11.751323 -29.97109
-10.354682 -13.504697 3.4698558 -9.627465 -23.253036 -21.819359 -19.776321 3.936038

bn3.running_var f4 [64]
00000000: bcf3 8a43 51ae 9a43 41ef 5f43 00d3 a543
00000010: 5088 7943 050f a343 519c 6a43 38f8 a543
00000020: cd4b b343 2b04 cb43 9c6b a943 15cf c343
00000030: 99a5 c143 f994 dd43 58be 9343 d1f7 a543
00000040: 149e 9243 0f37 c443 80de 5443 562c 8043
00000050: 4999 0a44 ead7 8a43 ed68 a143 3202 e843
00000060: 78f8 9343 286a ab43 9b43 bb43 5c2d d743
00000070: ea7a b443 d6bf a643 4991 1044 3ddb 8443
00000080: a3a2 d043 52a8 af43 adf4 b643 78d9 4943
00000090: d5ad c743 76fa 8a43 970b 9e43 b282 8143
000000a0: 2aa2 a443 d692 a643 4767 a843 f78b b543
000000b0: 3f8c c643 0319 8b43 ab7a 9043 8aa3 0b44
000000c0: a412 aa43 8667 a043 9a7a e643 276f df43
000000d0: 7417 4f43 ce81 ab43 bdbc a143 6bbc aa43
000000e0: b788 9543 28f9 a943 79b5 4243 42a7 5543
000000f0: c7c7 cd43 4afb c143 2c3c 8243 131b 4743
277.90417 309.36185 223.93459 331.64844 249.53247 326.11734 234.61061 331.9392
358.5922 406.03256 338.8407 391.61783 387.29373 443.16385 295.48706 331.93607
293.235 392.43015 212.86914 256.34637 554.3951 277.68683 322.81973 464.01715
295.94116 342.82935 374.52817 430.35437 360.96027 333.49872 578.2701 265.7128
417.2706 351.315 365.91153 201.84949 399.35806 277.95673 316.09055 259.02106
329.2669 333.14716 336.80685 363.09348 397.09567 278.1954 288.95834 558.5553
340.14563 320.80878 460.95782 446.86838 207.09161 343.0141 323.47452 341.47202
299.06808 339.94653 194.70888 213.65335 411.56076 387.9632 260.4701 199.10576

linear1.weight f4 [64, 256]
00000000: ee31 98bf dd97 2ebf 6f89 41be 962a a2be
00000010: 183f 3dbf b95c 9ebe 98eb 43bf deb2 aabe
00000020: eb47 fa3e 8987 d6bd b423 7c3f b62f a8bc
00000030: ca94 7ebf c50c fabf f79e 13bf cf0e 74bf
00000040: a520 753f dd9c 863f a7c5 f53e 568a 2dbe
00000050: 4e0f c5bf 277c 9cbf a5b2 87be 006c 34bf
00000060: b5e1 7dbf b768 513d 98a2 e73e d28d 473f
00000070: d1d7 383f 00d2 ac3e 7c52 373f d668 3e3e
00000080: 6e1b 8fbf e51f 28bf 4861 81bf bff4 513c
00000090: 3379 ac3c 5ce7 d63e ac0b c23d e19e f73e
000000a0: cae3 a6be 4b36 d2bf 265b ffbe d6f4 2abf
000000b0: 4d7d a5be 0894 63be ddc4 1c3f 067f 353f
000000c0: dcb4 49bf e116 98bf ef4b 6dbf 3707 7c3d
000000d0: 6ffd e2bf 1a98 283f 9872 d6bf bed6 313f
000000e0: aa86 d0be a87f 283d 4029 a3be 9efa c63e
000000f0: 30ce 88bf d6aa bbbf 57f1 efbe 65ef 13bf
00000100: ac8f f83e 4cf5 1cbd 204e b5be 2bb3 73bf
00000110: 9a5d 57bf 7c6c 2ebe a15b 133f 933f 443f
00000120: 92b7 76be bdde 363f a888 9b3e e501 2e3f
00000130: 4420 8ebf 6625 e4be 3562 77bf 8f88 26bf
00000140: b654 b1be eabd 6dbe a34f 09bf a24a 97bf
00000150: 2c08 7f3f adee 8b3e 30d3 313e 682b cfbe
00000160: a8c8 6abf 242d 2cbe 6423 a4be 237c a8bf
00000170: f46f a8be 7aa4 2fbe 8bf1 e53e fabd 1e3f
00000180: b3d0 8abf 16d8 a9bc 837e 4abf ac8b 5dbf
00000190: db85 583d 1619 ff3e c4fc 23be 24c7 3b3f
000001a0: aede 76bf 4aa0 ccbf 9c95 d03e 79ee 323e
000001b0: 85e7 e3be c2c9 02bf 4b72 693e 4581 173e
000001c0: 5a30 2ebf 62a1 0dc0 d181 d4bf 0937 93bf
000001d0: 2903 4b3d cce8 58be 0d7b cc3e a74e 043f
000001e0: ee35 2bbf 16a5 083e 373e 2dbf 2633 0b3f
000001f0: 6163 96be 4d02 52bf ae2d 143f 08e0 6dbd
00000200: fc5b 283e 08ce f23e 8b20 f73c 3a88 c0bd
00000210: abcb 853e 78f5 5b3e 9dcd 1fbe ecce a13e
00000220: 409d b6bf efcc 33bf 3bae a0bf 4ebe bdbf
00000230: 7c6e 213f a801 a63e 8dda 623f 964e 2dbf
00000240: a515 6d3e 680b c0bd 61b9 89be 26d9 1bbe
00000250: a6bc 29bf 1a2e 9abf 12b6 423f a291 cbbd
00000260: 637b 05bd 5cb8 e6bf 6eea 9abe bee1 413e
00000270: c4a3 f1bd 2217 c7be 8291 383f f194 893f
00000280: cb20 53bf d2d7 e8be 1416 24bf 79c0 c03e
00000290: 8e76 49bf 578b 403e e2c8 3dbf f621 b0bf
000002a0: ccaa a2bf aafc 21c0 feb1 5abf c614 08c0
000002b0: 1749 073f ea2b c8be 95e2 303f 8221 14bd
000002c0: f0ca 09bf e3f4 6a3f 28ff a53e fc10 90bd
000002d0: 03ed 9fbf 1e32 97be b6bf 8dbe df80 81bf
000002e0: 1b9f 473e 5538 c5bd 9841 2e3f 6790 c93f
000002f0: b6bf d0be bcfd acbe d408 01bf bf3e 613f
00000300: d139 a2bd e4a8 d4bc 489b 893d b3f0 0fbf
00000310: 7126 8abf abd3 86bf 5f9f c1be 497b a4be
00000320: a7b9 bc3e cb03 0abf 3c7e 89be 8a23 b8be
00000330: e514 a4bf 592a 75bf 8a3c cd3c 8abe 9cbf
00000340: 2a38 413e e7f4 15bf cc7c 403e 656f 9cbe
00000350: eb9f 0cbf 13f4 4f3e 6f97 8abe 9aed 80be
00000360: 13c3 d6be 14c2 083f 3a42 75be 1048 313f
00000370: 2a5e 373e 6ac7 05bf 9c3d 023f c2fd 173e
00000380: cd70 c8be 019c 413e 5160 bebf 6654 9ebf
00000390: 80c4 09be 3589 963e 293f 56bf b388 1b3e
000003a0: 307d 3f3c 9fe8 46be 23db fa3e fb60 fd3e
000003b0: 5fa6 183f 5607 1fbf 3fa4 8e3e 2802 ebbe
000003c0: 2ab9 9abf 55fd 13bc f0cc e53d 7719 ef3e
000003d0: dedd 9bbd e851 00be 35b4 8cbc 9449 86bf
000003e0: b769 f23e 720a df3e f7f7 b93e cceb c0be
000003f0: 9db2 2abf cb73 e63e a033 823e c6d0 fc3e
-1.1890237 -0.68200475 -0.18900083 -0.31673115 -0.739244 -0.30930117 -0.7653136 -0.3333959
0.48882994 -0.1047507 0.9849198 -0.020530563 -0.99445784 -1.9535147 -0.57664436 -0.95335096
0.95752937 1.0516621 0.4800236 -0.16947302 -1.5395296 -1.2225388 -0.26503482 -0.70477295
-0.99172527 0.051125254 0.45241237 0.77950776 0.7220431 0.33753967 0.71610236 0.18594679
-1.1180246 -0.6567367 -1.0107813 0.0128147 0.021053886 0.41973388 0.094748825 0.48363402
-0.32595664 -1.6422819 -0.49874228 -0.6677984 -0.3232216 -0.22224438 0.6123789 0.7089695
-0.78791595 -1.1881982 -0.9269399 0.061530318 -1.7733592 0.6585709 -1.6753721 0.69468296
-0.4072774 0.041137367 -0.3186741 0.3886308 -1.0687923 -1.466151 -0.46863815 -0.5778716
0.48547113 -0.03831987 -0.35411167 -0.95195264 -0.841272 -0.17033571 0.5756169 0.76659507
-0.24093464 0.7143362 0.30377698 0.6797164 -1.1103597 -0.44559783 -0.9663423 -0.6505212
-0.34634942 -0.23216978 -0.5363714 -1.1819651 0.99621844 0.27330533 0.17365718 -0.40462804
-0.9171243 -0.16814095 -0.3205825 -1.3162884 -0.32897913 -0.17152587 0.44910845 0.6200863
-1.084494 -0.02073292 -0.7909929 -0.8654125 0.05286203 0.49823827 -0.16014391 0.7335074
-0.9643353 -1.5986416 0.40739143 0.17473783 -0.44512573 -0.5108911 0.22797506 0.14795406
-0.6804253 -2.212975 -1.6602117 -1.150117 0.04956356 -0.21182555 0.3993763 0.51682514
-0.66879165 0.13344225 -0.6767306 0.5437492 -0.29372695 -0.8203476 0.578822 -0.05807498
0.16441339 0.47422814 0.030166885 -0.09400983 0.2613195 0.21480358 -0.15605779 0.3160318
-1.4266739 -0.7023458 -1.2553171 -1.4823701 0.6305921 0.3242314 0.8861473 -0.6769804
0.23152788 -0.093771756 -0.26899245 -0.15219554 -0.6630348 -1.2045319 0.7605907 -0.09939887
-0.032588374 -1.8025012 -0.3025698 0.1893377 -0.11798814 -0.38884836 0.7209703 1.0748578
-0.82471913 -0.45477158 -0.6409619 0.37646845 -0.78696525 0.18803154 -0.7413465 -1.3760364
-1.2708373 -2.5310464 -0.85427845 -2.126268 0.528459 -0.39096004 0.69095737 -0.036164768
-0.53825283 0.9177992 0.3242123 -0.070344895 -1.2494205 -0.29530424 -0.27685326 -1.0117453
0.19494288 -0.09629885 0.6806884 1.5747193 -0.40771264 -0.33787334 -0.50404096 0.8798637
-0.07921184 -0.02595944 0.06719071 -0.5622665 -1.0792981 -1.0533346 -0.37816903 -0.3212531
0.36860391 -0.5391204 -0.26854122 -0.35964614 -1.2818877 -0.9576774 0.025053281 -1.2245648
0.18869081 -0.58576816 0.18797606 -0.30553737 -0.54931515 0.2030795 -0.2706866 -0.25181276
-0.41945705 0.5342114 -0.23951045 0.69250584 0.17907014 -0.52257407 0.5087526 0.14842895
-0.3914856 0.18907167 -1.4873143 -1.2369506 -0.13453865 0.29401556 -0.83690125 0.15188865
0.011687562 -0.19424675 0.48995313 0.49488053 0.5962886 -0.6212057 0.27859685 -0.45900083
-1.2087758 -0.009032567 0.11220729 0.46699116 -0.07610677 -0.12531245 -0.017175773 -1.0491204
0.4734628 0.43562657 0.36321995 -0.376799 -0.6667879 0.45010218 0.25430012 0.49378031

linear1.bias f4 [64]
00000000: 1c82 0e3f f0ed 47be 864f 63be 8e99 16be
00000010: 789f 8a3e 211d ad3c 762e 2bbe eff9 7abe
00000020: 886f 603e c84c cebe 4293 643f fe85 913e
00000030: 18d4 8bbe 88ee f23d 67ad 28be 9ce3 a2be
00000040: 216b 883d d4aa bf3e 2f0d 113d f6ec 0f3f
00000050: 11d7 383d 857f 433f c41b f33e 8c9a 363d
00000060: 9e1c db3e d991 c33e 7bd9 1e3e d931 89bf
00000070: 0e55 7e3f d617 64bf afe6 e6be 14ae 463f
00000080: 4d1c c2be 46df e4be 7d05 143f 4a82 9fbc
00000090: 7161 6c3f 64ca 40be 949f d8bd b381 29be
000000a0: e411 943f c4cc babf 564c 01bf 5a1f a7be
000000b0: b664 d53e f706 693e 6aed 553f e6f6 073f
000000c0: cac9 31bf 6bc9 ecbd 8248 093f 09cc a9bd
000000d0: 4cdb 123f 6ea7 273e a9da edbe 7f72 1abe
000000e0: 9d87 4fbf c7fa ec3e 0a60 1d3f 4f87 84be
000000f0: c12d 78be 07d9 e6bd b107 513f 14f1 723d
0.5566728 -0.1952436 -0.22198305 -0.14707014 0.2707479 0.021132054 -0.16716942 -0.24509405
0.21917546 -0.40292954 0.892872 0.2842254 -0.27310252 0.118619025 -0.16472398 -0.31814277
0.06661058 0.3743502 0.035412963 0.5622095 0.04512698 0.76366454 0.4748212 0.04458098
0.4279527 0.3819721 0.1551265 -1.0718337 0.99348533 -0.8909887 -0.45097873 0.7760937
-0.37912217 -0.44701594 0.57820874 -0.019471306 0.92336184 -0.18827206 -0.10577312 -0.16553383
1.156796 -1.459374 -0.50507104 -0.32641107 0.416784 0.22756563 0.8356539 0.5311111
-0.6944853 -0.11561855 0.53626263 -0.0829087 0.5736587 0.16372463 -0.46455887 -0.1508274
-0.81066304 0.46285078 0.6147467 -0.25884482 -0.24236204 -0.112718634 0.8165236 0.05931194

linear2.weight f4 [19, 64]
00000000: 5e0e 57bc 1a28 403d 428e 0fbe b615 1ebf
00000010: 799b dfbe da95 e83e 6e2c 563e b880 45be
00000020: d434 51bf 8916 b0bf 0db5 7dbe c774 66bf
00000030: 506d 96bd 7698 a7be b900 c93e 34b9 d8be
00000040: 18fc 493e 0e16 ccbe e6cf de3d af80 70bd
00000050: 03b4 903e 28cd f9be 2b8c b5be 6cbd f9be
00000060: d8fc 29bf 1d90 30bf 833b 2ebf e0b0 4c3c
00000070: df4c f6be 615a 053e 204b 04bd 6378 10bf
00000080: 9e7e babe 1436 373e 9aca 82be cfe2 91be
00000090: 2e00 1ebf a35f df3d 6c89 22be ecb3 963e
000000a0: 4862 efbd 0d34 3ebe 6513 7a3e b675 b4bd
000000b0: d8b6 c1bd 8139 973e 711b 26bf 76b6 f0bd
000000c0: 7cd1 09bf 4447 f6bd abd0 6abe 56a9 ecbd
000000d0: fdfc 21be e353 3bbe 98c5 20be 3437 2a3d
000000e0: 10a3 9dbd a03a 91bf 655e 69bf 2317 babd
000000f0: 8576 91be 103e f03e 438d 23bf cfab d9bf
00000100: f0b3 f5be 18af c1bd 063a 2cbe e60d 1c3e
00000110: 95ed 1cbf eb71 3e3d 49d6 8ebe d076 45be
00000120: 19be bfbe ce47 40be f253 0a3e 7709 123e
00000130: 02eb 303e eb42 3cbe 862a ccbd 486f 24bf
00000140: 9218 553e 67a4 be3d f3c5 29bd a26a 3fbf
00000150: c949 d8be 7df2 f1bc 36f6 8abf 8f89 bfbe
00000160: 3432 5fbf 16fe 92bf dcd9 4cbe 82d8 bebf
00000170: c676 73bf 1ee6 67be b1a7 69be 7386 83bf
00000180: 76f9 17be 3f22 d4be c2b7 e9be a365 673e
00000190: c764 9d3e 22eb 76bd 548d 7bbd 180f 023e
000001a0: 650e 6cbf 4fe5 bcbf 7439 babd 9d70 36be
000001b0: c53c 09bf ccf2 efbd 2960 2dbd de43 963e
000001c0: f8f3 45bf a17e 543d 25fa 053f ab15 2d3d
000001d0: 9ca2 42bf 29b9 2b3e 13d5 833e cc19 85bd
000001e0: ab64 0cbe 38c9 bdbe 883d 2bbf d642 6dbe
000001f0: 8698 623c 4d70 7f3e 6152 223f 014a eebf
00000200: 2d55 41bf 18c9 46bd d823 83bd 5c66 213f
00000210: cdad 04bf 8f7e 2b3d c1be 19bf 32c1 a23c
00000220: f79e a63c 6b1e 94bf 2449 20bf 888e 48be
00000230: b98a 1a3c 2a03 1cbf fc20 463e 186e fcbd
00000240: e79b 963e acff 7cbf 1446 13bf 41ce 24be
00000250: 6759 17bf 435e bb3e 707c 81bf 0710 9b3c
00000260: 39e8 8dbf f494 0cbe 423a 08bf a56a 03bf
00000270: 13ca f5be 6591 14bf 1769 093e 5412 39bf
00000280: 31fa 0abe 25bd 16be 59a9 8bbd dad9 cebe
00000290: 2832 193d ed5e 90bd 02be 3abd d1e2 bc3e
000002a0: fdc1 d0be d2a1 cabe 113b e6bd 0105 b5be
000002b0: c5bc fabe 8c13 b73e d8eb 8ebe 1957 40be
000002c0: 6f4a 11bc 8fff 113e 48bd b9be 95f2 0a3d
000002d0: b19f b1be 9ea8 54bf 92b1 87bd c1ae 1a3d
000002e0: 108e 91bf 3c7f 0ebf eb38 eabe c3c0 2c3c
000002f0: 9221 b8bd 9940 4cbe 5fa1 2ebe e18a 1fbf
00000300: 362c d1be 825a 9abd 689e 9abd 8247 65bd
00000310: fb62 803e 0b67 f1bd 5497 47be f549 463b
00000320: dc9a d1be 5b9e 20bf d4e2 1bbf b280 283e
00000330: 6a90 87bc 5e8f e93e 4c75 0fbf 0b62 a43d
00000340: d5e3 1a3e e9c0 34bf 8c42 d6be 8509 a53e
00000350: c4b5 0ebe f48a a43e 3ff6 51bd 4145 1dbf
00000360: bd12 67be 3832 3abf a3c2 ebbe 08c7 b33e
00000370: 2758 b8bc 14e2 83bf 8470 063e 53fe a7be
00000380: afe6 b7bc baca a7be dffb a13e 1b33 74be
00000390: 33f9 cbbe 6cbd 06bd 28cf 4bbc f72e b43e
000003a0: 342d fdbe 8dcf f8be 4a07 dbbd d9b7 7e3d
000003b0: ba7d 5d3e 9c5a e4bd d7d2 1dbf 98a7 71be
000003c0: bb32 9ebe c68e d43c 8a6e a8be 583e bfbc
000003d0: 7ea6 d1be 3ec2 55be b9fa 97be 4246 87bc
000003e0: b52b 43bf a5d7 84bf 2566 1cbf b328 9dbb
000003f0: a84b 7d3d 2f22 44bc 3423 ffbe bc75 16bf
-0.013125984 0.046913244 -0.14019111 -0.6175188 -0.43673304 0.45426828 0.20915386 -0.19287384
-0.81721234 -1.3756877 -0.24776097 -0.9002194 -0.073450685 -0.32733506 0.39258364 -0.423288
0.19725072 -0.39860576 0.10879497 -0.058716472 0.28262338 -0.48789334 -0.35458502 -0.4877733
-0.66401434 -0.689699 -0.6805956 0.012493342 -0.48105523 0.13022758 -0.032298207 -0.56433696
-0.36424726 0.17891723 -0.25545198 -0.28493354 -0.61719024 0.10906913 -0.15872735 0.29434144
-0.116886675 -0.18574543 0.24421461 -0.08811514 -0.09458703 0.2953606 -0.6488562 -0.11753552
-0.5383527 -0.120253116 -0.22931163 -0.11555736 -0.15819164 -0.18293719 -0.15700376 0.041556552
-0.07697117 -1.1346016 -0.9115966 -0.09086444 -0.28410736 0.4692235 -0.63887423 -1.7005557
-0.47988844 -0.094572246 -0.16819009 0.15239677 -0.6130002 0.04649536 -0.27897862 -0.19283605
-0.3744972 -0.18777391 0.13508585 0.14261423 0.17277148 -0.18384902 -0.09969048 -0.642323
0.20810154 0.09308701 -0.041448545 -0.74772084 -0.42243794 -0.029534573 -1.0856388 -0.37409636
-0.8718598 -1.1483791 -0.20004982 -1.4909823 -0.9510311 -0.22646376 -0.22817875 -1.0275406
-0.14841256 -0.41432378 -0.4564801 0.22597365 0.3074095 -0.060282834 -0.061414078 0.1270107
-0.92209464 -1.475748 -0.090929896 -0.17816396 -0.5360835 -0.11716232 -0.042328034 0.29348654
-0.7732539 0.051878575 0.52334815 0.042256992 -0.7602937 0.16769852 0.257485 -0.06499061
-0.13710277 -0.3706758 -0.66890764 -0.23170027 0.01383031 0.24945183 0.6340695 -1.8616334
-0.7552059 -0.04853162 -0.06403321 0.63046813 -0.518277 0.041868743 -0.6005669 0.019867513
0.020339472 -1.1571783 -0.62611604 -0.19585621 0.009432488 -0.6094233 0.1934852 -0.12325686
0.2941582 -0.98827624 -0.57528806 -0.16094305 -0.5912079 0.36595353 -1.01161 0.01892854
-1.1086494 -0.13728696 -0.53213894 -0.513346 -0.48005733 -0.58034354 0.13418995 -0.7229359
-0.13572003 -0.1472059 -0.0681941 -0.40400583 0.03740135 -0.07049356 -0.04559136 0.36891797
-0.40773 -0.39576584 -0.11241735 -0.3535538 -0.48972145 0.357571 -0.2791431 -0.18783225
-0.008867844 0.14257644 -0.36277223 0.03392275 -0.34692147 -0.8306979 -0.06625666 0.037764315
-1.1371479 -0.55662894 -0.4574655 0.010544005 -0.08990778 -0.19946517 -0.17053746 -0.6232129
-0.40854043 -0.07536794 -0.07549745 -0.0559764 0.25075516 -0.11787232 -0.19491321 0.0030256484
-0.4093846 -0.6274163 -0.6089299 0.16455343 -0.016548354 0.45617193 -0.56038356 0.08026513
0.15125974 -0.7060686 -0.41847646 0.32233825 -0.13936526 0.32137263 -0.05126023 -0.614338
-0.22565742 -0.7273288 -0.46046934 0.35112786 -0.022502972 -1.0303369 0.13128859 -0.3281122
-0.022448866 -0.32771856 0.31637475 -0.2384762 -0.3983856 -0.03289549 -0.012439527 0.3519208
-0.4944855 -0.4859585 -0.1069475 0.06218705 0.21629992 -0.11150095 -0.6164984 -0.23599088
-0.3089808 0.025946986 -0.32896835 -0.023345158 -0.40947336 -0.20874879 -0.29683474 -0.016512994
-0.76238567 -1.037831 -0.6109336 -0.0047961115 0.06183973 -0.011971041 -0.49831545 -0.587734

linear2.bias f4 [19]
00000000: 57e7 823e 1147 ed3d 2fa1 0c3f 3ec8 f53e
00000010: dd06 87be 8ee0 6dbd 819f 59bd 1adb 7cbe
00000020: 2d30 223f 2836 bfbe 9d7c f9be 7bb1 98bd
00000030: a2dd 4fbf d3ca 87bc f09d 0f3e 083c 71bf
00000040: e932 a43e 3c4b 853e b37d ba3d
0.25567123 0.115858205 0.54933447 0.48004335 -0.26372424 -0.05807548 -0.05313063 -0.24692956
0.6335476 -0.37346005 -0.48727885 -0.07455727 -0.8119756 -0.016576206 0.14025092 -0.94232225
0.3207009 0.26033962 0.091060065
