mathboy/model.pt (torch, 271303 bytes, 24 tensors)

conv1.weight f4 [16, 1, 3, 3]
0	0xbf3eef78	-0.7458415
1	0xbf06a660	-0.5259762
2	0xbfd0af1a	-1.6303437
3	0xbf3b7246	-0.7322124
4	0xbe86eb1c	-0.2635125
5	0xbfd2f149	-1.6479884
6	0xbf1b07f7	-0.6055903
7	0xbf338486	-0.7012409
8	0xbed7cb19	-0.4214714
9	0xbf1b22ac	-0.6059978
10	0xbf3bf0a8	-0.7341409
11	0xbf9833a5	-1.1890761
12	0xbedddc33	-0.4333206
13	0xbea3deae	-0.3200583
14	0xbf72a08c	-0.94776225
15	0xbf3e291d	-0.74281484
16	0xbeacd7bf	-0.3375835
17	0xbf97d65b	-1.1862291
18	0x3d406cfa	0.04697893
19	0x3d98b699	0.07456703
20	0xbf2aae77	-0.6667246
21	0xbf027824	-0.5096457
22	0x40221a4d	2.5328553
23	0x3f1f55f9	0.6224056
24	0xbe0b8246	-0.13623914
25	0x3e826220	0.25465488
26	0x3f964aad	1.1741539
27	0xbfbfaab1	-1.4973966
28	0x3f61c533	0.8819153
29	0xbe6e0e65	-0.23247679
30	0x3dfc7f3f	0.12328958
31	0x3fab0336	1.3360355
32	0x3fb14d2b	1.3851675
33	0x3f8ecaf0	1.1155682
34	0xbf2ac11c	-0.6670091
35	0x3ee5a953	0.44855747
36	0xbf00686c	-0.50159335
37	0xbf0439d6	-0.5165075
38	0xbf57ddf3	-0.8432304
39	0xbee9d3b9	-0.45669344
40	0xbfb2b714	-1.3962121
41	0x3f8a99df	1.0828208
42	0xbf8c506e	-1.0962045
43	0x3e550447	0.20802413
44	0x3f9c60a4	1.2216992
45	0xbeb08945	-0.34479728
46	0x402b7044	2.6787271
47	0xbf12a3ba	-0.57281077
48	0xbf48c656	-0.78427637
49	0x3f237956	0.6385702
50	0xbe1213a8	-0.14265311
51	0xbf6b54de	-0.9192637
52	0xbec3a1cc	-0.3820938
53	0xbee092dd	-0.43862048
54	0xbed48ed3	-0.41515216
55	0x3e45c350	0.19312787
56	0xbf933167	-1.1499451
57	0x3fcded3b	1.6088022
58	0x3e227f2b	0.15868823
59	0xbfd31f7a	-1.6493981
60	0x3e892c87	0.26791784
61	0x3e642ff3	0.22283916
62	0xbf95d084	-1.1704259
63	0xbe220d16	-0.15825304
64	0xbd0c044e	-0.034183793
65	0xbf14a4c3	-0.58063906
66	0xbeb30a7f	-0.34968945
67	0x3f958ed5	1.1684214
68	0x40206178	2.505949
69	0xbfced76a	-1.6159489
70	0xbe9f455b	-0.31107602
71	0x3ebea120	0.37232304
72	0xbeac3e85	-0.3364145
73	0x3f359552	0.7093097
74	0xbf3537cd	-0.7078827
75	0xbf636f9e	-0.8884219
76	0x3f9553d8	1.1666212
77	0xbf929be5	-1.1453825
78	0xbf333f4e	-0.7001847
79	0x3f6533d4	0.8953221
80	0xbf391932	-0.7230407
81	0x3fe10209	1.7578746
82	0x3f6b52f9	0.9192348
83	0xbe7e6698	-0.24843824
84	0x3f245ce6	0.6420425
85	0x3f5a1ec5	0.852032
86	0x3f466225	0.77493507
87	0x3ca61ca9	0.020277338
88	0xbf823f69	-1.0175601
89	0xbf9976d3	-1.1989387
90	0x3cd9365a	0.026515175
91	0x3f1d4276	0.61429536
92	0x3f9a6238	1.2061224
93	0xbf5eded4	-0.8705876
94	0x3e4b6ace	0.19864962
95	0x3f92270f	1.141817
96	0xbfc8f339	-1.5699226
97	0xbfb0c7a5	-1.3810927
98	0x3eb5c859	0.35504416
99	0xbef35fa0	-0.47533894
100	0xbffe8497	-1.9884213
101	0xbfba1848	-1.453866
102	0x3fa2bdb1	1.2714139
103	0xbec0540f	-0.37564132
104	0xbf513ed9	-0.8173652
105	0x3f6e70c6	0.9314083
106	0x3f00b467	0.5027527
107	0xbe0a34ea	-0.13496748
108	0xbf8888d7	-1.066676
109	0xbde866ad	-0.11347709
110	0xbe7fb1db	-0.2497019
111	0xbfc1c1e8	-1.51373
112	0x3cb5ac43	0.022176867
113	0x3e922ce6	0.2854988
114	0xbea3810b	-0.3193439
115	0xbd394046	-0.04522731
116	0x400be472	2.1858182
117	0x3ff5768a	1.91768
118	0xbe113f40	-0.14184284
119	0xbe959022	-0.29211527
120	0x3f16c07c	0.5888746
121	0x3fbd1af1	1.4773847
122	0xbed607a4	-0.41802704
123	0xbf955ccf	-1.1668948
124	0xbeab37c0	-0.3344097
125	0xbefe919b	-0.49720463
126	0xbf5b8d0d	-0.857621
127	0xbd5dd71d	-0.054160226
128	0xbe580071	-0.21093918
129	0x3e0f9fe2	0.14025834
130	0x3f4452b1	0.7668868
131	0xbed21adc	-0.41036117
132	0xbd1288a6	-0.03577485
133	0x40438695	3.0550892
134	0xbf5027fe	-0.81311023
135	0xbf97c239	-1.1856147
136	0xbe987bb4	-0.29781878
137	0xbdc78f34	-0.09744111
138	0xbf5fc58b	-0.874108
139	0x3f9ade5c	1.2099109
140	0x3f58922c	0.8459804
141	0xbf39d05c	-0.72583556
142	0x3f826b05	1.018891
143	0xbf84e62e	-1.0382745

conv1.bias f4 [16]
0	0x3ecd6888	0.40118814
1	0xbed2aae8	-0.41146016
2	0xbfb21092	-1.3911307
3	0xbe9085d7	-0.28227112
4	0xbf0baff3	-0.5456535
5	0x3f2f4987	0.6847157
6	0x3e95b939	0.29242876
7	0x3ecefefd	0.40428916
8	0x3fa8c98c	1.3186507
9	0xbf6b6bce	-0.9196137
10	0x3f3231e0	0.69607353
11	0x3f96b89a	1.1775086
12	0xbfac20e8	-1.3447542
13	0xbf715cac	-0.9428203
14	0x3ed9a956	0.42512006
15	0xbf1b9dc9	-0.60787636

bn1.weight f4 [16]
0	0x405d4d34	3.457837
1	0x405be57b	3.4358814
2	0x3fd67fcb	1.6757749
3	0x3fc6af04	1.552216
4	0x3fd2ccbf	1.6468734
5	0x3fc68597	1.5509518
6	0x3fffc72e	1.998266
7	0x3fa7b2ed	1.3101479
8	0x3f98ec90	1.1947193
9	0x3fd72d47	1.6810693
10	0x3fbd4030	1.4785213
11	0x3fe3b4da	1.7789567
12	0x3fb1eb84	1.3899999
13	0x3fc80943	1.5627826
14	0x3fa8145c	1.3131213
15	0x3f9a461b	1.2052644

bn1.bias f4 [16]
0	0x3d97cfe4	0.07412699
1	0x3e6d413a	0.23169413
2	0x3ed99ec0	0.4250393
3	0x3f091676	0.535499
4	0x3e4709ef	0.19437383
5	0x3ea7f941	0.32807353
6	0xbd9898c1	-0.074510105
7	0x3f4bca15	0.7960523
8	0xbf9ed519	-1.2408782
9	0x3f1ffd6a	0.62496054
10	0x3ecb1345	0.3966314
11	0x3d2c0ece	0.042006306
12	0x3f08d4dc	0.534498
13	0x3f02874d	0.509877
14	0x3ebdf1ab	0.3709844
15	0x3e179b09	0.14805235

bn1.running_mean f4 [16]
0	0x3e14a740	0.14516926
1	0xbf26429e	-0.649454
2	0xbf805f90	-1.0029163
3	0x3d971c9f	0.07378506
4	0xbf04c0c6	-0.5185665
5	0x3f56a008	0.8383794
6	0x3eaf7678	0.34270072
7	0x3f2909fc	0.6603086
8	0x3fa96ad5	1.3235728
9	0xbf10c20e	-0.56546104
10	0x3f605de7	0.87643284
11	0x3f9cd9b8	1.2253942
12	0xbf99e210	-1.2022114
13	0xbf3348be	-0.7003287
14	0x3f35c47f	0.71002954
15	0xbf092cb8	-0.5358386

bn1.running_var f4 [16]
0	0x3f15905e	0.5842341
1	0x3ef5db26	0.4801876
2	0x3f5f45bc	0.8721578
3	0x3f3150af	0.6926374
4	0x3e3c31a5	0.18378313
5	0x3e886baf	0.26644656
6	0x3e43fed8	0.19140184
7	0x3f04f9de	0.5194377
8	0x3d7d6d0d	0.061871577
9	0x3f51a217	0.81887954
10	0x3ecc75e1	0.39933684
11	0x3e8ea923	0.27863416
12	0x3eaa33ee	0.33242744
13	0x3edf0fc3	0.43566713
14	0x3f18c561	0.59676176
15	0x3de51793	0.11186137

conv2.weight f4 [32, 16, 3, 3]
0	0xbe8bdb15	-0.27315584
1	0x3e188db5	0.14897807
2	0x3d6fef4a	0.058577813
3	0x3f1d2baa	0.6139475
4	0x3eebabe2	0.46029574
5	0x3f1ff227	0.6247887
6	0xbfaad7cd	-1.3347107
7	0xbfbd5dc9	-1.4794246
8	0xbfa248ad	-1.2678429
9	0xbead6543	-0.3386632
10	0x3e4624d0	0.1934998
11	0x3e599ae0	0.21250486
12	0x3f7d61c6	0.98977315
13	0x3ea9e267	0.33180544
14	0x3f6cc814	0.92492795
15	0xbfa33477	-1.2750386
16	0xbfd79c23	-1.6844524
17	0xbfad16d4	-1.3522592
18	0xbeb56a45	-0.3543264
19	0xbf7fde33	-0.99948424
20	0xbf5105d8	-0.8164954
21	0xbf7b17bd	-0.98083097
22	0x3eee5bbd	0.46554366
23	0x3f881793	1.0632194
24	0xbdc2e435	-0.09516183
25	0x3ebf16ac	0.37321985
26	0x3f73a404	0.95172143
27	0xbf2c850f	-0.6739053
28	0xbf936554	-1.1515298
29	0xbf8d8505	-1.1056219
30	0xbeac708a	-0.3367961
31	0x3ed19f39	0.4094179
32	0xbc933eb6	-0.017974239
33	0x3f4a190f	0.78944486
34	0x3f094326	0.53618085
35	0x3f38b52a	0.72151434
36	0xc013e825	-2.311044
37	0xbfe3ec96	-1.7806575
38	0xbfa940a8	-1.3222857
39	0x3f2067cc	0.6265838
40	0x3fa2cbf5	1.2718493
41	0xbf54f2d6	-0.8318304
42	0x3f0fbf8f	0.5615167
43	0x3f2e81d5	0.6816686
44	0x3e57729a	0.21039811
45	0x3ee997b4	0.45623553
46	0x3f615f4f	0.88036054
47	0xbe9872bb	-0.29775032
48	0xbfad7e9c	-1.3554263
49	0xc040db95	-3.0134022
50	0xbfead80c	-1.8347182
51	0x3e421441	0.18953039
52	0x3f398671	0.72470766
53	0x3ecefad1	0.40425733
54	0x3f0a7b09	0.54093987
55	0xbf7c0ea6	-0.9845985
56	0xbf877a97	-1.0584286
57	0xbfa6f377	-1.304305
58	0xbee0bc42	-0.4389363
59	0x3eb46618	0.3523414
60	0x3f101b94	0.5629208
61	0x3f4fc070	0.8115301
62	0xbf099aaf	-0.53751653
63	0xbdaa06d0	-0.08302081
64	0xbf3fc356	-0.74907434
65	0xbf26f939	-0.65224034
66	0xbf6b8388	-0.91997576
67	0x3e006e87	0.12542163
68	0xbf299c7d	-0.6625441
69	0x3eb4b90d	0.35297433
70	0x3f1317f8	0.5745845
71	0x3f371727	0.715197
72	0xbef89d40	-0.48557472
73	0x3d5e0fe6	0.05421438
74	0xbf896448	-1.0733728
75	0xbf919f93	-1.1376823
76	0x3d950c92	0.07277788
77	0xbf3d6f39	-0.7399784
78	0x3ec64097	0.38721153
79	0xbf4c0734	-0.7969849
80	0xbf804b17	-1.0022916
81	0x3d7a2f13	0.06108005
82	0x3f85247f	1.0401763
83	0x3ec32efa	0.38121778
84	0xc02f1d6d	-2.736171
85	0xc022e735	-2.5453618
86	0xbfeadd0e	-1.834871
87	0x3e2efc5e	0.17088458
88	0x3f8cdb0d	1.1004349
89	0x3f62bc03	0.88568133
90	0x3f429d50	0.7602129
91	0xbbe97f60	-0.00712578
92	0xbf1eadde	-0.6198405
93	0xbfdd83aa	-1.7305806
94	0xbf9ab211	-1.2085592
95	0xc0073501	-2.11261
96	0xbe4e2df8	-0.20134723
97	0x3f4c2ac4	0.79752755
98	0x3f2730f1	0.65309054
99	0xbf16ac21	-0.588564
100	0xbfd5f35d	-1.6714894
101	0xbf964d16	-1.1742275
102	0xbf8bd686	-1.0924842
103	0x3dad3e0b	0.084590994
104	0x3fa36ee3	1.2768215
105	0x3d8c4b2f	0.06850278
106	0x3e788d63	0.24272685
107	0xbf6973fb	-0.911926
108	0xc0261461	-2.5949938
109	0xbff362b9	-1.9014503
110	0xbfdaa390	-1.7081165
111	0x3f3d43a0	0.7393131
112	0x3e3d4993	0.18485098
113	0x3eb2c145	0.34913078
114	0x3eb5142a	0.35366946
115	0x3e24429b	0.16041033
116	0xbebc5ef7	-0.36791202
117	0x3eb733a7	0.35781595
118	0x3f39a1e7	0.7251267
119	0x3ed7bb78	0.42135215
120	0xbfc79d9f	-1.5594977
121	0xc00e9735	-2.227979
122	0xc0022c02	-2.033936
123	0xbf8933dd	-1.0718952
124	0xbe7a85f7	-0.24465166
125	0x3ef3392e	0.47504562
126	0xbff16a7c	-1.8860621
127	0xbffdeb4f	-1.9837435
128	0xbfded3e7	-1.7408417
129	0xbe936ca5	-0.28793827
130	0x3f1037a0	0.56334877
131	0x3eebfcf2	0.4609142
132	0x3eb49f0e	0.352776
133	0x3d885b56	0.06658046
134	0x3f566f3e	0.8376349
135	0xbe455a36	-0.19272694
136	0xbf62adbd	-0.88546354
137	0xbece38d7	-0.4027774
138	0xbdd6be54	-0.10485521
139	0xbec3dcfb	-0.38254532
140	0xbf999489	-1.1998454
141	0x3fc1e321	1.5147439
142	0x3f9a026c	1.2031989
143	0x3f5182fc	0.8184049
144	0x3e900991	0.281323
145	0x3f66bb63	0.9012968
146	0x3f416e65	0.75559074
147	0x3f17540f	0.5911264
148	0x3e8d17c5	0.27557197
149	0xc005a052	-2.0879102
150	0x3f3425c8	0.7037015
151	0xbfd61c5c	-1.6727405
152	0xbf8950e9	-1.0727817
153	0x3f582dd1	0.8444491
154	0x3f6e945f	0.93195146
155	0x3f88a080	1.0673981
156	0x3fb1d0e6	1.3891876
157	0x3e596eff	0.21233748
158	0xbfbfef62	-1.4994929
159	0x3f9bef06	1.2182319
160	0xbf8dbb37	-1.1072758
161	0xbf0c0f5c	-0.54710937
162	0xbf853256	-1.0405986
163	0xbfa84de2	-1.3148768
164	0xbec8aeee	-0.3919596
165	0xbfa070bf	-1.2534407
166	0x3f852f39	1.0405036
167	0xbb769e45	-0.0037630957
168	0xbf7ae49e	-0.9800509
169	0x3eecd5c5	0.46256843
170	0xbf4c3e77	-0.79782814
171	0xbfb4f6a2	-1.4137766
172	0xbfad551e	-1.3541601
173	0xbf379761	-0.7171536
174	0xbfaca254	-1.3487039
175	0x3f3488fa	0.7052151
176	0x3f41953b	0.7561833
177	0xbf903c56	-1.1268413
178	0x3eca3e09	0.39500454
179	0xbf513943	-0.81728
180	0xbfb3aa84	-1.4036412
181	0xbe1c93f3	-0.15290813
182	0xbd8f7382	-0.07004453
183	0xbedb2b79	-0.42806605
184	0x3f02305c	0.5085504
185	0x3fb20266	1.3906982
186	0x3ef59b23	0.47969922
187	0x3ed5bad5	0.41744104
188	0xbf322521	-0.69587904
189	0x3edb9371	0.42885926
190	0xc01290e0	-2.2900925
191	0xbfc369bb	-1.5266641
192	0xbf9d4862	-1.2287714
193	0xbd5d0ff0	-0.053970277
194	0x3f1bfdc1	0.6093407
195	0xc02544ab	-2.5823162
196	0x3f0f6fa1	0.5602971
197	0x3eee0491	0.4648786
198	0xbf18d527	-0.59700245
199	0xbfc82632	-1.5636656
200	0xbf816472	-1.0108778
201	0x3e81beb5	0.2534081
202	0xbbbb9bdc	-0.005725367
203	0x3f356d46	0.70869863
204	0x3e603ba4	0.21897751
205	0x3f5a8bdb	0.8536965
206	0x3eb57f35	0.35448614
207	0xbfb6ef23	-1.4291729
208	0xbfd24e9d	-1.6430241
209	0xbf92a849	-1.1457607
210	0xbf9cc9f4	-1.2249131
211	0x3f34f222	0.70681965
212	0x3f211138	0.629169
213	0xbf63981e	-0.8890399
214	0x3f68586b	0.90759915
215	0xbf9be0b4	-1.2177949
216	0x3f10f2ad	0.56620294
217	0xbf2b1765	-0.6683257
218	0xbff4469c	-1.9084048
219	0xbe23c1fb	-0.15991966
220	0x3e48d403	0.19612126
221	0x3e75b060	0.23993063
222	0x3f815080	1.0102692
223	0xbe9614eb	-0.29312834
224	0x3e707d34	0.23485261
225	0xbdbb3dab	-0.091426216
226	0xc00a1672	-2.15762
227	0xbfd4484a	-1.6584561
228	0xbf4b8ea3	-0.7951452
229	0xbf1a33fd	-0.6023558
230	0x3f607d95	0.8769162
231	0xbfea0ae3	-1.8284572
232	0x3e0733be	0.13203332
233	0x3fa6e614	1.3038964
234	0xbfc63c50	-1.5487156
235	0xbfc2b37b	-1.5211023
236	0xbf157d20	-0.5839405
237	0xbee9d9f9	-0.45674112
238	0x3f84d6d8	1.0378065
239	0x3f7473e9	0.95489365
240	0xbe007dac	-0.1254794
241	0x3e77eec3	0.24212174
242	0xbcb9ec2c	-0.022695623
243	0xbe3cfb41	-0.18455221
244	0xbf8fe41c	-1.1241488
245	0x3e475339	0.1946534
246	0xbe76eda3	-0.24114089
247	0xbf7a873b	-0.97862595
248	0x3f99f3d6	1.2027538
249	0xbed42294	-0.4143263
250	0x3e6df7c6	0.2323905
251	0xbda39c45	-0.079887904
252	0xbebdf1eb	-0.3709863
253	0xbef49641	-0.47770885
254	0x3e8ec7f6	0.27886933
255	0xbedd44c7	-0.43216535

conv2.bias f4 [32]
0	0xbe62acce	-0.22136232
1	0xbd802e5f	-0.062588446
2	0x3ea633a6	0.3246128
3	0xbd0c481e	-0.034248464
4	0xbb5f80ec	-0.0034103943
5	0xbe815c9c	-0.25265968
6	0x3c9546c0	0.018222213
7	0x3cab2b47	0.02089466
8	0xbdf3856b	-0.11890682
9	0xbe855166	-0.26038665
10	0x3d13bcca	0.036068715
11	0xbe21e483	-0.15809827
12	0xbe3b90fe	-0.18317029
13	0xbe768032	-0.2407234
14	0xbe329c3a	-0.17442408
15	0x3d8acd89	0.06777484
16	0x3df7a79e	0.12092517
17	0x3ed7778d	0.42083398
18	0xbd47d480	-0.04878664
19	0xbe24650f	-0.16054176
20	0x3e5b4a2a	0.2141501
21	0xbdb100c8	-0.08642727
22	0xbdd9483c	-0.10609481
23	0xbd8f6a3f	-0.07002687
24	0x3d309f76	0.043120824
25	0xbd5dd6f6	-0.05416008
26	0xbe264e0a	-0.16240707
27	0x3de97cb4	0.11400738
28	0x3e424c7d	0.1897449
29	0x3e12360c	0.1427843
30	0x3e00c64b	0.12575643
31	0x3cca5801	0.024700167

bn2.weight f4 [32]
0	0x3feecc4f	1.86561
1	0x3fefa6ca	1.8722775
2	0x3fe25292	1.7681448
3	0x3fa0210b	1.2510084
4	0x3fe5c789	1.7951518
5	0x403685d1	2.8519175
6	0x3fc273db	1.5191606
7	0x3f6ea265	0.93216544
8	0x3f8dcf94	1.1078973
9	0x3f6da0cd	0.9282349
10	0x3f714717	0.942491
11	0x408cdf4b	4.4022574
12	0x3ffde3a0	1.9835091
13	0x3fcfd5b9	1.6237098
14	0x3fca0f11	1.5785848
15	0x403133d0	2.7687874
16	0x40235ad3	2.5524185
17	0x4002db02	2.0446172
18	0x40023c41	2.0349276
19	0x3f86c713	1.0529503
20	0x3fa8b681	1.3180696
21	0x3f945e0a	1.1591198
22	0x3f780c64	0.96893907
23	0x3ff34aef	1.9007243
24	0x3f3b3a26	0.731356
25	0x3f8b5b3a	1.0887215
26	0x4017eb36	2.3737311
27	0x3f8f301d	1.1186558
28	0x3f9c116c	1.2192817
29	0x3ff78771	1.9338208
30	0x3fc91396	1.5709102
31	0x3f8f9b19	1.1219207

bn2.bias f4 [32]
0	0xbdf36946	-0.11885314
1	0xbed0be37	-0.40770122
2	0xbd0c287d	-0.0342183
3	0xbd883463	-0.06650617
4	0x3e6ba30f	0.2301142
5	0xbea12476	-0.3147313
6	0xbf0a17b6	-0.5394243
7	0xbdfcd585	-0.12345413
8	0xbe82c9a3	-0.25544462
9	0xbd431f94	-0.047637537
10	0x3db40376	0.087897226
11	0xbda97488	-0.0827418
12	0xbe900afc	-0.2813338
13	0xbd2b485a	-0.041817047
14	0xbe8591f1	-0.26087907
15	0x3dd9fe84	0.10644248
16	0xbe24a3bf	-0.16078089
17	0xbef2596f	-0.47333857
18	0x3e600f88	0.21880925
19	0xbeda9302	-0.42690283
20	0x3e426ce6	0.18986854
21	0xbef2b2a9	-0.47401932
22	0xbdbb96eb	-0.09159645
23	0x3e60022d	0.2187583
24	0xbeaec806	-0.3413698
25	0x3d82243c	0.063545674
26	0x3e1bec13	0.15226774
27	0x3d614171	0.05499405
28	0xbf0fe594	-0.56209683
29	0x3d2c033d	0.041995276
30	0xbe1715aa	-0.14754358
31	0x3e964238	0.29347396

bn2.running_mean f4 [32]
0	0xc0b9802b	-5.7968955
1	0xc0df1693	-6.9715056
2	0xc08cb1a9	-4.396687
3	0x3fd22ada	1.6419327
4	0xc18baa0a	-17.458027
5	0xc1eefbf8	-29.873032
6	0xc15cf360	-13.809418
7	0xc0985b2a	-4.7611284
8	0xc0dc0ed9	-6.8768125
9	0x3f098f5c	0.53734374
10	0x3e6d9cf2	0.23204401
11	0xc2256eb7	-41.35812
12	0xc09442bd	-4.633147
13	0x40356ad8	2.8346462
14	0xc10811e6	-8.50437
15	0xc1c1aa0d	-24.208033
16	0xc1ab7d14	-21.436073
17	0xbfd6f99a	-1.6794922
18	0xc0b9ea00	-5.8098145
19	0xc0f48913	-7.6417327
20	0x4125f3e1	10.372041
21	0x418bd0d9	17.476976
22	0xc06c1517	-3.6887872
23	0xc0e0d232	-7.0256586
24	0xc0970e5c	-4.720503
25	0x3e58bb3f	0.21165179
26	0xc1a55841	-20.668093
27	0x41341897	11.256003
28	0x418ec4a1	17.84601
29	0xc044ffee	-3.0781207
30	0xc0b3550d	-5.604132
31	0xc0d19214	-6.549082

bn2.running_var f4 [32]
0	0x448cc9f9	1126.3116
1	0x4486d0a6	1078.5203
2	0x44a75958	1338.792
3	0x449d0a38	1256.3193
4	0x44d70392	1720.1116
5	0x4568c38b	3724.2214
6	0x444c5bc3	817.4338
7	0x444096a6	770.3539
8	0x4448b4d4	802.82544
9	0x446c8137	946.019
10	0x4427cec3	671.23065
11	0x454264fb	3110.3113
12	0x446c1207	944.2817
13	0x44985cd5	1218.901
14	0x44a51516	1320.6589
15	0x44e27c91	1811.8927
16	0x4506b8fb	2155.5613
17	0x4442c5e4	779.09204
18	0x447ff4dd	1023.826
19	0x43d0afc8	417.3733
20	0x44e572ae	1835.5837
21	0x4514e188	2382.0957
22	0x446cb9b2	946.9015
23	0x446bde3a	943.4723
24	0x444ac8c9	811.13727
25	0x4496d46d	1206.6383
26	0x44fd3057	2025.5106
27	0x449343dd	1178.1207
28	0x44f3b117	1949.534
29	0x44a47b66	1315.8562
30	0x449ffed5	1279.9635
31	0x442a16db	680.3571

conv3.weight f4 [64, 32, 3, 3]
0	0x3ef74ff0	0.48303175
1	0x3f1c2f95	0.61010104
2	0x3f735732	0.95054924
3	0xbdac1d5b	-0.084040366
4	0xbeb684a2	-0.35648066
5	0x3f288d14	0.6584027
6	0x3f59fd28	0.8515191
7	0x3d4aafa4	0.04948391
8	0x3fc338df	1.5251731
9	0xbdcd93be	-0.10037945
10	0xbefbcf1a	-0.49181443
11	0x3c846cd6	0.016165178
12	0xbf1a2c80	-0.6022415
13	0xbf2360bb	-0.63819474
14	0x4006dc70	2.1072044
15	0x3feb76a8	1.8395586
16	0xbe0e616a	-0.13904348
17	0x3fa63e44	1.2987752
18	0xbfa12c79	-1.2591697
19	0x3e460d70	0.19341063
20	0x3f870b76	1.0550373
21	0xbf7c4560	-0.9854336
22	0xbea7a9ba	-0.3274668
23	0x3e812f73	0.25231513
24	0x3f2f329d	0.68436605
25	0xbfb0f120	-1.3823586
26	0xbe04ed82	-0.12981227
27	0xbcb7e87c	-0.022449724
28	0xbdb4411f	-0.08801483
29	0x3f35692e	0.70863616
30	0xbeee8b07	-0.46590444
31	0xbe105028	-0.14093077
32	0x3f4eebb7	0.8082842
33	0x3d6fdcf2	0.05856032
34	0x3df36d36	0.11886065
35	0x3f810619	1.0079986
36	0x3ea64527	0.32474634
37	0x3e0c04cd	0.13673706
38	0x3f3aa81d	0.7291277
39	0x3ea238d2	0.31683975
40	0xbfe0c656	-1.7560527
41	0xbee19685	-0.4406015
42	0x3f2b2be2	0.66863835
43	0xc0299d5a	-2.650229
44	0xc01fc94c	-2.4966612
45	0xc00a64c5	-2.1624005
46	0xbec43a12	-0.38325554
47	0x3f557d90	0.8339472
48	0xc033a831	-2.8071406
49	0xbf2e602b	-0.6811549
50	0x3f83019f	1.023487
51	0xc06f1ab5	-3.736005
52	0xc0664f53	-3.5985916
53	0xbf075063	-0.52857035
54	0xbe846979	-0.2586172
55	0x3f067b39	0.5253177
56	0x3fdf9f59	1.7470504
57	0xbb45e12c	-0.0030194027
58	0xbef0394b	-0.4691871
59	0x3fb538cb	1.4157957
60	0x3f3d1f8b	0.73876256
61	0xbfa6044d	-1.2970062
62	0x3e46866f	0.1938722
63	0xbf93a5f5	-1.1535021
64	0xbfa90bb2	-1.3206694
65	0x3f7de165	0.9917205
66	0x3c29b0ed	0.010357124
67	0xbfb86e9d	-1.4408756
68	0x3d9d36ea	0.0767649
69	0x3f136c50	0.57587147
70	0xbfec91ea	-1.848203
71	0xbf721c20	-0.94574165
72	0xbf6e73bd	-0.9314535
73	0xbd7fdfb6	-0.062469207
74	0x3fb6c7ea	1.4279759
75	0xbfb72f88	-1.431138
76	0xbf956e7c	-1.1674342
77	0x3fa3a8a7	1.2785844
78	0x3f933eaf	1.1503505
79	0xbf8c1852	-1.0944922
80	0xbeda8021	-0.4267588
81	0x3efc8cf5	0.49326292
82	0x3f358aca	0.709149
83	0xbd366fb1	-0.04454011
84	0xbfb48102	-1.410187
85	0x3f10c273	0.56546706
86	0x3c82b6c8	0.015956298
87	0xbdd0875d	-0.101820685
88	0xbf8319f3	-1.0242294
89	0x3ff4312f	1.907751
90	0x3fc926fc	1.5715022
91	0xbfbb9cca	-1.4657223
92	0xbe55c7de	-0.20877025
93	0x3f1ac202	0.6045228
94	0xbd776dd4	-0.060407475
95	0xbfb8b5cf	-1.4430484
96	0x3edbffb9	0.42968538
97	0x3f7935b1	0.9734755
98	0xbf5f6d84	-0.8727648
99	0xbff841ec	-1.9395118
100	0xbf2a5982	-0.6654283
101	0x3fa0ff0a	1.2577832
102	0xbf7dbe8b	-0.9911887
103	0xbf68db61	-0.90959746
104	0xbf3073b4	-0.6892655
105	0xbf9f22b1	-1.2432462
106	0xc003a6e9	-2.0570624
107	0xbfc62adb	-1.5481828
108	0xbe551200	-0.20807648
109	0x3f4c53b7	0.7981524
110	0x3d5667c4	0.052345052
111	0xbf3b3ae3	-0.7313673
112	0x3e83b32c	0.25722635
113	0xbf044a2e	-0.5167569
114	0xbf2386b0	-0.6387739
115	0x3ed2a12f	0.41138598
116	0x3faa2ca4	1.3294873
117	0x3fa7e8f5	1.3117968
118	0xbeead135	-0.45862737
119	0x3e8178e5	0.25287548
120	0x3dcc34f6	0.09971039
121	0xbf3d1371	-0.7385779
122	0xbf555869	-0.8333803
123	0x3eba036c	0.36330736
124	0x3f0cc73f	0.54991525
125	0x3eaa2877	0.33233997
126	0x3e83be2e	0.25731033
127	0xbfd203c9	-1.6407405
128	0xbf1d85cc	-0.6153228
129	0x3f9da80f	1.2316912
130	0xbff5b539	-1.919593
131	0xbf7b38d6	-0.981336
132	0xbf5fa9f9	-0.8736873
133	0xbfd82517	-1.6886319
134	0xbeebf076	-0.46081895
135	0xbfaa67c8	-1.3312922
136	0xbec72873	-0.38898048
137	0x3f39b6c2	0.7254449
138	0xbf77fad1	-0.9686709
139	0xbf83aaf4	-1.0286546
140	0x3ef956e5	0.48699108
141	0x3eae127b	0.33998474
142	0xc05a668a	-3.4125085
143	0xbfc3a7de	-1.5285604
144	0xc01ce127	-2.4512422
145	0xbf1d9627	-0.6155724
146	0x3f93bf3b	1.1542734
147	0xbf604e49	-0.87619454
148	0xbf1c60dd	-0.610853
149	0x3fae38e1	1.3611108
150	0xc00b55dc	-2.1771154
151	0xbff1d56a	-1.8893254
152	0xbd8278da	-0.06370707
153	0xbee3df42	-0.4450627
154	0x3f11cc87	0.5695271
155	0x3f4e18fc	0.80506873
156	0x3f4fb78a	0.81139433
157	0x3e7d631f	0.24744843
158	0xbb42883a	-0.0029683248
159	0x3e8e7846	0.27826136
160	0x3ecbf48a	0.39835006
161	0x3f50c17b	0.8154523
162	0xbef7ac9d	-0.4837388
163	0x3f037a00	0.5135803
164	0x3f39fa3c	0.7264745
165	0x3ee54456	0.447787
166	0xbdcf3ddc	-0.101192206
167	0x3dc38095	0.095460095
168	0x3e19c669	0.15017094
169	0x3c00b53d	0.007855711
170	0x3d3edfeb	0.046600264
171	0x3f5dadb6	0.86593187
172	0x3dbb07fc	0.09132382
173	0xbe3f4873	-0.18679981
174	0xbe157bcb	-0.14598005
175	0xbc00812a	-0.007843295
176	0xbfce27ba	-1.6105874
177	0xbfbe26cf	-1.4855593
178	0x3f51bcfc	0.8192899
179	0xbf1a6745	-0.60313827
180	0xbe92ca41	-0.28669932
181	0xbdeaba33	-0.11461296
182	0x3fa002d4	1.2500863
183	0xbf190885	-0.59778625
184	0x3f1f0380	0.62114716
185	0x3ecd9c7d	0.40158454
186	0xbe68decb	-0.22741239
187	0xbf6f9c74	-0.93598104
188	0x3eae791e	0.3407678
189	0x3f8aec52	1.0853369
190	0xbfc84181	-1.564499
191	0x3edd62e8	0.43239522
192	0x3ee88a2b	0.45417914
193	0xbf427946	-0.759663
194	0xbf836484	-1.026505
195	0xbe83ac3a	-0.25717336
196	0x3fb81cce	1.438379
197	0xbf31185d	-0.691778
198	0x3c64180a	0.013921747
199	0xbf928455	-1.1446635
200	0xbf433b35	-0.7626222
201	0x3f22a572	0.635337
202	0xbd324d67	-0.043530848
203	0xbf960bd9	-1.1722366
204	0xbe98592f	-0.29755542
205	0x3dfa9e3b	0.12237211
206	0xbf250625	-0.644625
207	0x3ed73ea3	0.42039976
208	0x3f2c6e57	0.67355865
209	0x3f581873	0.84412307
210	0x3f818ad3	1.0120491
211	0x3e0e86ec	0.13918656
212	0xbf3696b7	-0.7132372
213	0xbe8c0af5	-0.2735211
214	0xbdf47ba7	-0.11937647
215	0x3e759662	0.23983148
216	0x3f624c75	0.88397914
217	0x3f1da32f	0.61577123
218	0x3f8004f9	1.0001518
219	0x3f09ee62	0.5387937
220	0xbdf06805	-0.1173859
221	0x3ef1ccba	0.47226506
222	0x3ed3c60e	0.4136204
223	0xbe6c7fe4	-0.23095661
224	0xbe6760fe	-0.22595593
225	0x3f8539a3	1.0408214
226	0x3dd779dc	0.1052129
227	0x3da55c71	0.080742724
228	0x3ea78978	0.32722068
229	0xbe81643a	-0.2527178
230	0xbeaf4475	-0.34231916
231	0xbeaa4090	-0.33252382
232	0x3f0d5598	0.5520873
233	0x3f1dd63d	0.61655027
234	0x3b652c78	0.0034969132
235	0x3ebd5c87	0.36984655
236	0xbe990f10	-0.29894304
237	0x3fadc7cb	1.3576597
238	0xbf861c16	-1.0477321
239	0xbfdab860	-1.7087517
240	0x3d75f5bf	0.060048815
241	0xbef47a4a	-0.4774955
242	0x3ead5dd7	0.33860657
243	0x3f446017	0.7670912
244	0xbd8fa9ba	-0.07014795
245	0x4003b60e	2.0579867
246	0xbf59564b	-0.848973
247	0xbcc038b9	-0.023464547
248	0x3f0d7667	0.5525879
249	0xbf1d7e7b	-0.6152112
250	0xbf27d6d8	-0.655622
251	0xbe9c1c99	-0.30490568
252	0x3ef29272	0.47377354
253	0xbffd10ba	-1.977073
254	0xbdbfeacb	-0.09370955
255	0x3eb1c0d4	0.3471743

conv3.bias f4 [64]
0	0x3d0463d3	0.032321762
1	0xbc19c379	-0.009384983
2	0x3d036a1d	0.03208362
3	0x3ca928c2	0.020649318
4	0x3c1575d0	0.009122327
5	0x3d5f7b9c	0.054561242
6	0xbd01162b	-0.03151528
7	0xbd51f821	-0.051262025
8	0xbd6f89e5	-0.058481116
9	0x3c3a8ce3	0.011386129
10	0x3cb6ee71	0.022330495
11	0xbd135c9b	-0.035976987
12	0x3ca48f15	0.020087758
13	0x3b4ed482	0.003155977
14	0x3d917143	0.07101681
15	0x3db1a9ae	0.08674942
16	0x3d9909b0	0.07472551
17	0xbc030cbf	-0.007998644
18	0xbd590974	-0.05298753
19	0xbda80ba9	-0.08205349
20	0x3bf71438	0.007540252
21	0xbc77cad3	-0.015124041
22	0x3d951b10	0.072805524
23	0x3c1de2f3	0.009636628
24	0xbda33701	-0.079694755
25	0x3d16eccb	0.036846917
26	0xbc076717	-0.008264325
27	0x3d89eb53	0.06734338
28	0x3da9621a	0.082706645
29	0xbdfa7048	-0.12228447
30	0xbc9dc46c	-0.0192587
31	0xbcc2a72c	-0.023761354
32	0x3d475c33	0.048671912
33	0x3d8f7bd0	0.07006037
34	0x3d1da285	0.03848507
35	0xbd887082	-0.06662084
36	0xbc132243	-0.008980337
37	0x3ca43c31	0.020048233
38	0xbcbdc917	-0.023167176
39	0xbd13624e	-0.035982423
40	0x3d75f615	0.060049135
41	0xba3efefe	-0.00072859216
42	0x3d0308ba	0.031990744
43	0xbc8fc3f3	-0.01754949
44	0x3c0c0fc0	0.008548677
45	0xbcc6e264	-0.024277873
46	0xbdf0d2ce	-0.11758958
47	0x3cef63b1	0.029222341
48	0x3cf8be93	0.03036431
49	0x3ba9c95a	0.0051814737
50	0x3c54fcbf	0.0129997125
51	0x3d079a35	0.033106048
52	0x3cec792f	0.028866379
53	0xbdb22fbf	-0.08700513
54	0x3d29519a	0.041337587
55	0x3d37e467	0.044895556
56	0x3e0dc2fa	0.13843909
57	0x3d00d22e	0.031450443
58	0xbcbed541	-0.023295047
59	0xbb2b6a06	-0.0026155724
60	0x3d546eaf	0.05186337
61	0x3ac670ff	0.0015139877
62	0xbb9836ea	-0.004645218
63	0x3c0df1c9	0.008663603

bn3.weight f4 [64]
0	0x3edc41c1	0.43018916
1	0x3efa311b	0.4886559
2	0x3efc3b7d	0.49264136
3	0x3ec4c985	0.38434997
4	0x3ef322a2	0.4748736
5	0x3f0366d1	0.5132876
6	0x3ea8d20b	0.3297275
7	0x3ef609d2	0.48054367
8	0x3f12d1e5	0.57351524
9	0x3eca136a	0.39467937
10	0x3efe794a	0.4970191
11	0x3eea34f9	0.4574354
12	0x3ee8d1b8	0.45472503
13	0x3f021b47	0.5082287
14	0x3f15c006	0.5849613
15	0x3ef06f8c	0.46960104
16	0x3f266a35	0.6500581
17	0x3ebc7d5e	0.36814398
18	0x3f356068	0.7085023
19	0x3efa5821	0.48895362
20	0x3e38e26d	0.18055125
21	0x3eb84487	0.35989782
22	0x3e8d66ff	0.27617642
23	0x3f0b6848	0.54455996
24	0x3f1b9527	0.60774463
25	0x3ec6b991	0.3881345
26	0x3ef7d96c	0.48408067
27	0x3ebe9654	0.37224066
28	0x3ede428d	0.4341015
29	0x3ea64730	0.32476187
30	0x3ed9b37e	0.42519754
31	0x3f32d92c	0.6986263
32	0x3ed3ecf3	0.41391715
33	0x3f159fd6	0.58447015
34	0x3f0db92b	0.5536067
35	0x3ec0e157	0.3767192
36	0x3efa46d2	0.48882157
37	0x3f0365cf	0.5132722
38	0x3ee051c1	0.43812373
39	0x3f05bac5	0.5223811
40	0x3f07ede1	0.5309735
41	0x3effdc1f	0.49972627
42	0x3ef81ff6	0.48461884
43	0x3e47eefe	0.19524762
44	0x3ecb967d	0.3976325
45	0x3edcfe04	0.4316255
46	0x3ec756aa	0.38933307
47	0x3e8f898a	0.2803462
48	0x3f2bd880	0.6712723
49	0x3f0abada	0.5419136
50	0x3ee129fb	0.4397734
51	0x3f27a7e8	0.6549058
52	0x3f1bf94c	0.6092727
53	0x3efc026b	0.49220595
54	0x3ec89cfa	0.39182264
55	0x3ee118bb	0.4396418
56	0x3f0ae25e	0.5425166
57	0x3edec1a9	0.43507126
58	0x3eee2509	0.4651263
59	0x3f3523df	0.7075786
60	0x3f02475c	0.50890136
61	0x3f15a561	0.58455473
62	0x3f2a162f	0.664401
63	0x3f44c378	0.7686076

bn3.bias f4 [64]
0	0xbe9975a6	-0.2997257
1	0xbf0d5df7	-0.55221504
2	0xbe97cec0	-0.29649925
3	0xbe02b445	-0.1276408
4	0xbeb4e0e0	-0.35327816
5	0xbecaeffa	-0.39636213
6	0xbf241243	-0.64090365
7	0xbe457042	-0.19281104
8	0xbf0109bd	-0.50405484
9	0xbe2b6ac6	-0.1673995
10	0xbf1f2699	-0.6216827
11	0xbe3d3a99	-0.18479384
12	0xbee37b21	-0.44429877
13	0xbece6d33	-0.40317687
14	0xbefcd8d3	-0.49384174
15	0xbefd6844	-0.4949361
16	0xbf12af11	-0.5729838
17	0xbe71cb6c	-0.23612756
18	0xbf2fd5ac	-0.6868541
19	0xbf211bbc	-0.62932944
20	0xbf1f65c6	-0.6226467
21	0xbe6ba736	-0.23013005
22	0xbd8dd178	-0.069247186
23	0xbef1cf6d	-0.47228566
24	0xbf1f75d4	-0.62289166
25	0xbebd9959	-0.37031057
26	0xbf11453b	-0.5674626
27	0xbe52f3f4	-0.20600873
28	0xbebab3b9	-0.36465243
29	0xbe4802f4	-0.19532377
30	0xbe897462	-0.26846606
31	0xbf735c51	-0.9506274
32	0xbede95fc	-0.43473804
33	0xbf09a831	-0.53772265
34	0xbf3a1088	-0.72681475
35	0xbec14c29	-0.37753418
36	0xbe1b343f	-0.15156649
37	0xbf0ed33c	-0.5579107
38	0xbee3ee27	-0.44517633
39	0xbedf6680	-0.4363289
40	0xbf260af2	-0.6486045
41	0xbf307cae	-0.68940246
42	0xbed6d6c6	-0.41960734
43	0xbf4acf93	-0.79222983
44	0xbec3dbb5	-0.3825356
45	0xbe7f35cc	-0.24922866
46	0xbe9dcc6b	-0.3082002
47	0xbc22ac96	-0.009928843
48	0xbf1a82f2	-0.60356057
49	0xbee0b997	-0.43891594
50	0xbe68ebe3	-0.22746234
51	0xbf1538b9	-0.58289677
52	0xbf1fb491	-0.623849
53	0xbf229dc4	-0.6352198
54	0xbf19d3dd	-0.600889
55	0xbf153b20	-0.5829334
56	0xbecf8552	-0.40531403
57	0xbed0a879	-0.40753534
58	0xbe80bff2	-0.25146443
59	0xbf08376b	-0.5320956
60	0xbed1f750	-0.41008997
61	0xbf1dc703	-0.6163179
62	0xbf230076	-0.6367258
63	0xbf3641d6	-0.7119421

bn3.running_mean f4 [64]
0	0xc14f6d92	-12.964251
1	0xc1535699	-13.208642
2	0xc16200a7	-14.125159
3	0x4171c364	15.110203
4	0xc1bed4f4	-23.853981
5	0xc1964c1d	-18.787165
6	0x413a91b6	11.660574
7	0xc094ccb2	-4.649987
8	0xc205a3c4	-33.409927
9	0xc109d0ee	-8.613508
10	0xc126b132	-10.418261
11	0x403dfac6	2.968431
12	0xc144ee26	-12.308142
13	0xc1b7179e	-22.886532
14	0xc1f37af7	-30.435041
15	0xc178df57	-15.554526
16	0xc18e0b09	-17.755388
17	0xc0c282cb	-6.078466
18	0xc1d181ec	-26.188438
19	0xc1ce84fc	-25.814934
20	0xc1e185d2	-28.190342
21	0x3ff0d31d	1.8814427
22	0xbf7e5d2d	-0.99360925
23	0x3e76e9d7	0.2411264
24	0xc1ef262c	-29.893639
25	0xc19e1180	-19.758545
26	0xc1153cc9	-9.32734
27	0xbfe1cf48	-1.7641382
28	0xc1c04928	-24.03572
29	0x4142e4ea	12.180887
30	0xc15a5190	-13.644913
31	0xc1f3f052	-30.492344
32	0xc11243e8	-9.141579
33	0xc1d70704	-26.878426
34	0xc1992cbd	-19.146845
35	0xc1aa3b19	-21.278856
36	0xc1b423e7	-22.51753
37	0xc13ef967	-11.935889
38	0xc07f8cc0	-3.9929657
39	0xbfe33a6e	-1.7752206
40	0xc1d8bc26	-27.09187
41	0xc2144a55	-37.07259
42	0xc1f3954d	-30.4479
43	0xc1d50f7b	-26.632559
44	0xc06c9b29	-3.6969702
45	0xc18300a7	-16.375319
46	0xc1c44dec	-24.538048
47	0x417c7bce	15.780226
48	0xc1930131	-18.375582
49	0xc206b870	-33.680115
50	0xc15f840d	-13.969739
51	0xc1b89ac6	-23.075573
52	0xc2029eaa	-32.654945
53	0x3ed3bf10	0.41356707
54	0xc283481d	-65.64085
55	0xc20cd517	-35.208096
56	0xc1d0e90a	-26.113789
57	0xc10ed0b6	-8.925955
58	0xc0c18d00	-6.048462
59	0xc1d16ee7	-26.179152
60	0xc0756fa4	-3.834939
61	0xc209fcff	-34.497066
62	0xc1d35296	-26.415325
63	0xc17468b4	-15.275562

bn3.running_var f4 [64]
0	0x44827fbc	1043.9917
1	0x442f4546	701.0824
2	0x445947f2	869.12415
3	0x44963678	1201.7021
4	0x4479bcc8	998.9497
5	0x448952c8	1098.5869
6	0x43d4b2af	425.39597
7	0x44dc6816	1763.2527
8	0x44431517	780.3295
9	0x448744a9	1082.1456
10	0x442b6a7a	685.6637
11	0x4459b2fc	870.79663
12	0x4420e16e	643.52234
13	0x445ddd89	887.4615
14	0x444bc1fe	815.0311
15	0x447b2e24	1004.72095
16	0x444b43f5	813.0618
17	0x44495577	805.3354
18	0x441a7f02	617.9845
19	0x43e1a9f5	451.3278
20	0x440eef7f	571.7421
21	0x4424ecdc	659.7009
22	0x449a2f3a	1233.4758
23	0x444774b3	797.8234
24	0x44181c6b	608.44403
25	0x4452ad62	842.7091
26	0x44518c49	838.19196
27	0x44816039	1035.007
28	0x44a467e9	1315.2472
29	0x44293084	676.75806
30	0x4435161a	724.34534
31	0x43f897e2	497.18658
32	0x4411f071	583.7569
33	0x44250158	660.021
34	0x447808ef	992.1396
35	0x44a16297	1291.0809
36	0x44581b4e	864.42664
37	0x4449b66b	806.8503
38	0x4428c660	675.0996
39	0x447f7720	1021.8613
40	0x445cf0d2	883.7628
41	0x44345fbf	721.49603
42	0x44723981	968.8985
43	0x43ebedf6	471.85907
44	0x44388249	738.0357
45	0x4456fee3	859.9826
46	0x442c952e	690.33093
47	0x44842e0e	1057.4392
48	0x44226655	649.59894
49	0x4464368f	912.8525
50	0x449f9430	1276.6309
51	0x4481431b	1034.097
52	0x442fad0d	702.7039
53	0x43ec94b0	473.16162
54	0x44918a92	1164.3303
55	0x441a1295	616.29034
56	0x449cfa9b	1255.8314
57	0x44739acc	974.4187
58	0x44391a44	740.4104
59	0x4450277e	832.61707
60	0x4464680e	913.62585
61	0x442447af	657.12006
62	0x44140677	592.101
63	0x44434f68	781.2407

linear1.weight f4 [128, 256]
0	0xbeff933a	-0.49917012
1	0xbe1b2a45	-0.15152843
2	0xbf5bbd64	-0.8583586
3	0xbeccfd66	-0.40037078
4	0x3d820cfc	0.06350133
5	0xbee0019f	-0.43751237
6	0xbe8921fc	-0.2678374
7	0xbf9b5bf5	-1.2137438
8	0x3e78bc11	0.24290492
9	0xbe22fbda	-0.15916386
10	0xbe9dcb1d	-0.30819026
11	0xbec4ad2c	-0.3841337
12	0x3e483389	0.19550909
13	0x3e1dbe5a	0.15404645
14	0xbfa3be93	-1.2792534
15	0x3e0684ff	0.13136671
16	0x3da2de1a	0.07952519
17	0xbf9342e4	-1.1504788
18	0xbed8432f	-0.42238757
19	0xbf258f41	-0.64671713
20	0xbf44b80f	-0.7684335
21	0x3ee55819	0.44793776
22	0xbf5d929c	-0.86551833
23	0x3e8a3acc	0.26997983
24	0x3eb7dbef	0.35909984
25	0xbef46abe	-0.47737688
26	0xbe93840f	-0.2881169
27	0xbf818f3e	-1.0121839
28	0xbfa2a20c	-1.2705703
29	0x3eb03bc9	0.34420612
30	0xbf5e808c	-0.86914897
31	0xbf4dfb8f	-0.8046197
32	0xbf2c5a77	-0.6732554
33	0xbf80bd70	-1.0057812
34	0xbf415f3a	-0.7553593
35	0x3f4e6bbc	0.8063314
36	0xbf4871d8	-0.7829871
37	0xbf1371bc	-0.5759542
38	0xbf86ea9a	-1.0540345
39	0xbdfa79cb	-0.122302614
40	0xbf4becaa	-0.79657996
41	0xbf5157c0	-0.8177452
42	0xbee0de68	-0.43919683
43	0x39fff944	0.00048823107
44	0x3d0c5d81	0.03426886
45	0x3e9a8f5b	0.30187497
46	0xbf33f97f	-0.70302576
47	0xbfa2bf9a	-1.2714722
48	0x3f90a062	1.1298945
49	0xbf186964	-0.59535813
50	0xbf12b024	-0.5730002
51	0x3db94e9d	0.090481974
52	0xbe5a0b24	-0.21293312
53	0xbf5cee7c	-0.863014
54	0x3dbb2e68	0.09139711
55	0x3cf9382e	0.030422296
56	0xbe74d017	-0.23907505
57	0xbdaf4cd8	-0.08559579
58	0xbe6b763f	-0.22994326
59	0xbf461d15	-0.77388126
60	0xbdda6d8f	-0.10665428
61	0xbf7d6609	-0.9898382
62	0xbf203d46	-0.62593496
63	0x3f158c57	0.58417267
64	0xbe8fb3f4	-0.2806698
65	0x3f0b9860	0.5452938
66	0xbefee62e	-0.49784988
67	0xbf1337d2	-0.5750705
68	0x3f056040	0.5209999
69	0xbf0fe9a5	-0.5621589
70	0xbf49838d	-0.78716356
71	0xbeab2b83	-0.33431634
72	0x3dc723ae	0.09723602
73	0x3efacd8c	0.48984945
74	0xbf29f497	-0.6638884
75	0xbeec6458	-0.46170306
76	0xbe055b90	-0.1302321
77	0xbe6cc0c6	-0.23120412
78	0x3e38a1ee	0.18030521
79	0xbeec4d36	-0.46152657
80	0xbf04c430	-0.5186186
81	0x3d8f04db	0.06983348
82	0xbdb784d2	-0.0896088
83	0xbe790720	-0.24319124
84	0xbf5e4290	-0.86820316
85	0x3f45a7a4	0.77208924
86	0xbfbb2ccf	-1.462305
87	0xbfd509d4	-1.6643624
88	0xbe498e76	-0.19683251
89	0xbf621e4d	-0.88327485
90	0xbd83cf86	-0.06436066
91	0xbfd28f02	-1.6449893
92	0xbe9895a4	-0.29801667
93	0xbed5c646	-0.41752833
94	0x3e83dfe3	0.2575675
95	0xbf1043e8	-0.56353617
96	0xbe988d99	-0.2979553
97	0x3f2175c6	0.63070333
98	0xbdd327c4	-0.10310319
99	0xbf4c74fc	-0.79866004
100	0x3cfd039a	0.030885506
101	0x3f97eec5	1.1869742
102	0xbfa3b0a1	-1.2788278
103	0x3ee13d65	0.43992153
104	0x3ecd9776	0.40154618
105	0xbf8d642a	-1.1046193
106	0xbdeab65d	-0.11460564
107	0xbdff53ba	-0.124671414
108	0xbe706895	-0.23477395
109	0x3f1954dc	0.5989511
110	0x3eeac299	0.4585159
111	0xbf8fae4c	-1.1225066
112	0xbe39c443	-0.18141274
113	0xbf9bba4d	-1.216623
114	0xbefc57d7	-0.49285766
115	0xbf680654	-0.90634656
116	0x3e0177af	0.12643312
117	0x3daa7e90	0.08324921
118	0xbc1e103c	-0.009647425
119	0xbf17df93	-0.5932552
120	0x3db80a8b	0.08986386
121	0xbf3aca58	-0.72965
122	0xbe076c8e	-0.13225004
123	0xbfa57c24	-1.292851
124	0xbf36a15c	-0.71339965
125	0xbf1758ae	-0.5911969
126	0xbef678c6	-0.48139018
127	0xbf0d5bbc	-0.552181
128	0xbec86957	-0.39142868
129	0x3f0a2a1e	0.53970516
130	0x3da3e981	0.08003522
131	0x3f78703f	0.97046274
132	0xbf88250f	-1.0636309
133	0xbf953ddf	-1.1659507
134	0xbf1cfae2	-0.61320317
135	0x3f8e425a	1.1113999
136	0xbfa454e6	-1.2838409
137	0x3e03e9c2	0.1288214
138	0xbe1915e7	-0.14949761
139	0xbf6f3859	-0.93445355
140	0xbf8cb8b4	-1.0993867
141	0xbde83dc3	-0.11339905
142	0xbfca5a31	-1.5808774
143	0x3e14f823	0.14547782
144	0xbeeb02cd	-0.45900574
145	0x3dd7fdc6	0.1054645
146	0xbef2aff1	-0.47399858
147	0xbf768331	-0.9629393
148	0xbf6d7887	-0.92762035
149	0xbf8eb393	-1.1148552
150	0xbf597be5	-0.84954673
151	0xbf1e0109	-0.6172033
152	0xbeebedf1	-0.46079972
153	0xbf2d826f	-0.6777715
154	0xbf3f1f78	-0.7465739
155	0x3de764cc	0.11298522
156	0xbecd8984	-0.4014398
157	0xbedf5ca9	-0.43625382
158	0xbf3cbcc0	-0.7372551
159	0x3cb92c45	0.022604117
160	0xbf203b2b	-0.62590283
161	0xbf81aab1	-1.0130216
162	0xbf3d66c2	-0.7398492
163	0xbf79469b	-0.9737336
164	0xbf424aab	-0.75895184
165	0xbf929181	-1.1450654
166	0x3e02450a	0.12721649
167	0xbf3cbe43	-0.73727816
168	0xbf698b97	-0.9122862
169	0x3db5ae0f	0.0887109
170	0xbe8a7b48	-0.2704718
171	0x3ecb867d	0.39751044
172	0x3ef72d60	0.48276806
173	0xbe812197	-0.2522094
174	0x3ea72433	0.32644805
175	0x3e93b90c	0.28852117
176	0xbe476045	-0.19470318
177	0x3f74cd1d	0.9562548
178	0xbf8abe03	-1.0839237
179	0x3fbaf2a7	1.4605302
180	0xbf3b2f52	-0.7311908
181	0x3ed1f8be	0.41010088
182	0xbf48a1a4	-0.78371644
183	0x3e891bc2	0.2677899
184	0x3e95262e	0.2913069
185	0xbe89d4a9	-0.2692006
186	0xbe7c6fd1	-0.2465203
187	0x3e333d6e	0.17503902
188	0xbf193dd8	-0.5985999
189	0xbe8baeae	-0.27281708
190	0xbf6dca95	-0.9288724
191	0xbfa71a68	-1.3054934
192	0xbf3f615e	-0.74757946
193	0xbe9b67f3	-0.30352744
194	0xbdcfe8c5	-0.10151819
195	0xbf75e80f	-0.9605722
196	0xbe9b38cc	-0.3031677
197	0xbf1c3f62	-0.61034214
198	0x3c5b4da7	0.013385213
199	0xbf07fdd0	-0.5312166
200	0xbea61e21	-0.32444862
201	0xbf1ff33f	-0.6248054
202	0xbf0ce975	-0.5504373
203	0xbf30fe85	-0.69138366
204	0xbdec14e1	-0.1152742
205	0x3e93b074	0.2884556
206	0xbe380a87	-0.17972766
207	0xbf264dc9	-0.6496244
208	0xbef40237	-0.4765794
209	0xbf6bc3ae	-0.9209546
210	0xbf531e0c	-0.8246772
211	0xbf082dbe	-0.531948
212	0xbec4f9eb	-0.38471922
213	0xbe5baaf6	-0.21451935
214	0x3e41d289	0.18927969
215	0xbf594aa4	-0.8487952
216	0xbf606057	-0.87647
217	0x3eea1400	0.45718384
218	0xbf449de4	-0.7680342
219	0xbf19146c	-0.59796786
220	0x3da8e933	0.08247604
221	0xbddd76ff	-0.10813712
222	0x3e04728d	0.12934323
223	0xbf9a4011	-1.2050802
224	0x3e1a60eb	0.15076034
225	0xbe16ef94	-0.1473983
226	0x3cc358a6	0.023845982
227	0xbf27d6d4	-0.65562177
228	0xbf916c5d	-1.1361195
229	0xbf8eafa5	-1.1147352
230	0x3bcae840	0.006192237
231	0xbf16848a	-0.5879599
232	0xbf7bfbeb	-0.9843127
233	0xbf3cef36	-0.73802507
234	0xbf28672b	-0.6578242
235	0xbf283c31	-0.65716845
236	0x3d6c9ac4	0.057764784
237	0xbf5ee519	-0.87068325
238	0xbc027acb	-0.007963846
239	0xbeee370f	-0.4652638
240	0xbf048ae9	-0.5177446
241	0x3f1b8ace	0.60758674
242	0xbf381f99	-0.71923214
243	0xbfa164f0	-1.2608929
244	0x3d79b352	0.06096203
245	0x3dab8aa9	0.08376057
246	0xbed73411	-0.4203191
247	0x3ea2e617	0.3181617
248	0xbf05baa9	-0.52237946
249	0xbef27c9a	-0.47360688
250	0x3c4b7e90	0.012420312
251	0xbf1d5234	-0.61453557
252	0xbf746da3	-0.9547979
253	0xbe55a9e1	-0.20865585
254	0xbe845245	-0.25844017
255	0xbf20a0e3	-0.62745494

linear1.bias f4 [128]
0	0xbf82d2ab	-1.0220541
1	0x3e0c9f3e	0.13732621
2	0x3ee6192c	0.4494108
3	0xbe9cba09	-0.30610684
4	0x3f40dd64	0.75337815
5	0x3f05177e	0.5198897
6	0xbf236b7b	-0.6383588
7	0xbfda3bd0	-1.7049503
8	0xbded7138	-0.115938604
9	0xbe5d07e9	-0.21585049
10	0xbfa76062	-1.3076289
11	0xbfa0eeb9	-1.2572852
12	0xbf60aeaa	-0.87766516
13	0xbf3f3772	-0.7469398
14	0xbefaa14b	-0.48951182
15	0xbfc35171	-1.5259229
16	0xbf529c1e	-0.82269466
17	0x3e5f9f95	0.2183822
18	0xbee33077	-0.44372913
19	0xbf39eb66	-0.72624815
20	0x3d7cbd1a	0.06170378
21	0x3f3d1814	0.73864865
22	0xbf2cefd8	-0.6755347
23	0xbeaedb63	-0.34151754
24	0xbd4fe1d5	-0.05075248
25	0xbe945c0d	-0.2897648
26	0xbf41bfdd	-0.75683385
27	0x3e0530c4	0.13006884
28	0xbe44be8f	-0.19213317
29	0x3e7592ef	0.23981832
30	0x3d4411d6	0.047868572
31	0xbefb1418	-0.49038768
32	0xbf51ba19	-0.8192459
33	0xbec13637	-0.37736675
34	0xbd5ef6c9	-0.05443457
35	0x3e7b16eb	0.24520461
36	0xbf8ed4db	-1.1158708
37	0xbe714ef3	-0.23565273
38	0xbfa2f451	-1.273081
39	0xbe736407	-0.23768626
40	0xbeb4af48	-0.3528998
41	0xbd96642c	-0.07343325
42	0xbd618820	-0.05506146
43	0xbf397a1c	-0.7245195
44	0xbe061c6b	-0.13096778
45	0xbea68524	-0.32523453
46	0xbf0e7879	-0.55652577
47	0xbe79a1d7	-0.24378143
48	0xbee47832	-0.44622952
49	0xbedda430	-0.43289328
50	0x3e50a96c	0.2037713
51	0xbfa66db6	-1.3002231
52	0x3e293994	0.1652587
53	0xbf4348c3	-0.762829
54	0xbdd738a3	-0.105088495
55	0xbe7b9695	-0.24569161
56	0x3e1c60a8	0.15271246
57	0xbf828d6b	-1.0199407
58	0xbe1cd1c2	-0.15314391
59	0xbe26d62c	-0.16292638
60	0x3ec77362	0.38955218
61	0xbf476eea	-0.77903616
62	0xbf81fbfe	-1.0155027
63	0xbf8ff8f5	-1.1247851
64	0xbf8b0904	-1.0862126
65	0xbf9b71c9	-1.21441
66	0xbf8988f4	-1.074492
67	0x3bfa0f77	0.007631238
68	0x3e2d7033	0.16937332
69	0x3ebbcc89	0.36679485
70	0xbeac4294	-0.33644545
71	0xbe91311c	-0.2835778
72	0xbe3846e1	-0.17995788
73	0x3db79ad7	0.0896508
74	0x3e3d268a	0.18471733
75	0xbea011ec	-0.31263673
76	0x3daae7ab	0.083449684
77	0x3d94d55a	0.07267256
78	0xbe9cd6d1	-0.30632642
79	0xbd6e425c	-0.058168754
80	0x3dd56b65	0.104208745
81	0xbe9b47e6	-0.30328292
82	0xbf239d19	-0.63911587
83	0xbe05e531	-0.13075711
84	0xbdea62df	-0.114446394
85	0xbf6617af	-0.8987989
86	0xbd4ba192	-0.049714632
87	0x3e93e805	0.28887954
88	0xbd8fffd1	-0.07031215
89	0xbd2e4100	-0.042542458
90	0x3e112574	0.14174443
91	0xbd7e7c35	-0.06213017
92	0xbf488f54	-0.783437
93	0x3ba86d9c	0.0051400196
94	0xbe2f6ebb	-0.17132084
95	0x3e6fb74f	0.2340977
96	0xbd7c3434	-0.061573222
97	0x3deeb309	0.11655242
98	0xbf53f9f1	-0.82803255
99	0xbee5f7c5	-0.44915596
100	0xbe836f16	-0.2567069
101	0x3e3efbb4	0.18650705
102	0xbe53210b	-0.20618074
103	0xbe9da51e	-0.30790037
104	0xbf250161	-0.6445523
105	0x3edb83c2	0.4287396
106	0x3e094ea5	0.13408907
107	0xbfbc7c76	-1.4725482
108	0xbda3e4ed	-0.080026485
109	0xbe916c71	-0.28403047
110	0xbf14807c	-0.5800855
111	0xbe924239	-0.2856615
112	0xbeec882d	-0.46197644
113	0xbf52f567	-0.82405704
114	0xbf496845	-0.7867473
115	0xbe395868	-0.1810013
116	0xbe691af6	-0.22764191
117	0xbaede634	-0.0018150271
118	0xbf718dec	-0.9435718
119	0xbf6cc369	-0.9248567
120	0xbe541377	-0.2071055
121	0xbf54b8e2	-0.8309461
122	0x3be5aaa6	0.0070088683
123	0x3e88cc4e	0.26718372
124	0x3e2c544d	0.16829033
125	0xbfc8e1ef	-1.569395
126	0xbf039b77	-0.51409096
127	0x3cd37128	0.025810793

linear2.weight f4 [64, 128]
0	0x3e84caa7	0.2593586
1	0xbe12f28b	-0.14350335
2	0x3e9708c9	0.2949889
3	0x3e543a8e	0.20725462
4	0xbea44e18	-0.3209083
5	0xbf27835f	-0.6543483
6	0xbebb2746	-0.365534
7	0xbe6d561b	-0.23177378
8	0xbe263e97	-0.16234814
9	0xbd17700a	-0.036972083
10	0x3f0c0295	0.5469144
11	0x3f48819c	0.7832277
12	0x3ed773c0	0.42080498
13	0xbe192d49	-0.14958681
14	0xbf0ef7c3	-0.55846804
15	0x3f442d19	0.76631314
16	0xbe33c693	-0.17556219
17	0xbe75145e	-0.2393355
18	0xbd16e108	-0.0368357
19	0x3e0dc04c	0.13842887
20	0x3dde956a	0.10868342
21	0xbf95d960	-1.1706963
22	0xbe84c0e4	-0.25928414
23	0xbdbac0c7	-0.091188006
24	0x3e8178f9	0.25287607
25	0xbdb28b64	-0.08717993
26	0x3cf502cf	0.029908566
27	0xbe607e84	-0.21923262
28	0xbd957ef9	-0.07299609
29	0x3e9b5cfa	0.30344373
30	0x3be46116	0.0069695814
31	0xbe807767	-0.25091097
32	0xbe3cb256	-0.18427405
33	0x3eb2b550	0.34903955
34	0xbe7ecfe0	-0.24883986
35	0xbf688401	-0.9082642
36	0xbdc82da3	-0.097743295
37	0xbd35eb36	-0.044413768
38	0x3ecb3820	0.39691257
39	0xbd68b079	-0.056808922
40	0x3e1d311a	0.15350762
41	0xbb8f95e6	-0.004381883
42	0xbe9139bb	-0.28364357
43	0x3f29438d	0.661187
44	0x3d4ccd42	0.050000437
45	0x3e813960	0.25239086
46	0xbc87db2e	-0.016584005
47	0xbd581fbb	-0.052764636
48	0x3cd1622c	0.025559507
49	0xbe6ca52f	-0.23109888
50	0xbf15a535	-0.5845521
51	0xbf06e27a	-0.52689326
52	0xbdf959e9	-0.12175352
53	0xbfc305c7	-1.5236138
54	0x3efc6d6c	0.49302232
55	0xbf3394d2	-0.70148957
56	0xbf9a50d8	-1.2055922
57	0x3d2988ce	0.041390233
58	0x3e68d7c5	0.2273856
59	0xbe6d81a4	-0.23193985
60	0xbee3a38a	-0.44460708
61	0x3f034d9d	0.51290303
62	0x3f0306d2	0.5118228
63	0x3e5f9417	0.21833836
64	0xbf985fbe	-1.1904218
65	0xbcd9486f	-0.026523797
66	0xbe73adea	-0.23796812
67	0xbf8616ab	-1.0475668
68	0x3e9bf570	0.3046069
69	0xbf7ac8fa	-0.97962916
70	0xbe42fe98	-0.19042432
71	0xbe863871	-0.26214936
72	0x3a5af780	0.00083529204
73	0x3dcddbb5	0.100516714
74	0xbe82abb6	-0.2552163
75	0xbdb7df5b	-0.089781485
76	0xbf003973	-0.5008766
77	0xbd739a8b	-0.059473556
78	0x3f0a9532	0.54133904
79	0x3ec79b49	0.3898566
80	0xbfcc66f6	-1.5968921
81	0x3d506974	0.050881818
82	0xbf8549d9	-1.0413162
83	0xbe1b8be0	-0.15190077
84	0xbd27e5d0	-0.04099065
85	0x3dded04d	0.10879574
86	0xbd357f00	-0.04431057
87	0xbfae9778	-1.3639975
88	0x3dfaa8ee	0.12239252
89	0x3ee4ac1e	0.44662565
90	0x3e8cf1da	0.27528268
91	0x3cb542b5	0.022126535
92	0xbe307316	-0.17231402
93	0x3d7a4aa0	0.061106324
94	0x3e87a47e	0.26492685
95	0xbf9e668b	-1.2375044
96	0x3e090862	0.13382104
97	0xbe5b402d	-0.214112
98	0xbf71e2c0	-0.9448662
99	0xbdbf01a3	-0.09326484
100	0x3cbf9ea0	0.023391068
101	0x3e4dcdd9	0.20098056
102	0xbbf227ce	-0.007389999
103	0x3dd06e84	0.10177329
104	0xbeb61b8a	-0.35567886
105	0xbf58e085	-0.8471759
106	0xbc8d4851	-0.017246397
107	0xbeddeb77	-0.43343708
108	0x3bef711d	0.0073071853
109	0xbf8efde9	-1.1171237
110	0x3e211294	0.15729743
111	0x3e30e07b	0.17273133
112	0xbcc171a9	-0.023613768
113	0x3e9685fa	0.2939909
114	0x3c8cdacc	0.017194174
115	0xbf0d8227	-0.5527672
116	0x3e3f60df	0.18689297
117	0x3ed3eb6e	0.41390556
118	0x3e22f329	0.1591307
119	0x3d8f22c2	0.069890514
120	0xbc38d609	-0.011281499
121	0x3ebb31d6	0.3656146
122	0x3e341b56	0.17588553
123	0x3e26ea70	0.16300368
124	0xbe94ac14	-0.29037535
125	0xbcf57e8e	-0.029967573
126	0xbc8a1bee	-0.016859021
127	0xbf585a6e	-0.84512985
128	0x3ea8e5f0	0.32987928
129	0xbfe11673	-1.7584976
130	0x3e924c2a	0.28573734
131	0xbf0f1b43	-0.55900973
132	0x3da68473	0.081307314
133	0x3f035588	0.51302385
134	0xbdac852a	-0.084238365
135	0xbea88a0b	-0.32917818
136	0x3eeaca11	0.4585729
137	0xbdd26b5e	-0.10274385
138	0xbf024691	-0.50888926
139	0xbd06378f	-0.03276783
140	0x3efd7ff9	0.49511698
141	0x3c6de965	0.014520978
142	0xbdaa2780	-0.08308315
143	0x3e2cbb65	0.1686836
144	0x3eae3e66	0.3403198
145	0xbdd5e803	-0.10444643
146	0xbcd41555	-0.025889078
147	0xbf115f4b	-0.5678603
148	0xbe81139e	-0.2521028
149	0xbeaf7d5a	-0.34275323
150	0xbe9030db	-0.28162274
151	0xbece8884	-0.40338528
152	0xbe5a58a6	-0.21322879
153	0xbdf8999a	-0.12138672
154	0xbde2e14f	-0.110781305
155	0xbf25e550	-0.6480303
156	0xbd8db7b2	-0.06919803
157	0x3e3af118	0.18256032
158	0xbf956da5	-1.1674086
159	0xbe52b51d	-0.20576902
160	0xbf01de0f	-0.5072946
161	0xbf53e09b	-0.82764596
162	0xbe908d58	-0.28232837
163	0xbdd5ea24	-0.104450494
164	0xbf3470c1	-0.7048455
165	0xbec95b08	-0.39327264
166	0x3eb1a9f7	0.34699985
167	0xbb87bcd3	-0.0041423826
168	0x3dd60c13	0.10451522
169	0xbcdd9fcc	-0.027053736
170	0x3e8f77bf	0.28021047
171	0xbdc6d1ea	-0.09708007
172	0x3cc8a087	0.024490608
173	0xbc6b7f1c	-0.014373567
174	0xbab33ce0	-0.0013674758
175	0xbb7ffc9c	-0.003906048
176	0xbf897c8f	-1.0741137
177	0xbf8fb71c	-1.1227756
178	0x3f1dc1cc	0.61623836
179	0x3e01736b	0.12641685
180	0xbe1d4737	-0.15359198
181	0x3e0dcb33	0.13847046
182	0xbf15db32	-0.5853759
183	0xbdadd093	-0.08487048
184	0xbf598afd	-0.84977704
185	0xbf1b7d32	-0.6073791
186	0xbf8e3028	-1.1108446
187	0xbd12a0b8	-0.035797805
188	0x3f1a8ffb	0.60375947
189	0xbe8b7cd1	-0.27243665
190	0x3f1437ed	0.57897836
191	0xbf359b3b	-0.7093999
192	0xbf314ada	-0.6925484
193	0x3f174368	0.5908723
194	0xbd6e1e42	-0.058134325
195	0xbd9f4844	-0.077774554
196	0x3f80b509	1.0055248
197	0xbf3f12f8	-0.7463832
198	0xbb67250c	-0.0035269884
199	0xbeac59c9	-0.3366225
200	0x3da276d1	0.07932819
201	0xbf3b6642	-0.7320291
202	0xbeb597ce	-0.3546738
203	0xbd60abf9	-0.054851506
204	0x3e0bbbd3	0.13645868
205	0xbf8b0c2a	-1.0863087
206	0xbed5bb4d	-0.41744462
207	0xbdaf1663	-0.08549192
208	0xbecfcf19	-0.4058769
209	0x3ea140e8	0.31494832
210	0x3e87469a	0.26421052
211	0xbf8ad100	-1.0845032
212	0xbd3a6e3c	-0.045515284
213	0x3d83cdb1	0.06435717
214	0x3cdead0e	0.027182128
215	0xbf746bb1	-0.95476824
216	0xbf3fbeeb	-0.7490069
217	0xbe6fe913	-0.23428755
218	0xbeebe006	-0.46069354
219	0x3c06ae68	0.008220293
220	0x3ed0d49c	0.40787208
221	0xbedbcba4	-0.42928803
222	0x3ef129d1	0.47102216
223	0x3edf7d2b	0.43650183
224	0x3e909fef	0.2824702
225	0x3c2bcd46	0.010485953
226	0x3e59a105	0.2125283
227	0xbde152e0	-0.11002135
228	0xbdbea540	-0.09308863
229	0xbf5c3ead	-0.86033136
230	0xbc3c6d5b	-0.011500682
231	0x3de3d82f	0.11125218
232	0xbe75f75e	-0.24020144
233	0x3f3bc9b1	0.7335463
234	0xbf020545	-0.5078929
235	0x3f07ebc7	0.5309414
236	0x3e85eb45	0.2615606
237	0xbf1501a9	-0.5820566
238	0xbf824d26	-1.0179794
239	0xbd8c0623	-0.06837108
240	0xbe361e80	-0.17785072
241	0x3ec9af7a	0.3939169
242	0xbd260c85	-0.040539283
243	0xbf842647	-1.0324181
244	0xbeb6584a	-0.35614234
245	0x3e9b532f	0.30336902
246	0x3daf9eb8	0.08575195
247	0xbdfc5f6a	-0.12322886
248	0xbdf4ad61	-0.11947132
249	0xbd8fb4e7	-0.07016926
250	0xbf110731	-0.566516
251	0xbaaa0df4	-0.0012974129
252	0x3f739b57	0.95158905
253	0x3f85d8bb	1.0456766
254	0x3ec3f298	0.38271022
255	0x3f0c1ec3	0.5473444

linear2.bias f4 [64]
0	0x3d9d4272	0.07678689
1	0xbfd4213e	-1.6572645
2	0xbcfb33a6	-0.030664276
3	0x3e5a123b	0.21296017
4	0x3e4a5078	0.19757259
5	0xbf05c391	-0.52251536
6	0x3ed7abef	0.42123362
7	0x3e86e9c2	0.26350218
8	0xc02e071e	-2.7191844
9	0xbfdb108d	-1.7114426
10	0x3f0b50ea	0.5442034
11	0x3eda56bc	0.42644298
12	0x3e6f71d2	0.23383263
13	0xbf81839b	-1.0118288
14	0x3f1ac0c0	0.60450363
15	0x3ebf63f4	0.37380946
16	0xbed020a7	-0.40649912
17	0x3e86154b	0.2618812
18	0xbfd78081	-1.6836091
19	0xbfd810a0	-1.6880074
20	0x3e4d35ea	0.20040098
21	0xbf2d15ba	-0.6761128
22	0x3eb53c2e	0.35397476
23	0xbf936630	-1.151556
24	0x3ef282e6	0.47365493
25	0x3ee78336	0.45217294
26	0x3d5dcc47	0.054149892
27	0xc0209bec	-2.5095167
28	0x3e0f6043	0.14001565
29	0x3e371245	0.17878063
30	0x3e903ae9	0.28169945
31	0x3ea52444	0.3225423
32	0xbfa8a20c	-1.3174453
33	0xbf396a19	-0.7242752
34	0xc00f8b81	-2.2428896
35	0x3ef82726	0.48467368
36	0x3edca94c	0.43097913
37	0xbf35a1ec	-0.709502
38	0xbfd7e064	-1.6865354
39	0x3ef2d06a	0.47424632
40	0xbfdba506	-1.7159736
41	0xbf88f1f2	-1.0698836
42	0x3f1c92d9	0.6116157
43	0x3efc35f5	0.49259916
44	0x3e993fe9	0.29931572
45	0x3f1216c3	0.5706598
46	0xbeb4769e	-0.35246748
47	0xbf311ce3	-0.691847
48	0x3eebc40f	0.46048018
49	0x3f0b3a05	0.54385406
50	0xbd5b1937	-0.053490844
51	0x3e520017	0.20507847
52	0x3f22424f	0.6338243
53	0x3efe7449	0.49698094
54	0x3e9716fd	0.29509726
55	0x3e845b64	0.25850976
56	0xbfc2681f	-1.5188025
57	0x3ec54bec	0.38534486
58	0x3eb24b2f	0.34822986
59	0xbf848cab	-1.0355428
60	0xbc8768df	-0.016529499
61	0x3f0ab017	0.5417494
62	0xc0297f97	-2.6484125
63	0xbd8c4c3f	-0.0685048
