mathboy/model.pt (torch, 664519 bytes, 24 tensors)

conv1.weight f4 [16, 1, 3, 3]
000000 58 d3 1a 3f f6 b4 80 3f d3 d8 52 3f 94 54 81 bd
       0.60478735 1.0055225 0.823621 -0.0631496
000010 c1 7f cc be 34 a7 66 3d 90 53 d4 bf 21 8f ca bf
       -0.39941218 0.0563118 -1.6588001 -1.582493
000020 6f f9 c8 bf c3 97 6d bf d0 11 a8 3f bc 6b 74 bf
       -1.5701121 -0.92809695 1.3130436 -0.9547689
000030 ea d8 a7 3e bd c1 35 40 4f af 23 3e a6 6b 35 3e
       0.3278268 2.8399498 0.15984844 0.17716846
000040 6e 4d 75 3e 99 d1 4a 3e 3b e6 5d 3d c8 eb 5c 3f
       0.23955318 0.19806518 0.054174643 0.86297274
000050 70 38 43 3f 1b 8d cd be 1a 6e 8d be ce 84 9e 3e
       0.7625799 -0.40146717 -0.27623063 0.30960697
000060 74 6b ce bf 45 10 e1 bf 3a e9 00 c0 71 93 b0 3f
       -1.6126542 -1.758309 -2.014235 1.3794996
000070 68 7e af be 55 4f 51 3f ed 55 e8 3f 5c 7a 51 3f
       -0.34276128 0.81761676 1.8151222 0.8182733
000080 bf 9a 82 be 1e f1 4f be 18 3c d2 be 7d 41 b9 bf
       -0.25508687 -0.20306823 -0.41061473 -1.447311
000090 fa cd 3c 3d 6d 30 0a bf 21 53 c6 bf f1 94 72 3e
       0.046094872 -0.5398014 -1.5494119 0.23689629
0000a0 9d 6d a7 3f d7 2e 98 be ea 9e 6e bf d8 91 6e 3f
       1.3080326 -0.29723236 -0.93211234 0.9319129
0000b0 6a de 83 3f 40 1a 45 bf 53 f3 41 bf 93 01 06 bf
       1.030225 -0.7699318 -0.7576191 -0.5234615
0000c0 ca 0c 36 3f 0e 3e d5 3e 00 81 15 3f 16 60 26 40
       0.71113265 0.41648906 0.58399963 2.5996146
0000d0 60 35 46 be 72 29 06 bf 85 16 a6 bf cd e0 18 bf
       -0.19356298 -0.5240699 -1.2975622 -0.5971802
0000e0 4d 25 34 bf c4 ba 8e bf d1 7d eb 3d 96 d3 b3 be
       -0.70369416 -1.1150746 0.11498607 -0.35122365
0000f0 97 1d 12 bf f4 75 47 bf 25 92 7f bf 38 42 1d bd
       -0.570764 -0.7791436 -0.99832374 -0.03839323
000100 dc ee e8 be 37 5b a8 be c5 61 8d 3f 42 da ec 3e
       -0.45494735 -0.3288209 1.1045462 0.46260267
000110 4f 93 fb 3d 7e 00 8d 3e 74 3f 36 40 98 47 30 bf
       0.12283956 0.27539438 2.8476229 -0.68859243
000120 13 00 e3 bd a2 da 22 bf fc fb 80 bf 7e ab 00 3f
       -0.110839985 -0.6361486 -1.00769 0.50261676
000130 63 9d d1 3f 58 20 91 3e 52 01 86 bf 2b 55 97 bf
       1.6376156 0.2834499 -1.0469153 -1.1822866
000140 e7 10 3b bc 48 42 cb bf 00 9c a9 3f 33 03 68 3f
       -0.011417604 -1.5879602 1.3250732 0.9062988
000150 52 12 28 3f a0 46 3f 3d 04 64 a9 3f 6b 56 11 be
       0.65652955 0.046698213 1.3233647 -0.14193122
000160 b0 c2 16 bf bc f4 46 bf 28 49 18 3f 40 d5 05 40
       -0.5889082 -0.77717185 0.5948663 2.0911407
000170 1a c7 2e bf f9 66 ee be 4b 7e dc 3f 25 ec 3a 3f
       -0.68272555 -0.46562937 1.7226042 0.7301658
000180 ad 1b 2f bf 1b 4c 20 3e 0d 44 8f be e3 32 46 be
       -0.68401605 0.15654032 -0.27981606 -0.19355349
000190 ad 87 ef be 7f e3 0e c0 f2 ad bf 3f 20 f4 93 bd
       -0.467832 -2.2326353 1.4974959 -0.072242975
0001a0 0c 60 34 bd 35 70 9b 3f b2 cb cf 3e d6 6e ba bd
       -0.04403691 1.2143618 0.40585095 -0.091031715
0001b0 50 a6 53 be 47 41 03 40 5f 46 ff 3c 20 f7 56 bf
       -0.20668912 2.0508592 0.031161485 -0.8397083
0001c0 75 c7 21 3f 74 52 a3 3f b1 c9 a0 bf 96 46 ab 3e
       0.6319497 1.2759538 -1.2561551 0.3345229
0001d0 84 b1 1c bf be 69 39 bf e6 0b 79 bf 06 1e d8 bc
       -0.6120837 -0.72426975 -0.9728378 -0.026381504
0001e0 8f 11 77 bf ee d5 32 bf dc 70 da 3f bb 0b a3 bf
       -0.9651117 -0.6985768 1.7065692 -1.2737955
0001f0 27 50 39 be 16 20 b3 3e 3e 18 01 c0 29 e7 46 bf
       -0.18096982 0.34985417 -2.0171046 -0.7769647
000200 83 3a 4e bf 3d 16 57 bf 08 35 bc bf 4b 54 43 bf
       -0.8055803 -0.8401831 -1.4703684 -0.76300496
000210 d9 a9 44 3f d7 17 3f bf da 01 8e bf 8d f7 7f bf
       0.76821667 -0.7464575 -1.1094315 -0.9998711
000220 e1 6d ab be 50 41 51 bc 06 32 dc be 7c b8 b9 3f
       -0.33482268 -0.012771919 -0.43006915 1.4509425
000230 cf d8 cd 3f 65 0d e1 3e 87 a3 13 3e 25 e1 b3 3f
       1.608179 0.43955532 0.1441785 1.4053084

conv1.bias f4 [16]
000000 28 f5 a1 be d4 2d 7f 3f de f7 e3 3e 3a 64 0d c0
       -0.31632352 0.99679303 0.44525045 -2.2092423
000010 03 1a 76 3f 6e 12 b0 bd bc 5f 5f 3c 40 61 8b 3e
       0.9613344 -0.08597265 0.013633665 0.27222633
000020 5a 0b 87 bf 36 61 6d be 56 c2 cc bf ca 9c b0 3e
       -1.0550339 -0.23181614 -1.5996807 0.3449462
000030 64 b3 32 bf e0 55 8e 3e df ac 93 bf 23 61 3c 3f
       -0.6980498 0.27799892 -1.1537131 0.7358572

bn1.weight f4 [16]
000000 dc 85 98 3f 45 e1 e9 3f f6 f4 96 3f f6 41 b7 3f
       1.1915851 1.8271872 1.1793506 1.4317005
000010 74 d5 89 3f da 36 d4 3f 6e 1e 37 40 19 ac d1 3f
       1.0768266 1.6579239 2.8612323 1.6380645
000020 36 78 be 3f 7c ef e2 3f 91 7d b9 3f f5 a7 f8 3f
       1.4880435 1.7729335 1.4491445 1.9426256
000030 70 42 d2 3f 95 8f 1a 40 7a 28 13 40 cf b5 d0 3f
       1.6426525 2.4150136 2.2993455 1.6305484

bn1.bias f4 [16]
000000 a9 f2 19 3e 2e 43 d4 3e 77 e4 1c be 57 71 1a 3f
       0.15033974 0.41457504 -0.15321527 0.6032919
000010 c5 8e 7d 3e 92 0b db 3e 1b 20 8f 3e ac 84 0f 3f
       0.24761494 0.42782265 0.27954182 0.56061816
000020 56 1d b3 bf 6a 68 10 3f 74 04 e2 3e 01 00 c5 3e
       -1.3993328 0.56409323 0.44144022 0.38476565
000030 e5 ad fa 3e da 8d 80 be 57 b1 23 3d 91 e9 bc 3e
       0.48960796 -0.25108224 0.039964046 0.36896947

bn1.running_mean f4 [16]
000000 26 b7 90 be b6 7e ab 3f 40 e8 d3 3e 5a 7e f6 bf
       -0.2826473 1.3398044 0.4138813 -1.925731
000010 a7 0b 8d 3f 87 0f 1a 3e 06 4a 3c be f2 58 1b 3f
       1.1019181 0.15044986 -0.18387613 0.60682595
000020 96 0e 85 bf af d3 0c bd 30 93 a3 bf c5 70 02 3f
       -1.0395076 -0.034381565 -1.2779293 0.5095332
000030 54 56 f3 be 26 f1 8e 3e e7 77 af bf 32 40 8a 3f
       -0.475268 0.27918357 -1.3708466 1.0800841

bn1.running_var f4 [16]
000000 e7 62 9e 3e d0 56 63 3f 9a bf 99 3e 4d 93 22 3f
       0.30934832 0.8880434 0.30028993 0.63506013
000010 d2 1e 5e 3e 3b 91 01 3f 0a 37 ca 3e c5 1b 52 3f
       0.21691445 0.5061223 0.39495116 0.8207362
000020 b4 cf 36 3d 6f 69 a9 3e ee 4f 47 3f dd 36 b4 3e
       0.044631675 0.33088252 0.7785634 0.35198107
000030 03 bc e2 3e 82 eb 34 3e fe 9b 18 3f b7 e1 5d 3f
       0.44284067 0.17667964 0.59613025 0.8667254

conv2.weight f4 [32, 16, 3, 3]
000000 10 33 35 3d 07 52 1b bf 4d 6d 2f 3f 26 54 9f bf
       0.04423815 -0.6067204 0.68526155 -1.2447555
000010 60 18 1f 3f 91 93 aa be fe 94 b0 bf 93 7e ab 3e
       0.6214657 -0.3331571 -1.3795469 0.33495006
000020 76 58 78 bf b4 4a f1 be 04 13 bc 3e 6f b5 83 bf
       -0.9700998 -0.47127306 0.36733258 -1.0289744
000030 ba 33 85 bf f0 19 c8 3f e5 2e e5 bf 13 ef bc be
       -1.0406411 1.5632915 -1.7904936 -0.3690115
000040 af 15 4f 3f ac 72 b6 bf 40 b9 44 3e c2 01 45 be
       0.8089246 -1.4253745 0.19211292 -0.19238952
000050 f4 1f c9 3e c3 e7 78 bd d9 04 ac 3f e6 cb 89 bf
       0.3928219 -0.0607679 1.3438979 -1.076535
000060 1c c8 56 be a4 ee 0b 3f c1 8b d4 bf ce 5e 34 bf
       -0.20974773 0.5466101 -1.660515 -0.7045716
000070 10 29 37 3f 73 1c 7f be 5f b2 12 c0 38 e3 25 3f
       0.7154703 -0.24913196 -2.292137 0.64799833
000080 b2 fb c0 be cc c2 b7 bf ab cb a5 3f e2 31 56 bf
       -0.37692028 -1.4356322 1.295278 -0.83669865
000090 f2 5b 5f bf e1 d8 64 bd 38 df d7 bf d3 b9 39 3e
       -0.8724967 -0.055870894 -1.6864996 0.18137293
0000a0 0b 64 24 3f 7a 25 d6 bf 4c 6c 9b 3c df df 0c 3e
       0.64215153 -1.6730187 0.018972538 0.13757275
0000b0 83 fe 97 bf 9a d6 cf bf e6 2a 2a 3e 24 a9 ee bd
       -1.1874546 -1.6237366 0.16617927 -0.11653355
0000c0 55 ff 06 c0 51 58 9a 3f a8 fa 9b be 19 76 61 bf
       -2.1093342 1.2058202 -0.30464673 -0.8807083
0000d0 70 c0 94 3f dc f0 39 bf 85 c7 4d 3f bc 9d d4 bf
       1.1621227 -0.7263315 0.8038257 -1.6610637
0000e0 33 1e 3d 3f 6b 22 66 3f 36 a9 22 c0 00 40 65 3f
       0.73874205 0.8989627 -2.5415778 0.8955078
0000f0 a9 4d 9a 3f 16 00 e4 be 9d c4 ea 3f bd ed 1b c0
       1.205495 -0.44531316 1.8341252 -2.4363854
000100 66 11 23 3f 4f 7c a4 be 6a 9d 57 bf f3 dd 53 3f
       0.6369842 -0.3212609 -0.8422457 0.8276054
000110 8f 9d e6 be d4 bd a9 be db 36 bf 3e b3 8f 80 bf
       -0.45042083 -0.3315264 0.3734654 -1.0043854
000120 91 e2 1c c0 3c 5f b8 bf 82 41 7e bf ea 15 82 bf
       -2.4513285 -1.4404063 -0.99318707 -1.0162938
000130 dc 2e 1e 3f 3d fc 9e be b7 11 df be 62 35 3b bd
       0.6179025 -0.31051818 -0.43568203 -0.045705207
000140 31 5d ce be 66 5c 11 bf 67 b3 fc 3d ad 59 9b bf
       -0.40305474 -0.56781614 0.12338906 -1.2136742
000150 79 ba f4 bd 59 f9 9b 3f e4 42 04 c0 2b 11 9f 3d
       -0.11949629 1.218547 -2.0665827 0.077669464
000160 c6 1c 9b 3d 33 94 cb bf b5 b9 31 bf e4 61 71 3f
       0.075738475 -1.5904602 -0.6942399 0.94289994
000170 77 ae 5c bf ad 26 a4 be f0 50 8e 3f 48 84 a2 bf
       -0.8620371 -0.32060757 1.111845 -1.2696619
000180 9c f0 6b 3e 84 5d 8e 3e 7e 9f c3 bf c1 3c 23 c0
       0.23041004 0.27805722 -1.5283048 -2.5505831
000190 87 09 02 bf 7a 36 38 be 31 86 21 c0 f1 bf 81 3f
       -0.5079579 -0.17989531 -2.5238154 1.0136701
0001a0 01 d7 aa 3e 25 76 90 bf 1a 59 8d 3f de c9 6a bf
       0.3336716 -1.1286055 1.1042817 -0.91714275
0001b0 4d af a5 bd 81 8f 11 3f 05 65 3f bf 45 33 f5 bd
       -0.080900766 0.56859595 -0.7476352 -0.119726695
0001c0 7e f6 41 3f 9a 1a 14 c0 4e 98 c0 bd e5 58 6b bd
       0.7576674 -2.3141236 -0.0940405 -0.057457823
0001d0 25 b7 c4 bf 2d bd 15 bf a6 37 2a bd ea 99 9f bf
       -1.5368391 -0.58491784 -0.041556977 -1.2468846
0001e0 16 15 77 3b 63 eb 42 3f 36 ee 53 3e d8 97 96 3e
       0.0037701777 0.7614042 0.20696339 0.29412723
0001f0 96 b8 82 3f a8 a4 6a 3f e1 cd ed 3e 4f 49 00 c0
       1.0212581 0.91657495 0.46446136 -2.0044744
000200 06 8d 31 3f bc 1d 48 3f 26 6e 43 bf df ae ec be
       0.6935581 0.7817037 -0.7633995 -0.46227166
000210 ee 90 3e 3f 6c 04 43 bf c8 ec af 3e f1 18 80 3e
       0.74439895 -0.7617862 0.34360337 0.2501903
000220 e5 70 e2 3e fc 59 ed bf b7 9f 93 3d a5 99 2a 3f
       0.44226757 -1.8543086 0.072081976 0.6664069
000230 1b c8 b9 bf 5e 4f e8 3e cd 81 33 bf 25 81 2b be
       -1.4514192 0.45373052 -0.70119935 -0.16748483
000240 e6 bb b1 be 9b 41 6a 3f 2a 3f b7 bd ac 28 6a 3f
       -0.34713668 0.91506356 -0.089475945 0.9146831
000250 86 a2 f4 3e 95 04 d4 3e f8 51 7f 3f 7f c1 9e 3f
       0.47780246 0.41409746 0.9973445 1.24028
000260 72 40 bd 3f 27 6c de be ce b6 58 3f 62 15 38 3f
       1.4785292 -0.4344189 0.8465394 0.7190763
000270 90 bd a1 3f 29 31 8d 3e 49 d3 94 3f ae ea f0 bf
       1.2635975 0.2757657 1.1626979 -1.8821619
000280 27 59 1d bf c3 e3 1f bf 5a e5 ed 3e 4a 6a f9 3f
       -0.6146416 -0.6245691 0.46464044 1.9485562
000290 fb 29 86 bd 95 4b bf be e2 21 06 be ca fd 04 3e
       -0.06550976 -0.37362352 -0.13098863 0.12987438
0002a0 ba e7 d6 3f 96 a7 8f 3f 2e 36 80 3f 38 f9 08 bf
       1.6789467 1.1223018 1.0016534 -0.5350528
0002b0 aa 93 85 3e c0 ac 51 3f 41 6b d0 3f b9 fe 9e 3f
       0.2608922 0.8190422 1.6282731 1.2421485
0002c0 8d 3d 56 3f 7b a4 0d be 9e 3e 86 be 5b 59 bd 3e
       0.8368767 -0.13832276 -0.26219648 0.36982235
0002d0 f7 a1 0f 3e ca 41 03 be 33 1e 8e 3f d0 f7 aa be
       0.14026628 -0.12818065 1.1102966 -0.3339219
0002e0 e5 57 75 3e 3d fc 97 3f bc 33 f3 bf f3 4b ee 3c
       0.2395931 1.1873852 -1.9000163 0.02908895
0002f0 7c 84 9f bf 90 d0 65 be 3b c8 15 3e 2e b1 bc 3f
       -1.2462306 -0.22442842 0.14627163 1.4741571
000300 4a f2 12 3f 15 0c a8 3e 22 54 cc 3e 19 9d c3 bf
       0.57400954 0.32821718 0.39907938 -1.5282317
000310 1b 2d b4 bf 69 4a 0d bf b1 14 6f 3e 8a 1d dc bf
       -1.4076265 -0.55191666 0.23347737 -1.7196515
000320 97 d3 cb bf 11 7b 47 be e6 5c 96 be e5 f4 ad be
       -1.5923947 -0.1948054 -0.2936775 -0.33975902
000330 85 36 c5 3f c9 2c f8 3f 54 d8 cd 3f bb ab 19 3e
       1.5407263 1.9388667 1.6081643 0.15006916
000340 dc ce 7c be 72 59 dc 3f be 97 a6 3f 2f 33 33 3f
       -0.24688286 1.7214797 1.3015058 0.69999975
000350 3b 93 76 3f 2b e3 d4 bf 94 ff df bf ee 99 b0 bf
       0.96318406 -1.6631826 -1.7499871 -1.3796976
000360 1a c0 72 bf 17 79 7a 3e b2 f3 6f 3f a0 34 50 3f
       -0.94824374 0.24460255 0.93731225 0.813303
000370 84 0d 1b bf 3c 7c 8a be 88 ec f0 be 9e d7 dd be
       -0.605675 -0.27047908 -0.4705546 -0.43328565
000380 fd 7d 88 bf ac 51 da bd 4e 8a 0b 3f b4 93 6f bf
       -1.0663449 -0.10660109 0.5450791 -0.9358475
000390 94 36 d5 3f 78 2a f2 3b a7 1e c7 3e c5 79 82 bf
       1.6657281 0.0073903166 0.38890573 -1.0193411
0003a0 c4 67 e7 be 0d 36 09 3f 28 53 b1 bf d1 9c cf 3f
       -0.45196354 0.535981 -1.3853502 1.6219732
0003b0 9e 5c 64 3f 93 62 b8 3e 8b ff 81 3d d1 70 94 3f
       0.8920382 0.36012706 0.06347569 1.1596929
0003c0 9a ed 29 bf 7c b8 8f bf 67 b7 a3 be 5f 58 5e bd
       -0.66378176 -1.1228175 -0.31975862 -0.054283496
0003d0 b9 e6 79 3e 90 84 8e 3f fa f6 90 3f ab bd f5 3e
       0.2440442 1.1134205 1.1325371 0.47996268
0003e0 8f 33 af 3c ed f5 19 bf 6f 23 dc bf d7 a1 ed bf
       0.02138689 -0.6014088 -1.7198313 -1.8565015
0003f0 3b e8 f5 be 4f 6c 82 3f 1c 0e 83 bd 70 52 19 3e
       -0.4802874 1.0189303 -0.063991755 0.14972854

conv2.bias f4 [32]
000000 a1 e8 01 bf fd bb ab 3d 3b f7 4d 3d c5 7c 06 be
       -0.5074559 0.08385465 0.050284605 -0.13133533
000010 cf 97 87 3e b7 66 4e 3e 06 4e 66 3e d4 b7 42 be
       0.26483008 0.2015637 0.22490701 -0.19015437
000020 1c bc f0 be b9 71 79 be c3 bc a9 bd 64 b2 31 bd
       -0.47018516 -0.24359788 -0.082879566 -0.043383017
000030 24 f9 b3 bd e6 a6 92 be 39 64 77 be 4c 09 90 be
       -0.08787754 -0.28642958 -0.24159326 -0.28132093
000040 cf a0 4e 3d 01 d1 59 3e 70 4a 7f bd 6c ad 98 be
       0.050446328 0.21271135 -0.06232685 -0.2981981
000050 1a 80 bb 3e 7e 1c 00 bf cb 71 2c bd 78 e6 78 3d
       0.3662117 -0.50043476 -0.04210071 0.060766667
000060 c2 aa 8a bd 4e a1 07 bd c7 03 d1 be 65 9a 31 be
       -0.06770851 -0.033112817 -0.40823194 -0.17344053
000070 86 73 1f 3e e8 c5 bc 3d 29 7c 16 3f 32 cb 9c be
       0.15571412 0.09217435 0.58783203 -0.30623776

bn2.weight f4 [32]
000000 b8 c6 ef 3f 99 aa 9a 3f 7f 4a 21 40 26 86 cc 3f
       1.8732519 1.2083312 2.5201719 1.5978439
000010 a0 55 de 3f f2 6d bf 3f a0 f6 ed 3f 65 cd 9a 3f
       1.7369881 1.4955428 1.8590889 1.2093931
000020 0f 88 14 40 09 57 07 40 a8 dd 98 3f 98 99 f9 3f
       2.3208044 2.1146872 1.1942644 1.9499998
000030 bb ab 9b 3f 6f 94 3a 40 f6 60 07 40 d1 22 de 3f
       1.2161783 2.9153097 2.115293 1.7354375
000040 59 1c b4 3f 39 5e 05 40 51 65 bf 3f 32 a1 8c 3f
       1.4071151 2.083876 1.4952794 1.0986693
000050 8a aa f9 3f 9e 6d df 3f b4 17 99 3f 7e 18 fe 3f
       1.9505169 1.7455328 1.1960359 1.9851224
000060 7e c4 93 3f 6d 9b ca 3f d9 c4 de 3f 1f 4b ca 3f
       1.154434 1.5828682 1.7403823 1.5804175
000070 b3 95 c8 3f 7d ed cd 3f 41 70 02 40 41 69 0d 40
       1.5670685 1.6088101 2.0381014 2.2095492

bn2.bias f4 [32]
000000 75 28 a3 be 60 dd f3 3e c9 a5 ba 3d b9 92 f1 3c
       -0.31866804 0.47629833 0.09113652 0.029488908
000010 f9 d2 ae bd ef 73 bd bd fa ce d5 3d aa 26 82 be
       -0.085363336 -0.09250628 0.10439868 -0.25420123
000020 ef 5c 21 be 2d 61 32 3d c5 15 c1 3e 07 27 3e be
       -0.15758108 0.043549705 0.3771192 -0.18569575
000030 2f 3d 91 3e 17 dd b2 3d 5e 2a 90 3e 0f 3f e9 be
       0.28366992 0.08733576 0.28157324 -0.45555922
000040 67 15 81 be 54 7c 76 3e 10 c4 ab be 43 f4 e7 3e
       -0.2521164 0.24070865 -0.3354802 0.45303544
000050 9c 4b 41 bd d2 bd 21 3d b2 a7 02 3e 87 fb 96 bd
       -0.047191247 0.039487667 0.12759283 -0.07372194
000060 49 42 01 3f 8b e3 04 bf 70 a0 7d 3d da 7f 5b bd
       0.5049177 -0.51909703 0.061920583 -0.053588726
000070 96 c9 09 3e a0 43 59 be 56 a9 95 be 86 2e 5e 3e
       0.13455805 -0.21217203 -0.29230756 0.21697435

bn2.running_mean f4 [32]
000000 f2 e2 a2 c0 bf b2 ae 41 c9 21 d7 c1 e3 42 2d 41
       -5.0902033 21.837278 -26.891497 10.82883
000010 b7 a6 d1 3f 3c 15 e1 3c 46 02 a7 3f 70 8a 39 c0
       1.6379002 0.027475946 1.3047569 -2.8990746
000020 0d f7 4f c0 69 8d f3 c0 11 2d 97 41 4f 29 96 3f
       -3.2494538 -7.611012 18.897005 1.1731356
000030 9e 6d 39 41 71 98 9a c1 06 b9 96 c1 54 4d 4c bf
       11.589262 -19.324434 -18.840343 -0.79805493
000040 64 81 c7 40 5c ac 91 c1 81 87 35 40 7a e7 fc 40
       6.2345448 -18.20916 2.8363955 7.9032564
000050 a6 f2 f0 be 2d d2 dd be 45 d1 4e 40 0c b3 d6 40
       -0.47060126 -0.43324414 3.2315228 6.7093563
000060 c0 6f 84 41 82 94 e0 3f 16 f1 fd 3f 93 6a 86 bf
       16.554565 1.7545321 1.9839199 -1.0501274
000070 30 c0 d4 3f 1d fd 3b c0 99 24 02 3f 2f 99 90 c0
       1.6621151 -2.9373238 0.50837094 -4.518699

bn2.running_var f4 [32]
000000 40 c5 10 44 af 39 cc 44 ca a9 1d 45 f3 2c 7d 44
       579.08203 1633.8026 2522.6118 1012.70233
000010 58 7f 4f 44 34 91 4c 44 a6 b2 9e 44 c3 16 d1 43
       829.98975 818.2688 1269.5828 418.17783
000020 96 31 5a 44 2d 9c c5 44 32 61 17 45 bd 95 33 44
       872.7748 1580.8805 2422.0747 718.33966
000030 dd f6 80 44 b4 76 f1 44 2d 6b 04 45 1a e0 20 44
       1031.7145 1931.7095 2118.6985 643.5016
000040 69 f4 f1 44 a6 95 e4 44 40 eb 2e 44 27 a8 77 44
       1935.6378 1828.6765 699.6758 990.6274
000050 f0 47 61 44 37 9c 31 44 f5 25 0e 44 0e 90 69 44
       901.124 710.44086 568.5931 934.25085
000060 6a 31 c7 44 0e b9 e2 44 c9 a0 ad 44 0f 09 3c 44
       1593.5442 1813.783 1389.0245 752.14154
000070 85 c9 23 44 d2 8e 48 44 11 75 5a 44 1a d8 86 44
       655.14874 802.23157 873.82916 1078.7532

conv3.weight f4 [64, 32, 3, 3]
000000 c2 d7 4a bf 5d ae 1c bf 84 de 4b bf 08 24 a0 be
       -0.7923547 -0.6120356 -0.79636407 -0.3127749
000010 d3 e9 8b bf 5a 92 8c bf 3a 84 b8 bf 09 da 86 bf
       -1.0930732 -1.0982163 -1.4415352 -1.0535289
000020 2d 2e 29 bf 3d ab 13 be 0d b0 a5 be a9 78 06 3f
       -0.66086084 -0.14420791 -0.3236088 0.5252786
000030 62 f5 e4 3e fa 12 e2 be 47 ec e7 3c 53 9c 12 c0
       0.44718462 -0.44155103 0.028310908 -2.2907913
000040 6c 47 13 c0 55 c5 ec bf d1 56 79 3e b6 11 b9 bf
       -2.3012342 -1.8497721 0.24349524 -1.445853
000050 5f 64 4c c0 28 eb 23 bf 42 9d 04 be 24 c3 86 3d
       -3.1936262 -0.64030695 -0.12950614 0.06580189
000060 36 ef 72 3e 8d 29 31 3f 85 89 64 3f 9e 02 4e 3e
       0.23724064 0.69204026 0.8927234 0.20118186
000070 7b d0 c2 3d 90 44 35 bd 05 93 59 3f a5 2a 2c 3f
       0.09512421 -0.04425484 0.8498996 0.6725257
000080 fb 7a 31 bd 50 27 d9 bf 11 c7 0d c0 9a e9 9f bf
       -0.043330174 -1.6965122 -2.215275 -1.2493165
000090 5d 2f 4b be af 47 21 3f af d0 78 3f e7 af 0a 3e
       -0.19842286 0.63000005 0.97193426 0.13543664
0000a0 1a 2d 27 3f 7d a3 c2 bf a0 25 cf 3d 50 a1 c8 3d
       0.65303195 -1.5206143 0.10114598 0.09796393
0000b0 32 ea 52 bd 22 22 31 bf 0c af 10 c0 eb 52 10 bf
       -0.051492877 -0.6919271 -2.260684 -0.5637652
0000c0 40 24 b2 bf 9e 9f e5 bf 0e fa d3 be 8d 16 7e bf
       -1.3917313 -1.7939336 -0.41401714 -0.9925316
0000d0 68 11 e2 bf e0 60 e2 bf 8e 87 80 be 51 00 67 3e
       -1.7661562 -1.7685814 -0.2510342 0.22558714
0000e0 1a 25 3f 3e f9 d8 74 3f 52 b3 8c 3e a6 2d 15 3f
       0.18666497 0.95643574 0.2748056 0.5827278
0000f0 d1 5a f3 bf 8c be 01 c0 b6 20 fc bf a7 c4 0b 3f
       -1.901209 -2.027255 -1.9697483 0.5459694
000100 82 ad da be 9f f2 d3 bf e5 5d 5d bf b0 f1 eb bf
       -0.427105 -1.6558417 -0.86471397 -1.8433132
000110 7a 15 89 bf 22 56 89 bf 42 1f 59 bf e7 ea bf be
       -1.0709679 -1.0729411 -0.8481332 -0.37483904
000120 00 5d ab 3f c2 60 ec be c4 60 0b c0 b8 1f 3a 3f
       1.3387756 -0.4616757 -2.177781 0.7270465
000130 19 90 97 bf a1 a9 82 bd 50 f5 80 bf b4 ae 89 bf
       -1.184085 -0.063800104 -1.0074863 -1.075644
000140 55 4a df 3e 69 c0 f5 3d 28 b4 45 3f 8f 1d 43 3f
       0.43611398 0.1199959 0.7722802 0.7621698
000150 0a e3 b2 3d 2f 21 5f be b4 58 e4 3e d0 d3 b2 bf
       0.087347105 -0.21790002 0.44598925 -1.397089
000160 52 23 72 bf cc 90 c8 bf 9e a2 ad 3f 98 c0 68 3f
       -0.94585145 -1.5669188 1.3565252 0.90918875
000170 a0 5d c4 3e ad ed 5c 3f 1a 9e f8 3e 03 13 af be
       0.3835268 0.86300164 0.48558122 -0.34194192
000180 94 05 1d c0 b4 56 08 c0 70 84 04 c0 e7 da fd bc
       -2.4534655 -2.130292 -2.0705833 -0.03098817
000190 03 fa 41 3f e5 1b a3 3f 99 f5 96 be d3 e8 16 3f
       0.7577211 1.2742888 -0.2948425 0.5894901
0001a0 db 7a a9 3e 6f 3c 81 bf d9 8b c1 bf a7 37 8d bf
       0.33101544 -1.0096568 -1.5120803 -1.1032609
0001b0 a8 fb 1d 3f 39 a9 9d 3f ee 2f 32 3f f5 b8 1a 3f
       0.6171212 1.2317268 0.69604385 0.6043847
0001c0 a0 d2 76 3e 03 63 41 3f 6b f7 92 bf d5 ee be bf
       0.24103785 0.75541705 -1.1481756 -1.4916636
0001d0 8f 56 0d c0 f6 9e 05 3f 4b d6 0a c0 77 97 bb bf
       -2.208408 0.5219568 -2.1693294 -1.4655598
0001e0 2d 86 3f 3f 7c 48 f9 3b 58 b7 9e be 20 c7 1b bf
       0.7481411 0.0076075178 -0.30999255 -0.60850716
0001f0 21 50 7d be 25 2a b1 be 87 23 0f 3e 96 96 c6 bf
       -0.24737598 -0.34602466 0.13978396 -1.5514705
000200 a1 0f 0a bf 6f 6d 60 bf 53 75 e0 3d 12 82 ff 3e
       -0.539301 -0.8766698 0.10959878 0.49903923
000210 93 fc c1 be 88 3c ff be ce 35 e7 be d4 a6 9d bd
       -0.3788801 -0.4985087 -0.45158237 -0.076978356
000220 15 3b b1 3f 2b 28 c8 3f 9d 71 20 3e b5 25 88 3e
       1.3846155 1.5637258 0.1566834 0.26591268
000230 18 bc 70 bf 0e 7e 85 3c fb a8 35 3e d1 03 16 bf
       -0.9403701 0.01629546 0.17740242 -0.58599573
000240 e9 58 5e be 9c 50 ca 3d a9 52 54 3f 95 46 92 3f
       -0.21713604 0.09878656 0.8293863 1.142779
000250 32 51 32 3f dc d0 38 bf eb a5 66 bf a3 d0 52 bf
       0.69655144 -0.72193694 -0.9009692 -0.82349604
000260 a7 16 82 bf 11 f7 10 3f ed 72 16 c0 11 cd 4f c0
       -1.0163163 0.56626993 -2.3507645 -3.2468913
000270 cf 85 74 bd 9d 6e dc 3c 15 23 e9 3e b2 a0 d4 3e
       -0.059697922 0.026908213 0.45534578 0.4152885
000280 36 a2 ed 3e 42 f6 3a 3f 47 df 3a 3f d6 33 64 3e
       0.4641282 0.7303201 0.72996944 0.22285399
000290 84 f5 32 c0 72 27 b8 be 9b 4f ea bf bf 3e f7 bf
       -2.796235 -0.35967594 -1.8305544 -1.9316024
0002a0 98 33 a0 bf 85 a7 9f bf ae 06 04 bf 09 44 23 3f
       -1.2515745 -1.2472998 -0.5157269 0.6377569
0002b0 bc d1 5a 3f 83 45 83 3f 96 79 b3 bf f7 3d 86 bf
       0.8547628 1.0255588 -1.402148 -1.048766
0002c0 3e b5 a7 bf ac 83 86 bf f6 e0 41 bf 69 ec 60 3c
       -1.3102186 -1.0508933 -0.7573389 0.01372824
0002d0 d8 c7 b8 be 74 64 32 be 26 f9 54 3f 52 e7 10 3f
       -0.3608997 -0.17421132 0.8319267 0.56602967
0002e0 6b 7c 49 be 07 7a 79 be fe 7f 42 c0 33 48 05 c0
       -0.19676368 -0.24362956 -3.039062 -2.0825317
0002f0 d5 ae 25 c0 05 38 75 bf 6b 08 cf 3d 98 3e 95 3f
       -2.588796 -0.95788604 0.101090275 1.1659727
000300 ac 63 8f bf 49 31 86 bf 9f 81 4b be fd e1 85 bf
       -1.1202292 -1.0483791 -0.19873665 -1.0459591
000310 56 e5 db bd fc 28 15 bf 3d 6b 55 3d 6e ef 67 3f
       -0.10737102 -0.5826566 0.052104224 0.90599716
000320 33 76 3d be 4e 67 42 bf e4 4d 17 be ea 7d b1 bd
       -0.1850212 -0.7593888 -0.14775807 -0.08666594
000330 48 14 19 c0 22 e9 94 bf f0 d8 cd bf 1e 4a 86 bf
       -2.3918629 -1.1633646 -1.6081829 -1.0491369
000340 4b 7b f0 3e 9a a1 ec 3c dd 58 1a 3f 21 64 51 3d
       0.46969065 0.028885651 0.60291845 0.05112088
000350 75 47 01 3f 6c b4 26 c0 99 c7 f2 bf de 3a 22 c0
       0.5049966 -2.604762 -1.8967162 -2.534843
000360 f7 a4 13 3f 25 40 50 3f 0a c3 1b be 7f 5a 14 3f
       0.5767359 0.81347877 -0.1521112 0.57950586
000370 5d 41 29 3c ac 5a ee be 2f fb 14 c0 7b 6f 08 c0
       0.010330525 -0.46553552 -2.327831 -2.1318042
000380 85 bd d9 bf 28 35 99 bd d9 a6 59 3f a0 d6 43 3e
       -1.7010962 -0.07480842 0.85020214 0.19124842
000390 e1 a1 91 3f 44 35 28 3c 05 d6 33 be c0 ec c5 bf
       1.1377527 0.010266606 -0.1756211 -1.5462875
0003a0 0f 7f 2b bf a3 22 a5 3c aa 1f c2 3f 02 09 01 3e
       -0.6699075 0.020158118 1.5165913 0.12601092
0003b0 f1 7a 0f c0 7c 8b 68 3f 91 33 81 bf b7 42 9d bf
       -2.2418787 0.90837836 -1.0093862 -1.2285985
0003c0 97 bb 6e bf 50 10 31 c0 3c b8 03 be 08 29 21 bf
       -0.9325499 -2.7666206 -0.12863249 -0.62953234
0003d0 71 ad 19 bf ec 4a ff 3b b1 77 a4 bf 95 6a 27 bf
       -0.60030276 0.007790914 -1.2849027 -0.65397006
0003e0 f2 fb 18 3f 63 ce e2 bf e8 1e c7 bf 83 53 23 bf
       0.5975944 -1.7719234 -1.5556307 -0.63799304
0003f0 19 57 ab bf 6e 44 13 bf 48 f0 33 3e 68 2a d0 be
       -1.3385955 -0.5752629 0.17572129 -0.40657353

conv3.bias f4 [64]
000000 b5 95 08 bd 3a 90 4b 3d 7e 7c f3 bb da b3 7c bd
       -0.033345897 0.049698092 -0.007430612 -0.061694957
000010 ae 10 3b 3d 88 a3 21 3e 5b 3e ac bd 7b 68 aa bc
       0.045670204 0.15785038 -0.08410331 -0.020801773
000020 07 01 f1 3c 02 49 ba 3d fa 07 81 3c 2b f8 ac 3d
       0.029419435 0.090959564 0.015750874 0.08445772
000030 f8 fd d0 3d 3e 2e 79 bd 7d 60 96 bd b6 7d 80 3d
       0.10204691 -0.060835116 -0.073426224 0.062739775
000040 3b 75 ac bd 37 ce 0a bd f8 88 87 bc 2e 61 87 3d
       -0.084207974 -0.033888068 -0.016544804 0.066103324
000050 59 3a da bb 5f 60 5f be 29 91 73 3c 58 74 8c bd
       -0.0066597876 -0.21814106 0.014866152 -0.06858128
000060 38 4a 2c bd 1e 9a 19 be f3 9f ec bb c2 86 ae bd
       -0.042062968 -0.15000197 -0.007221216 -0.08521797
000070 eb 45 5c bd 2a 70 47 3d 3e 97 94 bd 68 2f 96 3c
       -0.053777616 0.048690952 -0.0725541 0.018333152
000080 d8 bd 3f 3c a9 bf d7 bc 42 c2 ae 3c f6 60 a9 bd
       0.011702977 -0.026336508 0.021332864 -0.08270447
000090 99 6a ae bd e8 bd 36 3d 27 3e f3 bd ec e6 79 bc
       -0.08516426 0.044614702 -0.11877089 -0.01525281
0000a0 48 55 07 3e 39 b2 92 bd 99 45 9e bd 5e 62 ad 3d
       0.13216126 -0.071628995 -0.077281184 0.08466028
0000b0 74 d2 8d bc 61 51 b8 bd 22 97 8b ba c5 0c a4 3d
       -0.017312266 -0.08999897 -0.00106499 0.08010248
0000c0 aa 3e 9c bd c1 00 39 bd 5c dd a8 bd 85 aa 17 bd
       -0.0762914 -0.045166735 -0.08245346 -0.037027854
0000d0 af bb 99 bd 14 ae a1 bc a0 10 c5 3d 4c ae cd bd
       -0.07506501 -0.019736327 0.096223116 -0.1004301
0000e0 9f 67 ee 3c ca ba ba bd dc e9 b9 bc 4a cf 38 bd
       0.029102145 -0.091176584 -0.02269452 -0.04511956
0000f0 60 60 e6 3b 33 84 86 3d 18 3e f4 bc 04 c2 86 3c
       0.0070305318 0.06568184 -0.029814765 0.016449936

bn3.weight f4 [64]
000000 7a 39 d3 3e 7c 61 ce 3e c1 dc 0c 3f e5 32 a3 3e
       0.4125479 0.4030875 0.55024344 0.31874767
000010 f1 8d 2d 3e 86 01 a2 3e ba 92 06 3f b5 2f 11 3f
       0.16948678 0.31641787 0.52567637 0.5671342
000020 30 13 4b 3e 56 22 93 3e 05 cd 00 3f 4e 29 d8 3e
       0.19831538 0.28737134 0.50312835 0.42219013
000030 e4 c2 ae 3e ab 54 e2 3e a3 10 11 3f 3c b9 ee 3e
       0.34133065 0.44205222 0.5666601 0.46625698
000040 3d 13 06 3f c0 de 65 3e ca 89 3d 3e 4d 38 be 3e
       0.52373105 0.22448254 0.18509594 0.3715233
000050 34 71 db 3e 91 03 b8 3e e9 2f b5 3e bb 3d df 3e
       0.42859805 0.3594022 0.35388115 0.43601784
000060 1e 59 47 3e c1 1e bd 3e 8c 33 1a 3f 10 af 81 3e
       0.1946759 0.36937526 0.60234904 0.25328875
000070 67 98 06 3f f8 df f3 3e 8e 72 c7 3d 25 e6 d1 3e
       0.525763 0.47631812 0.097386464 0.409959
000080 6c 5d 90 3e 89 f6 c1 3e bb ab dd 3e 56 83 37 3f
       0.28196275 0.37883404 0.43295082 0.7168478
000090 49 da e8 3e 48 24 04 3f bb 19 fe 3e e5 dc 92 3e
       0.45479038 0.5161786 0.49629006 0.28684154
0000a0 f0 e1 09 3f 3a 04 8e 3e b4 7e d5 3e 13 fa 90 3e
       0.5386038 0.277376 0.4169823 0.2831579
0000b0 62 ca 30 3f 2c d2 12 3f ea c9 82 3e a7 f7 0a 3f
       0.6905881 0.57351947 0.25544673 0.5428414
0000c0 da 88 07 3f 8b 64 ec 3e 9f 90 00 3f 2d 61 df 3e
       0.52943194 0.46170458 0.50220674 0.43628827
0000d0 df a8 83 3e b7 05 0d 3f e3 c8 e7 3e 9c 32 b1 3e
       0.25714776 0.55086845 0.45270452 0.34608924
0000e0 68 8e f3 3e 60 c5 ae 3e bb 05 e9 3e c2 bd 89 3e
       0.47569585 0.3413496 0.45512185 0.26902586
0000f0 47 ca b5 3e 2d 42 ef 3e e6 45 29 3f e2 09 7d 3e
       0.35505888 0.46730176 0.6612228 0.24710801

bn3.bias f4 [64]
000000 c9 0a 66 be 8b d2 3c be 5f 63 d6 be 16 1a a1 be
       -0.22465052 -0.18439691 -0.4187269 -0.31465214
000010 a5 84 64 bf 50 52 46 be e0 a9 a4 be 3b 8d dd be
       -0.892649 -0.19367337 -0.32160854 -0.43271813
000020 e6 ee 37 bf ce 33 01 be 86 fd bf be 97 a5 fd be
       -0.71848905 -0.12617418 -0.3749811 -0.49540398
000030 fb 83 a9 be 2e 4a 5a be 80 21 af be 48 fb 40 be
       -0.33108506 -0.2131736 -0.34205246 -0.18845856
000040 31 8f a2 be 1b d1 10 bf c1 67 12 bf 4e 20 84 be
       -0.3174987 -0.5656907 -0.57189566 -0.25805897
000050 b0 ea 00 bf 81 73 b8 be a4 45 e2 be 52 21 e9 be
       -0.50358105 -0.36025622 -0.44193757 -0.45533234
000060 5a 1d 8c be 18 1d 57 bf be a2 04 bf d3 5f 8f be
       -0.27366143 -0.8402877 -0.51810825 -0.28002796
000070 45 46 65 be 77 c8 bb be fe 24 5b bf 68 bd 07 bf
       -0.22390087 -0.3667638 -0.8560332 -0.53023386
000080 40 d9 23 bf 8d 95 7c be e6 ae 89 be c6 b3 cb be
       -0.6400337 -0.24666424 -0.2689125 -0.39785594
000090 0a e7 b0 be e1 47 bb be fd ea 85 be a6 ad f0 bd
       -0.3455127 -0.36578277 -0.26155844 -0.11751871
0000a0 a2 a9 01 bf 92 34 21 bf ce 6f 3a bf f5 31 0e be
       -0.50649464 -0.6297084 -0.7282685 -0.13886245
0000b0 99 15 e9 be f2 5e a3 be bd 83 21 bf c5 14 fd be
       -0.4552429 -0.31908375 -0.6309164 -0.49429908
0000c0 04 5b 5c be e3 d6 b8 be fe 12 b5 be ee 72 f3 be
       -0.21519095 -0.36101446 -0.35366052 -0.47548622
0000d0 8f c2 36 be d2 63 64 bf 5a 8b aa be 7f e2 21 bf
       -0.17847656 -0.89214814 -0.33309442 -0.6323623
0000e0 eb 57 9a be 38 f0 e3 bd bd 15 9f be 8d 2b 2d bf
       -0.301452 -0.111298025 -0.31071272 -0.6764458
0000f0 35 33 10 be 56 30 16 bf a9 4d c6 be 2b aa 26 bf
       -0.14082034 -0.58667505 -0.38731125 -0.65103406

bn3.running_mean f4 [64]
000000 99 c0 c7 c1 c9 c9 63 c1 b3 92 ab c1 dc 1e 8d c1
       -24.969042 -14.236764 -21.44663 -17.640068
000010 bb 28 f7 3f ba 70 bb c1 81 be cf c1 07 e6 e0 c1
       1.9309305 -23.430042 -25.96802 -28.112318
000020 e4 bd 86 c1 d3 a8 c4 40 7a 56 0e c2 bf 2c b2 c1
       -16.84272 6.1456084 -35.58445 -22.271849
000030 9a 50 c9 c1 44 6b 57 c1 65 77 88 c1 4e 84 c6 c0
       -25.164356 -13.463688 -17.058298 -6.2036505
000040 d4 e5 ed c1 ab 24 af c1 2a ff f4 c0 40 dc 08 c2
       -29.73722 -21.892904 -7.656148 -34.215088
000050 2f f2 40 c1 02 ca 89 c1 64 a4 dd c1 21 32 f6 c1
       -12.059127 -17.223637 -27.705269 -30.774477
000060 53 86 1e c1 55 c0 1a c0 a5 93 cb c1 66 cb ad c1
       -9.907794 -2.417989 -25.447092 -21.724316
000070 3c 9d 2c c1 d6 1c c6 c1 ea 98 ac 40 8b ae e6 c1
       -10.788387 -24.76408 5.3936663 -28.835226
000080 a6 a6 be c1 89 8c 4f c1 56 d4 f5 c1 f1 db 0d c2
       -23.831371 -12.97181 -30.72868 -35.464787
000090 0b 58 ab c1 b4 64 9b c1 9b 3f dd c1 8b c9 28 c0
       -21.41799 -19.424171 -27.656057 -2.6373012
0000a0 e5 bf 0f c2 1c 08 41 c1 be 7a 24 c2 b4 a9 08 c1
       -35.937397 -12.06448 -41.119865 -8.541431
0000b0 26 1c f9 c1 1d e8 cf c1 a3 80 be c1 28 1a ea c1
       -31.138744 -25.988337 -23.81281 -29.262772
0000c0 28 2a ab c1 48 d9 db c1 04 e2 07 c2 0e 07 dc c1
       -21.395584 -27.481094 -33.97072 -27.503445
0000d0 16 1f bd bf ba 5a a3 41 da 9f 0a c2 0f e7 12 c2
       -1.4775112 20.4193 -34.656105 -36.725643
0000e0 75 eb 9f c1 de 73 bd c1 75 2c a7 c1 67 e3 53 c1
       -19.98997 -23.681576 -20.896708 -13.243018
0000f0 cb 72 5b 3f 5c a9 9a c1 fb b4 d0 c1 ab 3e c8 c0
       0.85722035 -19.332695 -26.08837 -6.25765

bn3.running_var f4 [64]
000000 da ac f3 44 a9 9e d4 44 2f 6b 13 45 65 c3 5b 44
       1949.4016 1700.9581 2358.699 879.05304
000010 93 db 54 44 a7 4c 00 45 78 dc e4 44 4f d0 e1 44
       851.43085 2052.7908 1830.8896 1806.5096
000020 51 d0 ba 43 2d c1 6c 44 a5 e7 0e 45 4f bb 22 45
       373.62747 947.0184 2286.4778 2603.7068
000030 ba 80 aa 44 a3 75 d2 44 96 2c 90 44 9d 2c cd 44
       1364.0227 1683.6761 1153.3933 1641.3942
000040 34 99 e1 44 5f 44 96 44 ab 44 2b 43 05 32 2c 45
       1804.7876 1202.1366 171.26823 2755.1262
000050 cf 52 3b 43 a4 47 01 45 15 07 42 44 e3 2d 87 44
       187.32347 2068.4775 776.11066 1081.434
000060 70 d9 96 44 c3 7b 25 44 63 a9 d5 44 47 ee 70 44
       1206.7949 661.9338 1709.2933 963.7231
000070 48 ba eb 44 f4 47 9b 44 6a 04 6f 44 76 6a 39 44
       1885.8213 1242.2485 956.069 741.66345
000080 d9 3f 45 44 e3 97 8b 44 06 d3 1f 45 16 0b 04 45
       788.9976 1116.7465 2557.189 2112.6929
000090 6b bf 0a 45 d2 64 ae 44 d2 a5 35 45 fd c3 98 44
       2219.9636 1395.1506 2906.3638 1222.1246
0000a0 18 04 42 45 1f 59 54 43 5c 87 29 44 45 2c 44 44
       3104.2559 212.34813 678.115 784.6917
0000b0 25 76 0b 45 a5 8b 24 45 9c af f1 44 d8 b1 d2 44
       2231.384 2632.7278 1933.4878 1685.5576
0000c0 88 15 34 45 29 37 e9 44 1d a9 5c 44 d3 c2 50 44
       2881.3457 1865.7238 882.6424 835.0441
0000d0 b3 2b 9b 44 a0 06 d9 44 be 25 1d 45 fe c7 d6 44
       1241.3656 1736.207 2514.359 1718.2498
0000e0 16 a1 3d 44 8c 70 8b 44 80 4d 0e 45 fe f3 f6 43
       758.51697 1115.5171 2276.8438 493.9062
0000f0 92 8c 81 44 59 3f bb 43 f7 73 f6 44 6c d8 4f 43
       1036.3928 374.4949 1971.6239 207.8454

linear1.weight f4 [128, 1024]
000000 7c c2 4d 3e 59 48 9b 3e 70 58 d3 bd a5 cf b4 bd
       0.20093721 0.30328634 -0.103196025 -0.088286676
000010 cf e6 7f 3e 97 4c 4a 3e de 57 60 bf 2a e9 f9 3d
       0.2499039 0.19755779 -0.87634075 0.12202676
000020 79 6c ce be 9d 29 52 be 4a 21 2a be 31 f5 6b 3e
       -0.40317133 -0.20523687 -0.16614261 0.23042752
000030 4d 1a 2f be 2d d1 7e bf b2 fb d7 bd d9 59 4f bd
       -0.17099877 -0.99537927 -0.10546054 -0.050622795
000040 07 a6 61 3c 74 61 99 3e cb c0 6d bf 77 7d 1f bd
       0.013772494 0.29957163 -0.92872304 -0.038938012
000050 b6 e6 81 bd 2a 8d 95 3d 29 ac 80 bf f9 b4 37 be
       -0.06342833 0.073023155 -1.0052539 -0.1794013
000060 63 f8 2e 3e cc d4 1f be 21 62 06 3a d9 a8 2c bf
       0.1708694 -0.1560852 0.00051263167 -0.6744514
000070 fd dd 55 3e a3 9b 0b bf ee 7b ef 3e d0 16 f1 3e
       0.20885463 -0.5453436 0.46774238 0.47087717
000080 ee c7 1f be f9 41 b0 3e bc 5b e0 be 92 91 86 be
       -0.15603611 0.34425333 -0.43819988 -0.26282936
000090 88 c9 b3 3d 31 88 a1 3d 50 e5 0d bf 82 01 ca 3e
       0.087786734 0.078873046 -0.5542803 0.39454275
0000a0 8a bf ad be 37 d2 d8 bb 2b 47 2b bf af 16 b2 be
       -0.33935195 -0.0066168564 -0.6690547 -0.3478293
0000b0 00 8f 85 bd 7f 13 8d be 50 6a 68 bf b8 4b 04 be
       -0.06521416 -0.27553937 -0.9078722 -0.1291951
0000c0 1d 9f 04 bf 83 60 0c bf 18 26 68 bf f9 36 a1 be
       -0.5180529 -0.54834765 -0.90683126 -0.31487253
0000d0 62 6c 4b 3c 00 53 1a 3f 62 b8 94 bf 12 8f 88 be
       0.012415977 0.602829 -1.1618769 -0.26671654
0000e0 9b 21 cc bd d4 de b7 3e 70 07 6d be 84 ff bc bd
       -0.09967347 0.35912192 -0.23147368 -0.09228423
0000f0 41 2b c4 be 00 f7 21 3e 91 96 e7 be ba e3 e8 be
       -0.3831425 0.1581688 -0.4523206 -0.45486242
000100 d9 81 79 bd 7e d4 3f be b2 3e a1 be 14 90 ca bd
       -0.060914848 -0.18733403 -0.31493145 -0.09890762
000110 aa 4a 9d 3c 4e 6b c5 be ef de ae 3e 35 0b 40 be
       0.019200642 -0.3855843 0.3415446 -0.18754275
000120 85 1c e5 3c 0e 78 72 bd 00 37 c3 be 58 85 a2 3d
       0.0279677 -0.059196524 -0.381279 0.079355896
000130 3f 4d c6 3c e5 7e 56 be ac 73 64 bb 05 f6 d1 3e
       0.024206756 -0.20946844 -0.0034858985 0.4100801
000140 25 ef 58 bf 00 ed 26 bf 18 7c f5 be f3 5c e5 bd
       -0.84739906 -0.65205383 -0.4794624 -0.11199369
000150 75 d5 4a bf 86 a5 8d bf 5a fd 2b 3f 8b d4 9f 3d
       -0.7923196 -1.1066139 0.6718346 0.07804211
000160 c6 49 d7 be cf 69 b4 be 91 2c 85 bf e1 f2 bf be
       -0.42048472 -0.35236976 -1.0404226 -0.3748999
000170 ba 2c df 3e 3d 5d 96 3f 80 21 0f bf 2f 03 84 3e
       0.4358881 1.1747204 -0.5591049 0.2578368
000180 97 7a d8 3c dd 40 21 bf 67 ef 62 be d4 54 51 bf
       0.026425643 -0.629896 -0.22161637 -0.8177006
000190 c5 a8 c2 be 3e a3 f2 be 7c b7 01 bf ff ea f5 3d
       -0.38019386 -0.4739017 -0.506706 0.120077126
0001a0 70 0f bd 3e d2 0e 94 be dc 33 57 3c 6b f6 61 bd
       0.3692584 -0.28917557 0.013134923 -0.055166643
0001b0 8b c7 ad be f6 31 9c 3e 0d 77 2c be 15 38 63 be
       -0.33941302 0.30506867 -0.1684229 -0.22189362
0001c0 b3 cf 48 be 23 ce 38 3e 38 d2 42 be ab 6a 08 bf
       -0.19610481 0.18047385 -0.19025505 -0.5328776
0001d0 14 38 92 3e 4e 23 94 3e ad 62 1b 3e e8 2e 67 3f
       0.2855841 0.28933185 0.1517436 0.9030595
0001e0 2c 2a 0f 3d 16 6b f5 3d 5d 26 e0 3e d8 92 64 be
       0.034952328 0.11983316 0.4377927 -0.22321641
0001f0 6c 88 63 3d 2c 51 a4 3d 45 23 bb 3e f3 52 1c bf
       0.055550024 0.08023295 0.36550346 -0.6106407
000200 b8 48 b7 bd 26 aa 48 b8 56 53 ae bd 3b 41 ea bd
       -0.08949417 -4.784218e-05 -0.08511989 -0.11438223
000210 72 ec 07 3d 1a 18 8f bc 34 fb 96 bd d6 12 90 bd
       0.033184476 -0.017467547 -0.07372132 -0.07034843
000220 b2 af c5 bd ae 48 cf bd d8 f3 cb bd c6 49 0b bd
       -0.09652652 -0.101212844 -0.09958619 -0.034005903
000230 8d 3f 86 bc 3c b1 83 bd 60 f6 4c 3d 49 a1 04 3d
       -0.016387725 -0.06430289 0.05003965 0.032380376
000240 de c9 15 3b 68 34 8e 3e 3f fc f8 3e a9 13 75 be
       0.0022855918 0.27774358 0.48629948 -0.23933281
000250 74 35 13 be 80 22 40 bf c1 24 0e 3e ec 83 c4 3e
       -0.1437586 -0.7505264 0.13881208 0.38381898
000260 5d b2 18 bd b7 d9 91 be 43 82 5a bf 19 de 24 bf
       -0.037279475 -0.28486416 -0.85355014 -0.64401394
000270 87 20 d7 be 7d 43 0b be cc 4b bb be c2 31 2f bf
       -0.42017004 -0.13599963 -0.36581266 -0.684353
000280 28 c3 d4 bd 2e 52 17 3d 86 62 02 bf e5 3b fe 3e
       -0.103887856 0.036943607 -0.50931585 0.4965507
000290 6b a5 a7 be 51 18 de be 1d c0 36 3c 68 de ed bd
       -0.3274339 -0.43377927 0.011154202 -0.11614686
0002a0 53 25 89 be e7 b8 69 be 84 6b f3 be 2c 0e db 3c
       -0.2678629 -0.22824441 -0.47542965 0.026740156
0002b0 54 79 0c 3f 47 bc c1 be a6 35 e3 be 49 e5 c9 3d
       0.5487263 -0.37838957 -0.44376868 0.09858186
0002c0 54 e9 03 bf 20 ae 99 3e 85 cf 82 3e ab 56 09 be
       -0.51527905 0.3001566 0.2554895 -0.13411967
0002d0 75 c4 b8 be ab 42 51 bf 0a c4 a3 be 48 bb 68 3f
       -0.36087385 -0.8174235 -0.31985503 0.9091077
0002e0 73 e2 74 be 62 f8 8e be 3f 7d 27 3f 90 16 08 bf
       -0.23914509 -0.27923876 0.65425485 -0.5315943
0002f0 b1 1f c4 be f2 04 ab be 1f d6 36 3e 8c 5b 91 be
       -0.3830543 -0.3340221 0.17855118 -0.28390157
000300 8c 16 37 bf 70 1f 14 bf dc d6 44 be b8 ba 43 bf
       -0.7151878 -0.5786047 -0.19222587 -0.76456785
000310 92 e7 8c bf 6b 1c 02 be 57 56 08 3e 1e 4c b0 3e
       -1.100817 -0.12706153 0.13314186 0.34433073
000320 6e 8c 0e bf 33 c5 b3 be 4f 3e 07 3e 94 2a 02 3f
       -0.5568303 -0.3511139 0.13207363 0.5084622
000330 6c 16 21 bf cd 96 2f bf 4a 47 15 3f 54 9c 63 bf
       -0.6292484 -0.6858948 0.58311903 -0.8891041
000340 0d b2 7c be 3f 66 8d 3d 4b 34 a4 3d 3c 12 6a 3e
       -0.24677296 0.069042675 0.080177866 0.22858518
000350 76 6e f0 3d c1 2e 2c bf d5 0f 71 3f 75 00 c5 3e
       0.11739819 -0.6725884 0.9416478 0.3847691
000360 ac 5a 87 be 2a 89 57 bf e1 50 96 be f8 b0 2a be
       -0.26436365 -0.8419367 -0.2935858 -0.1666907
000370 e7 32 01 bf b4 f7 d0 be 30 1c 13 3e 15 54 72 3e
       -0.50468296 -0.40813982 0.14366221 0.23664887
000380 d7 00 ce 3e 0f 8a 08 3f ed 07 c1 3d 17 73 a7 3d
       0.40235016 0.5333566 0.0942534 0.081762485
000390 a0 5f cb 3e a5 75 93 3e 0e 4f e8 be 45 ce 0c 3a
       0.39721394 0.28800693 -0.45372814 0.0005371313
0003a0 1b 06 0b 3f 95 f2 e4 be 4b 36 b4 3e 64 09 24 be
       0.5430619 -0.44716325 0.35197672 -0.16019207
0003b0 66 9b 11 be c7 3d 4f be 1f 45 9d 3c eb f2 bc bd
       -0.14219436 -0.2023841 0.019197999 -0.092260204
0003c0 3c df c8 bd bb c4 21 bf c4 fb 8c bf aa 1b 8f 3d
       -0.098082036 -0.6319081 -1.1014333 0.069876984
0003d0 31 db 9a be 61 ff d0 be c7 94 0f bf 26 61 03 bf
       -0.30245355 -0.4081984 -0.5608639 -0.5132011
0003e0 01 c1 26 3f 12 34 d6 be f6 20 66 bf 77 d7 1b bf
       0.6513825 -0.41836601 -0.89894044 -0.6087565
0003f0 bb 55 21 bf 3a b0 e2 be 9a ae d6 bd 1a f8 ec 3d
       -0.6302144 -0.44275075 -0.10482521 0.11570759

linear1.bias f4 [128]
000000 f6 0a aa bf a0 b8 52 3e c6 61 c6 be 70 51 12 3e
       -1.3284595 0.20578241 -0.3874647 0.14288878
000010 fe 3a 0a bf 07 f9 87 be be bf 0b 3e b5 9f 93 be
       -0.53996265 -0.2655718 0.13647363 -0.28832784
000020 53 d4 96 3e 94 c5 65 bf 34 44 76 3e 61 12 c2 bd
       0.29458866 -0.89754605 0.24049455 -0.09476162
000030 7f 03 0f bf 98 07 04 bf 73 7e 8a bd 72 92 60 be
       -0.5586471 -0.5157409 -0.067623995 -0.21930864
000040 3b de 83 be c0 97 21 3f 07 e7 8e bf 75 ba 22 bf
       -0.25755486 0.6312218 -1.1164254 -0.6356576
000050 ab b2 a0 3e 7b a8 f7 be 5f 1e b7 be 1f f4 6f bd
       0.31386313 -0.48370728 -0.3576536 -0.05858242
000060 e8 2d 2d be 48 bb 0d bf 33 31 48 3d 7e 2f 55 bf
       -0.16912043 -0.55363894 0.048875045 -0.8327559
000070 e8 75 f4 3e 5d 10 8f 3e a9 6d 3b bd 6e 67 08 3f
       0.47746205 0.27942172 -0.045758877 0.5328282
000080 64 f8 90 be 18 48 cd be 63 26 c4 be 5c 33 9a be
       -0.28314507 -0.40094066 -0.38310537 -0.3011731
000090 aa a2 2f be 0d c0 05 bd fd 9b 38 bf 53 0d 32 be
       -0.17151895 -0.032653857 -0.7211302 -0.17387895
0000a0 74 5d a8 be ea f8 85 be af 88 36 bd af 61 54 3e
       -0.328838 -0.2616647 -0.044563945 0.20740388
0000b0 73 25 e7 bc ec e7 76 bf 0f 38 d7 be d7 05 68 3f
       -0.0282161 -0.96447635 -0.42034957 0.9063391
0000c0 82 c2 1c 3f a1 0c b9 be cf e5 cd bf 0e 37 3a bf
       0.61234295 -0.36142448 -1.6085757 -0.72740257
0000d0 06 57 56 3e 93 d1 63 bd f6 b2 85 bd a3 b2 21 3f
       0.20931634 -0.055619787 -0.06528275 0.63163203
0000e0 8f b5 3b be 91 97 65 be 3f 33 53 be fb 22 c4 be
       -0.18330978 -0.22421099 -0.20625018 -0.38307938
0000f0 9b cd 2b bf 41 e7 a0 bf 2d 50 e8 bd 2c 5d 18 3c
       -0.67110604 -1.2570573 -0.11343417 0.009299558
000100 b0 90 93 3d 32 a1 45 bf ce 4b b6 bc 62 07 9b bd
       0.07205331 -0.7719909 -0.022252943 -0.075697675
000110 d5 aa 75 be dc f9 06 bf e2 45 24 be 0f a5 00 bf
       -0.23990948 -0.52725005 -0.16042283 -0.5025186
000120 c3 8d 07 be 52 37 64 3a 74 dd 10 bf f1 04 40 bf
       -0.13237672 0.0008705753 -0.5658791 -0.7500754
000130 db e4 93 3e 45 6f 86 bf b3 c3 51 be a6 6d d7 be
       0.2888554 -1.0502707 -0.2048481 -0.42075843
000140 2c fd 68 bd 63 3a c0 be f0 b2 f3 bf 4d e5 b7 be
       -0.05688207 -0.37544546 -1.9038982 -0.3591713
000150 5d ee 4f bf 48 cd 31 bf a2 d1 f0 be e3 13 bc 3e
       -0.8122309 -0.6945386 -0.47034937 0.36733922
000160 4f 9a ff 3e 64 b1 84 3e 1d 4e 03 bf 20 69 dc 3e
       0.49922416 0.25916588 -0.51291066 0.43048954
000170 c9 81 e5 3e 01 3a 82 bd e1 7b ca 3e 85 72 44 bf
       0.4482558 -0.063587196 0.39547637 -0.7673724
000180 6f 2e dd be 43 d9 91 bf 39 b0 5b bc 84 40 58 3e
       -0.4319949 -1.1394428 -0.013408714 0.21118361
000190 78 f2 87 bd db 32 ba 3d be 66 b4 bd 42 0f 54 3e
       -0.06638044 0.09091731 -0.08808659 0.20708945
0001a0 77 84 33 3e 9b ad df 3e 76 57 01 be 03 ac 6a be
       0.17531 0.43687138 -0.1263102 -0.2291718
0001b0 17 b7 81 be 30 ae 8f bd c4 1b da be ab 87 cd bd
       -0.25335 -0.070156455 -0.42599308 -0.10035642
0001c0 6c 69 b5 bd d6 e1 d1 bc 6f 10 36 3f cd f8 fd bd
       -0.08857998 -0.025620382 0.71118826 -0.124009706
0001d0 c3 f5 42 be 7f 76 a6 be 9d 80 22 bf 0e 7c 23 bd
       -0.19039063 -0.3251228 -0.634775 -0.03991323
0001e0 56 36 89 bd 95 d3 07 bf a6 d8 3b 3f 5b d1 d0 3e
       -0.06699817 -0.53057224 0.73377454 0.40784726
0001f0 e8 c7 78 be 8d 71 b6 3e 9b 3b 19 3f e1 3b cd 3e
       -0.24295008 0.35633507 0.59856576 0.40084746

linear2.weight f4 [64, 128]
000000 b7 d6 44 3e 18 d2 cc be f2 7c 04 be a1 6f a2 bd
       0.19222532 -0.4000404 -0.12938288 -0.07931448
000010 aa fd 08 3e 2c de 5f 3e b5 70 20 3e 08 e3 96 bc
       0.13378015 0.21862096 0.15667994 -0.018418804
000020 26 26 8c bf 57 40 5d bc a3 b0 ed 3e 8c f8 ac 3d
       -1.0949142 -0.013504109 0.46423826 0.08445844
000030 1f 5d 9b be 8b fd 3d bd d2 b1 6b 3d 93 d2 99 bd
       -0.30344483 -0.046384376 0.05754263 -0.07510867
000040 88 26 f0 bd ba c3 a5 bf 6e 70 9e bf d9 c9 28 bf
       -0.11726099 -1.2950356 -1.2378061 -0.65932995
000050 9e 28 bb 3d 1a 11 a3 bd f8 a1 a4 3e ed 10 1c 3d
       0.091386065 -0.07962246 0.32154822 0.03810208
000060 2b fb c5 bc 78 5d 24 3e 6a 58 fc 3d 39 f5 a3 3d
       -0.024167618 0.1605128 0.12321551 0.08005757
000070 75 a9 73 be df ba e1 3e 8f f6 ac 3d 11 2a dc be
       -0.23795111 0.44087884 0.08445465 -0.43000844
000080 db c8 ba 3d dc d5 a4 3e 11 7a 3b 3f 0f e8 0d 3d
       0.091203414 0.32194412 0.73233134 0.034645136
000090 54 fb 0f bd 4e fa 98 bc 59 d7 6b bf 6b 49 8d 3d
       -0.035151795 -0.018674042 -0.9212547 0.06898769
0000a0 6a 0e 86 bd 71 69 d9 3d dc fe dc bd d0 25 c0 bf
       -0.06545718 0.106158145 -0.10790798 -1.501154
0000b0 79 58 0d be 53 61 12 3e 36 c8 20 bd 5c 94 76 bf
       -0.13803281 0.14294939 -0.039253436 -0.9632013
0000c0 c5 b8 92 be a9 ca a7 bd 9a ca af be ee 46 98 be
       -0.28656593 -0.08192951 -0.3433426 -0.29741615
0000d0 8b 47 41 3e 92 1d 7a bd 58 21 83 3c e3 72 32 be
       0.18874948 -0.061063357 0.01600711 -0.17426638
0000e0 c8 54 11 be 62 a4 0b 3e c5 9f 3a 3d 44 5b f7 be
       -0.14192498 0.13636926 0.045562524 -0.48311818
0000f0 29 d8 f8 3e e8 1a 2f 3f dc 4f 69 bf da 3a f1 be
       0.48602417 0.6840043 -0.9113748 -0.47115213
000100 c7 e6 1e 3e d1 d6 8c 3e d6 d2 07 bd 3c f1 d0 bb
       0.15517722 0.27507642 -0.033160053 -0.0063764136
000110 e2 15 71 be 11 16 18 3d 2d 6b 07 bf 46 8d cf 3e
       -0.23543504 0.03713042 -0.5289791 0.4053747
000120 91 c5 b7 bd 16 06 1d bd 85 16 b9 be a4 58 30 3e
       -0.0897323 -0.038335882 -0.36149994 0.17221314
000130 d0 83 09 3f 8c ff 45 bf 47 7f a9 3d bf be 5d bd
       0.53716755 -0.7734306 0.08276229 -0.054136988
000140 d7 7c cf bd 5c f5 a4 3d 1c c5 84 bf 8e 34 72 bd
       -0.10131233 0.08054611 -1.0372653 -0.05913215
000150 6d 47 bd bd 5b d2 79 be 45 5e 58 3d e0 f0 d1 38
       -0.09242139 -0.2439665 0.052824277 0.00010010763
000160 cf 43 99 3c c4 b0 f0 bf 2a 4a 3d bf d0 b7 21 bf
       0.018709091 -1.8803945 -0.7394129 -0.631711
000170 3a 46 f0 3d 67 85 2b bd 67 96 70 bf 1d 2b b6 3d
       0.11732145 -0.04187527 -0.93979496 0.08894942
000180 04 00 8d bd a1 6a b6 3e 55 8e 14 bc 5e 4b 76 bf
       -0.068847686 0.35628226 -0.009067138 -0.9620875
000190 44 5a 01 bd 8a 66 0e be 7c 23 f0 3b c0 0a 0a 3e
       -0.031580225 -0.13906303 0.007328449 0.13480663
0001a0 f5 20 ad be cc 03 92 ba 3e 71 06 3f b6 13 bc bc
       -0.33814207 -0.0011140048 0.52516544 -0.022958618
0001b0 24 be 9c 3a 27 24 b9 3c 0f 11 54 3e 64 95 50 bd
       0.0011958522 0.022600247 0.20709632 -0.05092372
0001c0 05 ca c4 be 3d c9 b7 bd d5 b2 a6 be 7a 49 94 be
       -0.3843538 -0.0897393 -0.32558313 -0.28962308
0001d0 f5 34 25 bc 7a 58 0a be 04 30 29 bf d4 75 96 bb
       -0.010083427 -0.13510314 -0.6608889 -0.004591683
0001e0 06 60 aa bd 98 3f e0 3d 14 e2 ea 3e 65 19 a2 bf
       -0.08319096 0.109496295 0.4587561 -1.2664
0001f0 56 0d 03 3e 97 b1 e1 3e d8 69 e0 bd a6 76 8f 3b
       0.12798056 0.44080803 -0.10957688 0.0043781577
000200 73 fc ec bd 08 c2 41 be 30 f9 cf bc f6 7c 0b 3e
       -0.11571588 -0.18921673 -0.025387377 0.13621888
000210 ad b5 56 3e 90 50 c7 bb 5d d5 ef be fc a1 0c be
       0.20967741 -0.006082602 -0.4684247 -0.13733667
000220 1a 5f d8 be ba 9f 20 3d 19 76 09 bf 7f 31 e4 3c
       -0.42260057 0.039214827 -0.5369583 0.027855633
000230 a3 bb 63 bd b0 54 a5 3b a7 87 81 3d 30 16 6b bd
       -0.055598866 0.005045496 0.06324702 -0.057394207
000240 61 18 c7 3c 34 19 3d bf 47 78 16 be 69 c6 69 3f
       0.024303617 -0.7386658 -0.1469432 0.91318375
000250 27 94 f4 be 5b be 8c bd 80 28 20 3f 5f 45 0f be
       -0.4776928 -0.06872245 0.625618 -0.13991307
000260 80 6a c8 3a 68 e4 db bb b5 75 27 bf 7d b8 f5 be
       0.0015290529 -0.0067105778 -0.6541398 -0.47992316
000270 d3 be 27 be 53 89 85 bf 34 de 47 bd 75 e0 1e 3e
       -0.16381387 -1.0432533 -0.048795894 0.15515311
000280 55 ef 13 3c 7c 21 87 be e8 9c 6c bf 57 ba a4 bd
       0.009029229 -0.26392734 -0.9242692 -0.08043354
000290 28 0a 15 bd 38 a1 19 bf 58 40 25 bf 90 79 6d 3c
       -0.03638664 -0.60011625 -0.64551306 0.014494315
0002a0 40 73 f2 3b f1 b5 8b bd 73 34 13 be 56 92 ae 3e
       0.007398993 -0.06821812 -0.14375477 0.3409602
0002b0 93 f7 0d be d4 5c e0 bd 71 1c 0c be 21 e6 25 be
       -0.13863973 -0.109552056 -0.13682725 -0.16201068
0002c0 44 ae 70 be e5 7d 36 bb e0 e1 a4 3d b6 38 c0 bd
       -0.23503977 -0.0027846035 0.08050895 -0.09385817
0002d0 da d0 e8 be 88 96 d2 bc bc 17 d6 bc 92 3a 0c bf
       -0.4547184 -0.025706545 -0.026134364 -0.5477687
0002e0 17 58 37 bd c8 ae 21 bd dc 94 a9 bd 42 1c b7 bf
       -0.044761743 -0.039473325 -0.08280346 -1.4305499
0002f0 f2 94 92 bd 8b b9 d4 3e f5 2b 6a bf 26 e4 63 bf
       -0.07157315 0.41547808 -0.91473323 -0.8902
000300 7b 6f ab 3d b1 fc e4 be 8b 7d 87 3d e0 ec 20 bf
       0.083708726 -0.44724038 0.06615742 -0.6286144
000310 3e b6 16 3e 00 78 86 3b f2 a2 50 3e 4c 1b 2e bf
       0.14717957 0.0041036606 0.20374659 -0.680104
000320 15 7c 05 bd 8b cb 7e bf c6 c6 fe be 9f 39 b6 3f
       -0.032589037 -0.9952933 -0.49761027 1.4236335
000330 6d fb 96 be c8 8f fc bb cc 52 78 bd c5 0a 2f bd
       -0.29488698 -0.0077075697 -0.060625836 -0.04273488
000340 ad f9 9c 3d a2 a5 90 bd 28 00 b7 3e ff 19 99 3d
       0.076648094 -0.07062842 0.35742307 0.074756615
000350 ce 6f 7c bd b6 e0 86 bc b7 48 b9 3e 1c 56 e6 bd
       -0.061630063 -0.016464572 0.3618829 -0.11246893
000360 57 39 0b bf 3a cd 29 3e 23 b7 09 be 45 ef de be
       -0.5438437 0.16582194 -0.13448767 -0.43541923
000370 61 81 1e bf cc 0e ad bd b2 62 17 bf 28 65 a1 bb
       -0.61916167 -0.08450088 -0.5913497 -0.004925389
000380 83 2d 06 3e 3e a5 07 bf ef c7 05 bd 8d d9 14 3f
       0.13103299 -0.52986515 -0.032661375 0.58144456
000390 10 6d 8b bb 57 c7 83 be a2 74 92 bd d1 6f d8 be
       -0.0042549446 -0.25738022 -0.07151152 -0.4227281
0003a0 76 5b 37 be 33 ff c9 be 94 03 5c bf 6a ed 9d bd
       -0.17905983 -0.39452514 -0.8594296 -0.07711299
0003b0 48 3f 76 bc 44 ae 8d 3c 46 cd 39 3d 26 1c 16 be
       -0.015029736 0.01729501 0.04536178 -0.14659175
0003c0 d4 f1 3a be 5a cc ea bd 49 8c 28 be d0 9c 87 be
       -0.18256313 -0.11464758 -0.16459765 -0.26486826
0003d0 3a ff e6 bc 12 bc 0c 3f 01 9f 6f be ee d0 02 be
       -0.028197873 0.5497447 -0.23400499 -0.12775013
0003e0 e7 e1 df bd 25 63 32 bd 9f 06 fd bd 8e 38 d5 be
       -0.10931759 -0.043551583 -0.123547785 -0.4164471
0003f0 7e 13 b0 bd 27 5f ce be 0d ea 54 bf 4c 4e 1a bf
       -0.08597468 -0.4030697 -0.83169633 -0.6027572
